checkpoint_critic_final.pth (torch_old, 532547 bytes, 9 tensors)

fcs1.weight f4 [400, 24]
0	0x3ca6dd77	0.020369275
1	0x3d72cfb0	0.059280097
2	0x3c5c0e54	0.0134311505
3	0xbd3b3eec	-0.045714304
4	0x3dd770b7	0.105195455
5	0x3d1763bc	0.03696035
6	0x3b288017	0.0025711113
7	0xbc050182	-0.008118035
8	0x3da057d2	0.078292504
9	0x3dbd0e7e	0.0923128
10	0xbca62c3a	-0.02028476
11	0x3c56dd11	0.01311423
12	0x3e13ca2a	0.14432588
13	0x3d4ab6b5	0.04949065
14	0x3bfa5b09	0.007640247
15	0x3aa43d70	0.0012530517
16	0x3d31f772	0.043448873
17	0x3d978f18	0.0740034
18	0xbb501121	-0.003174849
19	0x3df8000e	0.121093854
20	0x3e36cbd4	0.17851192
21	0x3dd7b126	0.10531835
22	0x3c9d8e5e	0.019232925
23	0x3e033237	0.12812124
24	0x3d8faad1	0.070150025
25	0xbe8a3067	-0.26990053
26	0xbae43ed7	-0.0017413747
27	0x3d35fc2e	0.04442995
28	0x3d6b98b2	0.05751867
29	0xbc470be4	-0.012148831
30	0xbb3dea47	-0.0028978752
31	0x3d3429ce	0.04398518
32	0x3dcefae2	0.10106446
33	0xbe81fb04	-0.25386822
34	0x3bddcc0f	0.0067687104
35	0xbc1e8be1	-0.009676904
36	0x3bc1aba3	0.0059103533
37	0xbd4e7de6	-0.050413035
38	0xbc639fe2	-0.0138930995
39	0x3d1b2daf	0.037885364
40	0x3e0d668f	0.13808654
41	0xbe67b195	-0.22626336
42	0xbd2f1c9e	-0.0427519
43	0x3e09bbbd	0.13450523
44	0x3da9bac8	0.08287579
45	0xbc73bd97	-0.014876745
46	0x3d2c5d5e	0.04208123
47	0x3df953a6	0.12174158
48	0xbd4656d7	-0.04842266
49	0x3b17f9d9	0.0023189692
50	0x3d801ba3	0.06255271
51	0xbc3a2de2	-0.011363478
52	0xbdb55286	-0.08853631
53	0xbdf69ceb	-0.120416485
54	0x3ca9d7f7	0.020732863
55	0x3c452838	0.012033515
56	0xbd193034	-0.037399486
57	0xbd7ee6f8	-0.062231988
58	0x3d8eb203	0.06967547
59	0x3d22d5bc	0.039754614
60	0xbcfc0da7	-0.030768229
61	0xbe288434	-0.16456681
62	0x3cbec466	0.02328701
63	0x3d881639	0.06644864
64	0x3d3ce260	0.046114326
65	0x3c796ea0	0.015224129
66	0x3cc9cbb9	0.024633275
67	0x3c995916	0.018719237
68	0xbd2074bb	-0.039173823
69	0xbe84d0c3	-0.25940523
70	0x3c126d64	0.008937214
71	0xbc9cad29	-0.019125538
72	0x3d94fbf4	0.07274619
73	0x3e2f2276	0.1710299
74	0x3b7a79e2	0.003821962
75	0xbc06e7ab	-0.008233945
76	0xbdc07c05	-0.09398655
77	0xbdec8b8c	-0.11550054
78	0x3d7459a3	0.059655797
79	0xbd18d2f1	-0.037310544
80	0x3da08198	0.07837218
81	0x3d1a3f47	0.037658002
82	0x3c86d6a1	0.016459765
83	0xbd72499d	-0.059152234
84	0xbd598f39	-0.053115103
85	0xbd7f4779	-0.06232402
86	0x3da2379e	0.079207644
87	0xbdb19149	-0.08670289
88	0x3da91d79	0.082575746
89	0x3dc2360d	0.094829656
90	0x3d10223b	0.035188895
91	0xbc34b690	-0.011029854
92	0xbd3f3c5e	-0.04668843
93	0xbe208ca4	-0.1567865
94	0x3b6cf068	0.0036154035
95	0x3d1dd8e4	0.03853692
96	0x3d8678c0	0.06566
97	0x3de9c936	0.11415331
98	0x3bb35a6d	0.005473426
99	0x3e446e70	0.19182754
100	0x3ccec86a	0.02524205
101	0xbd7a000b	-0.061035197
102	0xbc56486d	-0.013078791
103	0x3e0d1d66	0.13780746
104	0x3d804838	0.06263775
105	0x3e4cec58	0.20012033
106	0xbd5745c7	-0.05255678
107	0x3d4c6395	0.049899656
108	0x3c1de734	0.009637643
109	0xbe34c473	-0.17653064
110	0x3cbf0dcd	0.02332201
111	0xbc2880eb	-0.010284643
112	0x3e05bc5b	0.13060133
113	0x3e83acc4	0.25717747
114	0x3d31714b	0.043320935
115	0x3d103fef	0.03521722
116	0xbce0f640	-0.027461171
117	0xbc75284e	-0.014963223
118	0x3d2b984b	0.041893285
119	0x3d8dced1	0.06924213
120	0x3db1b47e	0.08677004
121	0xbd98f5e8	-0.07468778
122	0x3c114583	0.008866671
123	0x3c11c204	0.008896355
124	0x3cd0b1fd	0.025475496
125	0xbdd00c4e	-0.10158597
126	0xbc442e07	-0.011973864
127	0x3ce60d3e	0.028082486
128	0x3d8ca0d2	0.068666115
129	0xbb822b11	-0.003972419
130	0x3d7d2496	0.06180247
131	0xbd3d2d42	-0.04618574
132	0x3cbf663e	0.023364183
133	0xbded2b58	-0.11580533
134	0x3daaef08	0.08346373
135	0xbcea6802	-0.028614048
136	0x3ddc5ace	0.10759507
137	0x3b243f0c	0.0025061993
138	0x3cea75e1	0.028620662
139	0x3e3aa85a	0.18228284
140	0x3bd30c36	0.0064406646
141	0x3b8f9919	0.0043822643
142	0x3c11afe8	0.008892037
143	0x3e0a0526	0.13478526
144	0x3ccdec71	0.025137158
145	0xbe05141a	-0.1299595
146	0x3d8196f6	0.06327622
147	0x3d9396be	0.07206486
148	0xbda7c05d	-0.08190987
149	0xbdfe53f7	-0.12418359
150	0x3d2837d8	0.04106888
151	0x3bc6f056	0.0060711307
152	0x3d1a8e7b	0.037733536
153	0xbdc6472a	-0.09681542
154	0x3d059249	0.03261021
155	0x3ce655b8	0.028117046
156	0xbd772390	-0.06033665
157	0xb9ced1bd	-0.0003944765
158	0x3d203537	0.03911325
159	0x3cb6f9f3	0.022335982
160	0x3d815335	0.063146986
161	0xbc3f680d	-0.0116825225
162	0x3cc6276f	0.024188725
163	0xbe0f2e36	-0.13982472
164	0x3dc2729b	0.094945155
165	0xbd288415	-0.04114159
166	0x3cfacfd2	0.030616675
167	0xbd994a8c	-0.07484922
168	0x3d804e87	0.06264978
169	0xbd8b9878	-0.068161905
170	0xbc1004c1	-0.008790196
171	0x3d6b0266	0.057375334
172	0x3d13a4ca	0.036045827
173	0xbe118b6f	-0.14213346
174	0x3c35e909	0.011102923
175	0x3da680b8	0.0813002
176	0x3d63b56c	0.05559294
177	0xbcc264d5	-0.023729721
178	0xbd4f9d8e	-0.050687365
179	0x3d7f688d	0.062355567
180	0x3c92fe75	0.0179436
181	0xbe444abb	-0.19169132
182	0xbd2dc8d2	-0.042427845
183	0xbcaaba71	-0.020840855
184	0x3dcd0a43	0.10011723
185	0x3ad4f2ca	0.0016246673
186	0xbd241198	-0.04005584
187	0x3e13d703	0.14437489
188	0xbd549f51	-0.05190975
189	0xbde3558f	-0.111003034
190	0x3d066016	0.03280648
191	0x3e200d5d	0.15630098
192	0x3cb9e851	0.022693785
193	0xbd801b74	-0.06255236
194	0x3c66021d	0.01403859
195	0xbd216093	-0.03939874
196	0xbcb32be2	-0.02187151
197	0xbe0fff07	-0.14062129
198	0xbcf29116	-0.029610198
199	0x3c924444	0.017854817
200	0xbca116d3	-0.019664204
201	0xbda3e299	-0.080022044
202	0xbbef24b3	-0.007298076
203	0xbc2b951c	-0.010472562
204	0x3dabfacd	0.08397446
205	0xbe625d30	-0.2210586
206	0x3b889e67	0.0041692737
207	0xbdbe7f3b	-0.09301611
208	0xbd84eaf3	-0.064901255
209	0xbe912d82	-0.28355032
210	0x3d06b9d5	0.032892067
211	0x3bb38384	0.0054783244
212	0x3da16632	0.0788082
213	0x3e1a0615	0.15041383
214	0xbcd535fc	-0.026026718
215	0x3d0c0abd	0.03418993
216	0x3d7eed9e	0.06223833
217	0xbcb8b03b	-0.02254497
218	0xba6408f8	-0.0008698846
219	0xbd19ca16	-0.03754624
220	0xbddf1542	-0.108927265
221	0x3c37caa0	0.011217743
222	0xbcf7e216	-0.030259173
223	0x3d1eaa9e	0.038736932
224	0x3d9c00fc	0.07617375
225	0xbd8db16f	-0.069186084
226	0xbc8a6781	-0.016895058
227	0xbca195b9	-0.019724714
228	0xbd9eb999	-0.07750244
229	0x3dc9bd04	0.09850505
230	0x3cc4c479	0.024019467
231	0xbd5ae979	-0.053445313
232	0x3dc4ea54	0.09615007
233	0xbb1802b6	-0.0023194975
234	0x3a1f6178	0.00060798926
235	0x3bb81f3a	0.005618957
236	0xbd3ac102	-0.045594223
237	0x3e320760	0.17385626
238	0x3d288095	0.04113825
239	0x3d332130	0.043732822
240	0xbcebbca4	-0.028776474
241	0x3de2880f	0.11061107
242	0x3af32823	0.001855139
243	0xbcc2ed59	-0.023794817
244	0xba240497	-0.00062567875
245	0x3d42aa04	0.04752542
246	0xbc924466	-0.01785488
247	0xbcd66df9	-0.026175486
248	0x3d1ea079	0.038727257
249	0x3d874c14	0.066063076
250	0xbb0923a8	-0.0020925794
251	0xbb414505	-0.0029490602
252	0xbd07f8c0	-0.03319621
253	0x3e3c53c1	0.18391325
254	0xbc377945	-0.0111983465
255	0xbb5e939c	-0.0033962494

fcs1.bias f4 [400]
0	0xbddebb82	-0.10875608
1	0xbdcac00b	-0.098999105
2	0x3dda326d	0.10654149
3	0x3a5b0eda	0.00083564
4	0xbe389bdb	-0.18028204
5	0xbc399971	-0.011328087
6	0x3c464895	0.012102266
7	0xbd63f42d	-0.055652786
8	0xbc8bfa68	-0.017087176
9	0xbe9987fc	-0.2998656
10	0xbdf82e89	-0.12118251
11	0x3df5228e	0.119694814
12	0xbe9b6941	-0.3035374
13	0x3dd30051	0.10302795
14	0x3c9a85df	0.018862663
15	0xbe1b1cc0	-0.15147686
16	0x3df91b19	0.121633716
17	0xbe0bcb2e	-0.13651726
18	0xbd9b5c30	-0.07585943
19	0x3d8d9f51	0.06915153
20	0xbd1c34df	-0.03813636
21	0x3e445833	0.1917427
22	0xbdadb0bc	-0.08480975
23	0xbe279e40	-0.16368961
24	0x3d354054	0.0442508
25	0xbe1b089c	-0.15140003
26	0xbda1d777	-0.07902425
27	0xbdb16c8a	-0.0866328
28	0xbe4b0172	-0.1982477
29	0x3dacb743	0.08433392
30	0xbe5da99f	-0.21646737
31	0x3e124be2	0.1428676
32	0x3d9cceeb	0.07656654
33	0x3c7ba809	0.015359887
34	0xbe5b8951	-0.21439101
35	0xbe14871b	-0.14504664
36	0xbea09f64	-0.31371605
37	0xbe925cdc	-0.2858647
38	0x3c57ebb6	0.013178756
39	0xbe6a8f42	-0.22906211
40	0x3de058f1	0.10954464
41	0xbe3fc73d	-0.18728347
42	0x3dd11bbf	0.1021037
43	0x3e57fa6d	0.21091624
44	0xbe83bfdd	-0.25732318
45	0xbd873189	-0.06601245
46	0x3e135f7f	0.14391898
47	0xbd81fc65	-0.063469686
48	0x3c88cba0	0.016698658
49	0x3d300b49	0.042979512
50	0x3d5d2d17	0.05399808
51	0x3db8e943	0.09028866
52	0xbde0cf64	-0.109770566
53	0xbe8fe8e6	-0.28107375
54	0xbd001ee3	-0.031279456
55	0xbc8a71d4	-0.01689998
56	0xbdb2099a	-0.086932376
57	0xbe1deba1	-0.15421917
58	0x3d1f71a3	0.03892673
59	0xbd95b863	-0.073105596
60	0xbd73bcc2	-0.059506185
61	0xbe701c74	-0.23448354
62	0xbe21acf3	-0.15788631
63	0xbd859a20	-0.06523538
64	0xbba76612	-0.0051086033
65	0xbdd5b075	-0.10434047
66	0x3daef275	0.08542339
67	0xbd267676	-0.040640317
68	0xbe4c8c73	-0.19975452
69	0x3e2662f1	0.1624868
70	0x3d4c9731	0.049948875
71	0x3dda969c	0.10673258
72	0x3d3ff549	0.04686478
73	0x3cc22a7d	0.0237019
74	0xbe1f8c90	-0.15580964
75	0xbe1ed0e5	-0.15509374
76	0xbe7de522	-0.24794438
77	0x3dac0ea4	0.0840123
78	0x3d80b8a0	0.062852144
79	0x3e53cd46	0.20683774
80	0x3e0f00d8	0.13965166
81	0xbd3f208c	-0.0466619
82	0xbbb97f16	-0.005660902
83	0x3db3d9be	0.087817654
84	0xbea7590a	-0.3268512
85	0x3e1099cf	0.14121173
86	0xbd01cb7d	-0.031688202
87	0xbe6ca199	-0.2310852
88	0xbe9c62b9	-0.3054407
89	0x3ca91dda	0.020644117
90	0xbe27a0eb	-0.16369979
91	0x3ce9a38c	0.028520368
92	0x3e08fbab	0.13377254
93	0x3dab2c3f	0.08358049
94	0xbde41cd3	-0.1113831
95	0xbd9d087a	-0.076676324
96	0xbd9750cf	-0.0738846
97	0x3e085693	0.13314275
98	0x3da7b86b	0.08189472
99	0xbe518c96	-0.20463786
100	0x3ced7fff	0.028991697
101	0xbd97338e	-0.0738288
102	0xbae52e86	-0.0017485179
103	0xbe379fec	-0.17932099
104	0x3da092c9	0.07840497
105	0xbe346171	-0.17615296
106	0x3d9accd8	0.07558602
107	0x3e130c4b	0.14360158
108	0xbe9e0625	-0.30864063
109	0x3d8f2d20	0.06991029
110	0x3d860419	0.0654375
111	0xbe85c315	-0.26125398
112	0xbf00d980	-0.5033188
113	0xbd7cdfa8	-0.061736733
114	0xbe9fe958	-0.31232715
115	0xbe511465	-0.20417936
116	0xbdbc4593	-0.09192958
117	0x3cb7a1f1	0.022416087
118	0xbe75b449	-0.23994555
119	0xbe7dce26	-0.2478567
120	0x3b2648bd	0.0025372945
121	0xbe1f9e56	-0.15587744
122	0xbe704846	-0.2346507
123	0xbe82cfbc	-0.25549114
124	0xbe9b477f	-0.30327985
125	0xbe80286f	-0.25030848
126	0xbd88b09e	-0.06674312
127	0x3d90be53	0.070675515
128	0xbe01fd75	-0.12694342
129	0xbe68fe95	-0.22753365
130	0x3d451304	0.048113838
131	0xbd0e9ad1	-0.034815613
132	0xbe6872e1	-0.22700073
133	0x3cf95f1e	0.030440863
134	0x3d79726f	0.060900148
135	0xbdd65894	-0.10466114
136	0xbcf9ac85	-0.030477772
137	0xbd028822	-0.031868108
138	0x3c4ddefa	0.012565369
139	0xbe42d8dd	-0.1902804
140	0x3d84c338	0.064825475
141	0xbe34b9b8	-0.17648971
142	0xbe585e0a	-0.21129623
143	0xbe49273f	-0.19643877
144	0xbe0754ea	-0.13215986
145	0x3e0cfa05	0.1376725
146	0xbe2beddc	-0.16789955
147	0x3c0f0334	0.008728791
148	0x3d162d86	0.03666451
149	0xbdb64e59	-0.089016624
150	0x3e123600	0.14278412
151	0x3c72d1f3	0.014820564
152	0xbe495b29	-0.19663681
153	0xbe726ca8	-0.23674262
154	0xbdfaa51e	-0.12238525
155	0xbdd34c21	-0.10317255
156	0x3d148b04	0.036265388
157	0xbdbc7028	-0.092010796
158	0xbc49676e	-0.012292726
159	0xbdfe4fd0	-0.12417567
160	0xbdf924c8	-0.121652186
161	0xbd7bff5c	-0.061522827
162	0xbeafb542	-0.34317976
163	0xbd584dc5	-0.05280854
164	0xbe7e92df	-0.24860714
165	0x3c86dacd	0.016461754
166	0xbdfd439c	-0.12366411
167	0xbe8bbd67	-0.2729294
168	0xbc9e160e	-0.019297626
169	0xbd7b2b10	-0.061320364
170	0xbde87b1e	-0.11351608
171	0x3d999a83	0.07500174
172	0x3e2315be	0.15926263
173	0x3c1deec2	0.009639444
174	0xbe8982f3	-0.2685772
175	0xbe0a5fe2	-0.13513139
176	0xbe0664c6	-0.1312438
177	0xbce7a8c3	-0.028278714
178	0xbe765fc7	-0.24059974
179	0xbe79aff6	-0.2438353
180	0xbe14ab36	-0.14518437
181	0xbe9654c8	-0.29361558
182	0xbe823efd	-0.2543868
183	0xbe3ff494	-0.18745643
184	0x3d50ba68	0.05095902
185	0x3d7942b1	0.060854618
186	0xbe2fbbbd	-0.1716146
187	0xbe831ab3	-0.25606307
188	0xbe5febe6	-0.21867332
189	0xbdfc1fa8	-0.123107255
190	0x3d5432c5	0.05180623
191	0xbe2e9e8c	-0.17052668
192	0x3dfec955	0.12440745
193	0xbd9d1d1e	-0.07671569
194	0xbe7808e1	-0.24222137
195	0x3dd27640	0.10276461
196	0xbe9beecc	-0.30455625
197	0xbe9228be	-0.2854671
198	0xbe36c790	-0.17849565
199	0xbd81d520	-0.063394785
200	0xbd97d3ec	-0.07413468
201	0xbe23b9b5	-0.1598881
202	0x3c911dfe	0.017714497
203	0xbcf6f645	-0.030146727
204	0xbd1763af	-0.0369603
205	0xbea50ac3	-0.32234773
206	0x3dace063	0.08441236
207	0xbe5f7e6e	-0.21825573
208	0x3e20130a	0.15632263
209	0x3e0b3566	0.13594589
210	0xbd0f9b84	-0.03506042
211	0xbe3a1170	-0.18170714
212	0xbcc7743b	-0.024347415
213	0x3db74734	0.08949128
214	0xbdda17de	-0.106490836
215	0xbc7f1908	-0.015569933
216	0xbbb52ba6	-0.005528885
217	0xbe78e3d1	-0.24305655
218	0xbe421864	-0.18954617
219	0x3dedced4	0.11611715
220	0xbe3459c2	-0.17612365
221	0x3de3b480	0.11118412
222	0xbe336ec7	-0.17522727
223	0xbdd12de4	-0.10213831
224	0x3d72ec2e	0.05930727
225	0xbda404a4	-0.08008698
226	0xbe7519b5	-0.23935588
227	0xbccf3b89	-0.025296943
228	0x3daed40d	0.08536539
229	0xbe4d50aa	-0.20050302
230	0xbe4497c0	-0.19198513
231	0xbe510939	-0.20413674
232	0xbce30104	-0.027710445
233	0x3e081900	0.13290787
234	0x3e12bb03	0.14329152
235	0x3dbf8944	0.09352353
236	0xbcaac699	-0.020846652
237	0xbe8cb70f	-0.27483413
238	0x3e19907f	0.14996527
239	0x3dbf2b01	0.09334374
240	0x3e3392ce	0.1753647
241	0xbd56267e	-0.052282803
242	0x3d22a987	0.039712455
243	0x3d235af6	0.03988167
244	0x3e15c6fa	0.14626685
245	0x3e1e541f	0.15461777
246	0x3e30e70c	0.17275637
247	0x3dfe890f	0.124284856
248	0xbd5bfff7	-0.053710904
249	0xbeb12f83	-0.3460656
250	0xbd9bd984	-0.07609847
251	0xbe5b7495	-0.21431191
252	0xbe632abe	-0.22184274
253	0x3da7324f	0.081638925
254	0xbd67616d	-0.056489397
255	0xbe054772	-0.13015535

fc2.weight f4 [300, 402]
0	0x3dbbf638	0.09177822
1	0xbeb5ad59	-0.35483816
2	0x3c2fc421	0.010727913
3	0xbdd52711	-0.10407842
4	0x3d53b52e	0.05168646
5	0x3dc8e1ec	0.09808716
6	0xbccb7115	-0.024834195
7	0x3d50dd3e	0.050992243
8	0x3d264f59	0.040603016
9	0x3d2d602a	0.042328037
10	0x3c226550	0.00991185
11	0xbc85ebb7	-0.01634775
12	0xbc8aced6	-0.01694433
13	0xbe244326	-0.1604124
14	0x3d097407	0.033557918
15	0x3dd43354	0.103613526
16	0xbc76c138	-0.015060715
17	0xbd7fbc7f	-0.062435623
18	0xbb2608cd	-0.0025334836
19	0xbd4b8d0f	-0.04969507
20	0x3b17607c	0.002309828
21	0x3d9074c7	0.070535235
22	0x3bd69e15	0.0065496066
23	0xbbe0ad02	-0.0068565616
24	0x398bd552	0.00026671082
25	0x3bdcbaf1	0.0067361523
26	0xbe747b4d	-0.2387516
27	0x3ab312a0	0.0013662167
28	0x3c03c226	0.008041894
29	0x3d333a50	0.043756783
30	0xbd7e5550	-0.06209308
31	0x3d4eb773	0.05046792
32	0x3abb9d52	0.0014313853
33	0xbd067ae3	-0.032832038
34	0xbb102ea3	-0.0022000454
35	0x3dece6a9	0.115674324
36	0x3cf2c588	0.029635206
37	0x3d093612	0.03349883
38	0x3ca08aa5	0.01959736
39	0x3ca02645	0.019549498
40	0x3d9dbf61	0.07702518
41	0xbdafa695	-0.08576695
42	0x3d671c4c	0.05642347
43	0xbcc69144	-0.02423919
44	0x3ccb5e3c	0.024825208
45	0xbd71625b	-0.05893169
46	0xbdb7f822	-0.089828745
47	0x3d2f3e7f	0.04278421
48	0x3d11ee3a	0.03562758
49	0xbcb61a16	-0.022229236
50	0x3cf5f467	0.030023767
51	0x3c39c292	0.011337893
52	0x3d2860bc	0.041107878
53	0xbc606d0b	-0.013697873
54	0xbc900476	-0.017580252
55	0x3cf62138	0.030045137
56	0xbe0e686a	-0.13907018
57	0xbd2ec5ba	-0.042669035
58	0xbce85095	-0.028358737
59	0xbc8ffcc6	-0.017576586
60	0x3d761200	0.06007576
61	0xbd94530f	-0.07242405
62	0xbcb1639a	-0.021653939
63	0xbb9cc931	-0.004784726
64	0xbd54e1a6	-0.051973008
65	0x3ddbc5c6	0.10731082
66	0xbd95772a	-0.07298119
67	0x3db24fc2	0.08706619
68	0x3c9d9439	0.019235717
69	0xbd800f8f	-0.062529676
70	0x3ca80831	0.020511718
71	0x3d0a3298	0.033739656
72	0x3d4dece5	0.05027475
73	0x3d187b8f	0.03722721
74	0xbdae2d42	-0.08504726
75	0x3de7fc35	0.113274015
76	0x3ce07e78	0.027404055
77	0xbd01c018	-0.031677336
78	0xbddf51c4	-0.109042674
79	0x3cd6e473	0.02623198
80	0xbd89ee3c	-0.06734893
81	0x3cf132e7	0.029443217
82	0xbce377d5	-0.027767101
83	0x3d1a0792	0.037604876
84	0x3c2ff0ca	0.010738561
85	0x39f1c4a6	0.00046113617
86	0x3d5a2cfa	0.05326555
87	0x3ce71f29	0.0282131
88	0xbdb5dc3c	-0.08879897
89	0x3cf70c4c	0.03015723
90	0x3d828b57	0.06374233
91	0x3d0e684a	0.034767427
92	0xbd95fba9	-0.07323391
93	0x3d14950e	0.036274962
94	0xbe4ba6c2	-0.19887832
95	0xbca50c95	-0.020147601
96	0xbd34f184	-0.04417564
97	0x3dbad176	0.09121983
98	0xbca7b7e1	-0.020473422
99	0xbca625ab	-0.020281633
100	0x3d290eac	0.041273758
101	0xbe05aaf5	-0.13053496
102	0x3c26f011	0.010189072
103	0xbda8168f	-0.08207428
104	0x3d13f783	0.036124717
105	0x3c880f94	0.01660899
106	0xbe03d300	-0.12873459
107	0x3c94dd9a	0.018172074
108	0xbdc9e213	-0.09857573
109	0xbd0be8b4	-0.03415747
110	0x3d059c83	0.032619964
111	0x3da57293	0.08078494
112	0x3d28f5df	0.041250106
113	0x3db86e4e	0.09005414
114	0x3d030bfb	0.031993847
115	0x3d328be4	0.04359044
116	0x3d279d82	0.040921696
117	0x3c3f1f83	0.011665228
118	0x3b2eb118	0.002665585
119	0x3c6368df	0.013879984
120	0xbdab8d18	-0.08376521
121	0x3cf882bb	0.030335775
122	0xbdda750e	-0.10666858
123	0x3dc168d9	0.09443826
124	0x3c19e8ea	0.00939391
125	0x3d5360b9	0.051605914
126	0xbd0a256a	-0.033727087
127	0x3c23b228	0.009991206
128	0x3d3c57c1	0.045982126
129	0x3ac93ae5	0.0015352635
130	0x3d99336f	0.07480513
131	0x3d12a690	0.035803378
132	0x3cd2ccc5	0.025732407
133	0xbc19da0c	-0.009390365
134	0xbd05e139	-0.032685492
135	0x3cb4e773	0.02208302
136	0x3c8d751d	0.017267758
137	0xbd9cfba1	-0.07665182
138	0xbd1ef4dc	-0.038807735
139	0x3ccef7ac	0.025264584
140	0x3dcf9d52	0.10137428
141	0x3cd14e57	0.02555005
142	0x3dcad5ea	0.09904082
143	0x3d435a7c	0.047693714
144	0xbd39f4fa	-0.045399643
145	0xbd3a915d	-0.045548785
146	0xbdb79a80	-0.089650154
147	0xbb0f6440	-0.0021879822
148	0x3d2bbed3	0.04193003
149	0xbd29bdbc	-0.04144071
150	0xbd62849e	-0.055302255
151	0xbd1e2b06	-0.03861525
152	0x3d8f54ee	0.06998621
153	0x3daf9090	0.08572495
154	0xbd474b51	-0.04865581
155	0x3d5952db	0.053057533
156	0x3c7cecaa	0.0154372845
157	0xbbfcbf6e	-0.00771325
158	0xbd26331b	-0.04057608
159	0xbb09debe	-0.0021037306
160	0x3d63a88d	0.055580664
161	0xbd032108	-0.032013923
162	0xbd39067a	-0.045172192
163	0xbd51cf92	-0.051223345
164	0x3c04db39	0.008108907
165	0xbd24a69b	-0.04019795
166	0xbc51ff54	-0.012817223
167	0xbddab11c	-0.10678312
168	0xbd006b46	-0.031352304
169	0xbda10a1d	-0.07863257
170	0x3c94a290	0.018143922
171	0x3d95f9ee	0.07323061
172	0x3cb35319	0.02189021
173	0x3c2d8303	0.010590318
174	0x3d411e52	0.047148056
175	0x3e2a1a05	0.16611488
176	0xbd4c68a5	-0.049904484
177	0xbd987d59	-0.07445783
178	0x3ce3ce81	0.02780843
179	0x3d7da38f	0.06192356
180	0x3d23fea8	0.04003778
181	0xbd59bb25	-0.05315699
182	0x3dcab68e	0.09898101
183	0x3deb89fc	0.11500928
184	0x3dba232d	0.090887405
185	0xbcf274bf	-0.029596685
186	0x3d2ef67d	0.04271554
187	0x3bbb2960	0.0057117194
188	0xbccde1e7	-0.025132133
189	0xbd2ef63e	-0.042715304
190	0xbd9e1838	-0.07719463
191	0xbd554f8d	-0.05207782
192	0xbdb32560	-0.08747363
193	0x3d84300a	0.06454475
194	0x3dc0b024	0.09408596
195	0x3d909c58	0.0706107
196	0x3d14a059	0.036285732
197	0x3d95cd26	0.073145196
198	0x3c5c1ee8	0.013435103
199	0xbd4ad76a	-0.04952184
200	0xbbe1bcf4	-0.00688898
201	0x3c306f40	0.010768712
202	0x3c19e6a9	0.009393373
203	0xbdebccd6	-0.11513679
204	0xbd0c77b0	-0.03429383
205	0x3ba5be53	0.005058089
206	0xbe023797	-0.12716518
207	0x3b370228	0.002792487
208	0x3d84f7ea	0.06492598
209	0x3d5244ec	0.05133526
210	0xbd559329	-0.052142296
211	0x3c6dbcae	0.014510317
212	0xbd09aca2	-0.0336119
213	0x3dd7abca	0.10530813
214	0x3ba7bcd7	0.005118947
215	0xbce2e1ba	-0.027695525
216	0x3d8ba040	0.06817675
217	0x3d181b1a	0.03713522
218	0x3db276e5	0.087140836
219	0xbdfa2b8e	-0.12215339
220	0x3c4bc959	0.012438142
221	0x3c27e808	0.010248192
222	0x3d871075	0.06594936
223	0x3da3c22b	0.07996019
224	0xbcac9096	-0.021065038
225	0x3d36e575	0.04465242
226	0x3d80429b	0.06262704
227	0x3ce6e598	0.02818565
228	0xbddced92	-0.107875004
229	0x3e15c923	0.14627509
230	0xbd287df5	-0.041135747
231	0x3d8cf11b	0.06881925
232	0x3d334462	0.043766387
233	0xbd466b97	-0.04844245
234	0xbc0e98b1	-0.008703397
235	0xbd502e10	-0.05082518
236	0x3d2a2efe	0.04154872
237	0x3cc44d98	0.02396278
238	0xbd9a1172	-0.07522859
239	0x3d75316f	0.059861597
240	0xbd90e41e	-0.0707476
241	0xbd8aff12	-0.06786932
242	0xbd4e4b08	-0.050364524
243	0xbcca1691	-0.024668964
244	0x3d8ee714	0.069776684
245	0x3abc679a	0.0014374137
246	0x3d535391	0.051593367
247	0xbb55c8a1	-0.0032620805
248	0x3d741e9a	0.059599496
249	0xbcd58430	-0.026064008
250	0xbd05e056	-0.032684647
251	0x3c9b770a	0.01897766
252	0x3d480910	0.048836768
253	0xbba70134	-0.005096579
254	0x3cad13a1	0.021127524
255	0xbdaec9b9	-0.08534569

fc2.bias f4 [300]
0	0xbe1b8eb4	-0.15191156
1	0xbc8e2f06	-0.017356407
2	0x3b541e40	0.0032366663
3	0xbdbef8da	-0.093248084
4	0xbd3be679	-0.045874093
5	0xbe1a726e	-0.15082714
6	0xbe0fdd84	-0.14049345
7	0xbd93b5ea	-0.07212432
8	0xbd5eca0d	-0.05439191
9	0xbdc4a0d3	-0.09600987
10	0xbcc3548a	-0.023844022
11	0xbdf4c6a2	-0.11951949
12	0xbdf027b6	-0.11726324
13	0xbd674972	-0.056466527
14	0xbdde6659	-0.10859365
15	0xbcf9db83	-0.03050018
16	0xbe1b2b81	-0.15153314
17	0xbe2e9de6	-0.17052421
18	0xbd9a6419	-0.07538623
19	0xbd4ae862	-0.049538024
20	0xbdc2edb0	-0.095179915
21	0xbd911608	-0.0708428
22	0xbd606f27	-0.054793503
23	0xbdad4869	-0.08461077
24	0xbd2b84a8	-0.041874558
25	0xbd907ef3	-0.07055464
26	0xbe1e8782	-0.1548138
27	0xbdbb44d7	-0.091439895
28	0xbe2f4890	-0.17117524
29	0x3c77f1dc	0.015133347
30	0xbe236558	-0.15956628
31	0xbdac9a24	-0.084278375
32	0xbe112a97	-0.14176403
33	0xbe33d88d	-0.17563076
34	0xbd3b1bd3	-0.045680832
35	0xbdb0c443	-0.08631184
36	0xbdd11bf5	-0.102104105
37	0xbe0ada06	-0.13559732
38	0xbdc8673f	-0.09785318
39	0xbdbdbab4	-0.092641264
40	0xbdb2e95b	-0.08735915
41	0xbe344a05	-0.17606361
42	0xbd973f89	-0.07385165
43	0xbdb676ce	-0.08909379
44	0xbe14fab0	-0.14548755
45	0xbe2442d9	-0.16041125
46	0xbe01daf5	-0.12681182
47	0xbd127b98	-0.0357624
48	0xbd8228ca	-0.06355436
49	0xbd94594f	-0.07243597
50	0xbd65553b	-0.055989485
51	0xbdf56830	-0.11982763
52	0xbd54c86a	-0.051948942
53	0xbdb7d151	-0.08975471
54	0x3cf995cd	0.030466938
55	0xbe07f7f2	-0.13278177
56	0xbd8cdaa6	-0.068776414
57	0xbda6988e	-0.08134566
58	0xbdd7b177	-0.105318956
59	0xbe10cf9f	-0.14141701
60	0xbe277235	-0.1635216
61	0xbd205f96	-0.039153658
62	0xbdc17d17	-0.09447687
63	0xbdad826c	-0.084721416
64	0xbdc487b6	-0.09596197
65	0xbdef54a0	-0.11686063
66	0xbe1a9c2f	-0.15098642
67	0xbdc6caee	-0.097066745
68	0xbc56d10e	-0.013111366
69	0xbdee7e67	-0.11645203
70	0xbdbe4fdf	-0.09292578
71	0xbd84e29b	-0.06488534
72	0xbe04ee69	-0.12981571
73	0xbe0c6095	-0.13708718
74	0xbddc6ed7	-0.107633285
75	0xbe00320a	-0.12519088
76	0xbdf8a8f7	-0.121416025
77	0xbdfa0fa3	-0.12210014
78	0xbd969352	-0.07352318
79	0xbdce30e8	-0.10067922
80	0xbe28734d	-0.16450234
81	0xbdcb3216	-0.099216625
82	0xbe22c6e6	-0.15896186
83	0xbe027ec6	-0.12743673
84	0xbdc6e5f4	-0.09711829
85	0xbdaec249	-0.08533151
86	0xbda3b41d	-0.07993338
87	0xbe45ee2e	-0.1932914
88	0x3c0a6d87	0.008448965
89	0xbd7c2f3d	-0.061568487
90	0xbe079e6d	-0.13244028
91	0xbdfe0378	-0.12403005
92	0xbe1e0934	-0.15433198
93	0xbe14f8a6	-0.14547977
94	0xbe136a89	-0.14396109
95	0xbdfdb81f	-0.12388634
96	0xbdb7d2b7	-0.089757375
97	0xbe24a1b3	-0.16077308
98	0xbe09a64e	-0.13442346
99	0xbe101329	-0.14069809
100	0xbdaf698d	-0.08565054
101	0xbdc6680d	-0.09687815
102	0xbe1f94ce	-0.15584108
103	0xbe069c54	-0.13145572
104	0xbdcfd842	-0.1014867
105	0xbdf875f0	-0.1213187
106	0xbdcb2491	-0.09919084
107	0xbd7b5a45	-0.061365385
108	0xbe0262ab	-0.12732951
109	0xbdd5879a	-0.104262546
110	0xbe04fd72	-0.12987307
111	0xbe02769f	-0.12740563
112	0xbdac997e	-0.08427714
113	0xbdb213aa	-0.08695157
114	0xbde1e943	-0.11030819
115	0xbd51361c	-0.051076993
116	0xbd76f18b	-0.060288947
117	0xbd9d3adc	-0.07677242
118	0xbdee66de	-0.11640714
119	0xbd0888ce	-0.033333592
120	0xbde1c5ad	-0.11024032
121	0xbd95506f	-0.07290732
122	0xbdcfe2f9	-0.101507135
123	0xbe055887	-0.13022052
124	0xbe258830	-0.16165233
125	0xbd7c7409	-0.061634097
126	0xbd36eb35	-0.044657905
127	0xbd9a27c4	-0.07527116
128	0xbdfa39ae	-0.12218033
129	0xbd79fe11	-0.061033312
130	0xbe148acf	-0.14506076
131	0xbdb36211	-0.08758939
132	0xbdbc6cf0	-0.09200466
133	0xbde80200	-0.113285065
134	0xbd4e6d10	-0.05039698
135	0xbe095dd9	-0.13414706
136	0xbdef582e	-0.11686741
137	0xbde707d4	-0.1128079
138	0xbe3eef84	-0.18646055
139	0xbe06a629	-0.13149323
140	0xbddfc0ac	-0.10925421
141	0xbd08d1c8	-0.033403188
142	0xbe0b36ab	-0.13595073
143	0xbde95fad	-0.11395202
144	0xbde8b7f3	-0.113632105
145	0xbddd5a74	-0.10808268
146	0xbd7f96cb	-0.062399667
147	0xbdae8dfb	-0.085231744
148	0xbd8a4f49	-0.06753404
149	0xbda3958c	-0.07987508
150	0xbe0bd477	-0.13655268
151	0xbde38171	-0.11108673
152	0xbe0a762e	-0.13521644
153	0xbe002bd1	-0.12516715
154	0xbd0c2666	-0.034216307
155	0xbe1136a5	-0.14181001
156	0x3d0d3f9c	0.03448449
157	0xbdec8c31	-0.11550177
158	0xbdc6526d	-0.0968369
159	0xbdbe4875	-0.09291164
160	0xbd8d0978	-0.06886572
161	0xbdd34142	-0.10315181
162	0xbde967b3	-0.11396732
163	0xbd18578c	-0.037192866
164	0xbe0dfe75	-0.13866599
165	0xbd253b14	-0.040339544
166	0xbd977e36	-0.0739712
167	0xbd9ba355	-0.075995125
168	0xbdb92ea8	-0.09042102
169	0xbdb35a9b	-0.08757516
170	0xbde36353	-0.11102929
171	0xbe1dcc8e	-0.15410063
172	0xbe271b1d	-0.16318937
173	0xbdd58583	-0.10425856
174	0xbdf337cf	-0.11875879
175	0xbd2bc786	-0.041938327
176	0xbdc138f9	-0.09434695
177	0xbe128d5a	-0.14311734
178	0xbc0a6da3	-0.008448991
179	0xbdc3cb6b	-0.09560283
180	0xbd1b04ec	-0.03784649
181	0xbd6af94e	-0.05736666
182	0xbdfdb684	-0.12388328
183	0xbe16055b	-0.1465048
184	0xbdab8128	-0.08374244
185	0xbd0a6c55	-0.03379472
186	0xbd5f4917	-0.054513063
187	0xbdfaa03d	-0.12237594
188	0xbe1372ed	-0.1439931
189	0xbdeb8f02	-0.11501886
190	0xbd91b21c	-0.0711405
191	0xbda0a0e6	-0.07843189
192	0xbb983e13	-0.0046460717
193	0xbd997961	-0.07493854
194	0xbdbe7032	-0.09298743
195	0xbe10a085	-0.14123733
196	0xbe31b43c	-0.1735391
197	0xbd0faa5a	-0.03507457
198	0xbdccf8e9	-0.10008413
199	0xbdf2fc5d	-0.11864541
200	0xbd5fbc92	-0.054623194
201	0xbe0431d4	-0.12909633
202	0xbe505385	-0.2034436
203	0xbe1406e4	-0.14455754
204	0xbc18191b	-0.009283329
205	0xbd0e5cc7	-0.034756448
206	0xbe01f9d8	-0.12692964
207	0xbd43cf30	-0.04780501
208	0x3a7f3908	0.00097359763
209	0xbcea5e32	-0.028609369
210	0xbdbd078c	-0.09229955
211	0xbe00ba68	-0.12571108
212	0xbdb2ad93	-0.08724513
213	0xbe218792	-0.15774372
214	0xbdea5eb9	-0.11443848
215	0xbe028a43	-0.12748055
216	0xbc0635a4	-0.0081915
217	0xbe048e4c	-0.12944907
218	0xbe1e2bc2	-0.1544638
219	0xbc77e821	-0.015131027
220	0xbdb55086	-0.08853249
221	0xbdb4175e	-0.087935194
222	0x3c3a5e48	0.011375017
223	0xbda56575	-0.08075992
224	0xbda6b8a9	-0.0814069
225	0xbe32a5a4	-0.17446
226	0xbe48443c	-0.1955728
227	0xbe05ef1c	-0.13079494
228	0xbce47acd	-0.027890587
229	0xbdc2c99b	-0.095111094
230	0xbda86ddc	-0.08224079
231	0xbc7b020a	-0.01532031
232	0xbdbd7fe7	-0.09252911
233	0xbdacbb1b	-0.08434125
234	0xbdac0593	-0.08399501
235	0xbdf4b720	-0.11948991
236	0xbe19eba6	-0.15031299
237	0xbe134951	-0.14383437
238	0xbcd27c03	-0.025693899
239	0xbe20de48	-0.15709794
240	0xbe0ac714	-0.13552505
241	0xbd4b5514	-0.049641684
242	0xbe230069	-0.15918125
243	0xbdd9b548	-0.1063028
244	0xbe339b5c	-0.17539734
245	0xbe00c0c2	-0.12573531
246	0xbd6c8163	-0.05774058
247	0xbda2ac88	-0.07943064
248	0xbd1d0a09	-0.03833965
249	0xbce96cef	-0.028494326
250	0xbdab7279	-0.08371443
251	0xbd9a2576	-0.07526676
252	0xbd8071fb	-0.0627174
253	0xbdc66fc2	-0.09689285
254	0xbddc8247	-0.10767036
255	0xbdd497eb	-0.103805386

fc3.weight f4 [1, 300]
0	0x3d698a76	0.057016812
1	0xbcf52cc2	-0.029928569
2	0xbd2e5dd4	-0.04256995
3	0x3cd1dd04	0.025618084
4	0x3d089197	0.03334197
5	0x3dec3731	0.115339644
6	0xbd8a7e9d	-0.06762431
7	0x3dc039a8	0.09385997
8	0x3cc2d263	0.02378196
9	0x3d255c39	0.040371154
10	0xbda49d19	-0.080377765
11	0x3d31bcde	0.04339301
12	0x3d03e385	0.0321994
13	0xbd2bd39d	-0.041949857
14	0x3b8e6022	0.004344956
15	0x3cdffb72	0.027341578
16	0x3dc7af90	0.09750283
17	0x3d4a6e9c	0.04942189
18	0x3da9762a	0.08274491
19	0xbd884006	-0.066528365
20	0xbd036854	-0.032081917
21	0xbcd9fb77	-0.026609166
22	0xbd447e99	-0.047972295
23	0xbdb2281d	-0.08699057
24	0x3cd8200f	0.026382474
25	0x3d808269	0.06274874
26	0xbde2a43e	-0.11066483
27	0xbce40395	-0.02783374
28	0xbd581c23	-0.05276121
29	0xbc6060bb	-0.013694937
30	0x3d6847cc	0.056709096
31	0x3d64d1d2	0.055864163
32	0xbd039462	-0.03212393
33	0xbd0250f5	-0.031815488
34	0x3ce6a9b5	0.028157094
35	0x3db2e180	0.08734417
36	0xbd5e721a	-0.054308034
37	0xbd35df3a	-0.04440234
38	0xbd4f9844	-0.05068232
39	0xbd23776c	-0.03990881
40	0x3cf0db54	0.029401459
41	0x3b8ea936	0.0043536676
42	0x3cd7b642	0.026332024
43	0x3d11435d	0.035464633
44	0x3d6fbf5f	0.058532115
45	0xbcb28675	-0.02179263
46	0x3e02684d	0.127351
47	0xbcb42252	-0.021989021
48	0xbd0545b6	-0.032537185
49	0xbe45da0a	-0.19321457
50	0xbcfe0bf4	-0.03101156
51	0xbc979889	-0.018505352
52	0x3c8e1050	0.017341763
53	0x3b55db7d	0.0032632046
54	0x3cccdb0b	0.025006792
55	0xbade4b32	-0.0016959666
56	0xbd650439	-0.05591223
57	0x3d0a78be	0.033806555
58	0x3d948aa2	0.072530046
59	0x3d434f42	0.047683008
60	0xbe184559	-0.14870204
61	0x3cd35e57	0.02580182
62	0x3d68b141	0.056809667
63	0xbdfd11b3	-0.123568915
64	0x3dbd242f	0.09235417
65	0x3d29d935	0.04146691
66	0x3e344f1c	0.17608303
67	0x3d6ed7d9	0.058311317
68	0xbc826644	-0.015917905
69	0xbdadd892	-0.08488573
70	0x3b2bef75	0.0026235257
71	0x3cac23a7	0.021013094
72	0x3e093138	0.13397682
73	0x3d62e365	0.05539264
74	0x3ddac6b6	0.10682432
75	0xbd6a017b	-0.057130318
76	0xbc2c9f87	-0.010536081
77	0xbd266d0d	-0.040631343
78	0xbd510749	-0.05103234
79	0x3aeb6340	0.0017958656
80	0xba022e76	-0.00049660297
81	0x3d314634	0.04327984
82	0x3e013175	0.12616523
83	0x3deaf240	0.11471987
84	0x3ccc0cbb	0.024908414
85	0xbdae8f95	-0.0852348
86	0x3b577754	0.0032877522
87	0x3a512ac5	0.00079790904
88	0xbc8020ba	-0.015640605
89	0x3d625584	0.055257335
90	0x3d17aa04	0.037027374
91	0x3da97de3	0.08275964
92	0xbb565681	-0.003270537
93	0x3d2324c8	0.03983
94	0x3d70fd09	0.058835063
95	0xbb9a9840	-0.0047178566
96	0xbd7bdea7	-0.061491635
97	0xbd8d13a1	-0.068885095
98	0x3cb05c0d	0.021528268
99	0x3d044399	0.03229103
100	0x3d0a0db3	0.03370447
101	0xbe4ff127	-0.20306836
102	0xbd2b304e	-0.041794114
103	0x3d0ab1a3	0.033860814
104	0xbd579214	-0.052629545
105	0xbc0a8d63	-0.008456561
106	0xbd21f3a6	-0.039539002
107	0x3d5be2c9	0.053683076
108	0xbdcd9e89	-0.10040004
109	0x3b55882a	0.003258238
110	0xbdf5c3e2	-0.12000252
111	0xbd103fa9	-0.03521696
112	0x3db780ee	0.08960138
113	0xbd0fb28f	-0.035082396
114	0x3daaec12	0.08345808
115	0x3cffd31f	0.0312286
116	0xbd3200ef	-0.04345792
117	0xbd861c35	-0.06548349
118	0x3d8a3694	0.06748691
119	0xbcb4ce1a	-0.022070933
120	0xbdcec9ee	-0.10097109
121	0xba41aa9d	-0.0007387789
122	0x3b8d0ce6	0.004304516
123	0xbe0310ef	-0.12799428
124	0x3db8731d	0.09006331
125	0xbd5b116a	-0.053483404
126	0xba391e35	-0.0007061691
127	0x3d11da3f	0.035608526
128	0xbd3a0014	-0.04541023
129	0x3d1faa0a	0.03898052
130	0x3e1e22dd	0.15442987
131	0x3a20d34c	0.00061350013
132	0x3d1fce5b	0.039015155
133	0x3dab477f	0.08363246
134	0x3dd75a20	0.10515237
135	0x3d17800c	0.03698735
136	0xbe09a63b	-0.13442318
137	0xbe56bd46	-0.2097064
138	0xbe0935a1	-0.13399364
139	0x3d9bf980	0.07615948
140	0xbd74a067	-0.059723284
141	0x3cd65a61	0.026166143
142	0xbd449380	-0.04799223
143	0x3d7b3116	0.06132611
144	0x3dcce05c	0.10003731
145	0xbe24cac0	-0.16092968
146	0xbdc1c70b	-0.094617926
147	0x3bd46955	0.006482283
148	0xbd932951	-0.07185615
149	0x3cbd9779	0.023143517
150	0xbd89557d	-0.06705759
151	0xbe24f181	-0.16107751
152	0xbabae404	-0.0014258628
153	0x3d361fa3	0.044463765
154	0x3d22954a	0.039693154
155	0xbdf556c4	-0.1197944
156	0x3d345489	0.04402593
157	0x3d4e225d	0.05032574
158	0x3d7eafa5	0.062179226
159	0xbcd7c048	-0.026336804
160	0xbd56f117	-0.052476015
161	0xbd18458e	-0.037175708
162	0x39687f10	0.00022172579
163	0xbd50b824	-0.05095686
164	0xbcbe2b05	-0.023213873
165	0x3d628359	0.055301044
166	0xbca47e0b	-0.020079633
167	0xbd1b29b1	-0.037881557
168	0x3d1265b6	0.03574153
169	0xbcc1d05b	-0.023658922
170	0xbe516627	-0.20449124
171	0x3dde5617	0.10856264
172	0xbd0f4329	-0.03497616
173	0xbddc7363	-0.10764196
174	0xbb5cfaaa	-0.0033718743
175	0x3d1e744f	0.03868514
176	0x3cce53ab	0.02518638
177	0xbdb5797e	-0.088610634
178	0xbcf12821	-0.02943808
179	0x3d52998e	0.051415972
180	0xbd63aeb7	-0.055586543
181	0x3d18949a	0.037251092
182	0xbdcada3e	-0.09904908
183	0x3d9afe59	0.07568044
184	0x3e151a47	0.14560805
185	0xbd53a7b2	-0.0516736
186	0xbbaee2d5	-0.005337099
187	0x3bc39351	0.005968489
188	0x3e049d38	0.12950599
189	0xbb48151d	-0.0030530163
190	0xbe0b9065	-0.13629301
191	0xbda32849	-0.07966668
192	0x3cbffb78	0.02343534
193	0xbd8a7999	-0.06761474
194	0xbd0be331	-0.034152213
195	0x3d987a6f	0.07445227
196	0xbd0bdb7a	-0.034144856
197	0xbda20e75	-0.07912914
198	0x3d190706	0.037360214
199	0x3d837d34	0.06420365
200	0xbd026be5	-0.031841177
201	0x3d0816cf	0.033224877
202	0x3d17b243	0.037035238
203	0xbd0cd5af	-0.034383472
204	0xbd34c440	-0.04413247
205	0xbc67561f	-0.014119654
206	0xbd6b8199	-0.05749664
207	0xbd51279f	-0.051063176
208	0xbd9c78fd	-0.07640264
209	0x3cd0e66a	0.025500495
210	0x3d63059e	0.05542528
211	0xbd2fc6a8	-0.042914063
212	0xbd5a0f5f	-0.053237315
213	0xbd55c3e0	-0.052188754
214	0xbdf48193	-0.11938777
215	0x3dd02291	0.10162843
216	0xbcf12eb7	-0.02944122
217	0xbace27ae	-0.0015728378
218	0x3b4dc825	0.0031399813
219	0xbd27ae55	-0.04093774
220	0x3c8695be	0.016428825
221	0xbd12bbb5	-0.035823543
222	0xbca6553d	-0.020304317
223	0x3b06abae	0.0020549106
224	0x3d46d235	0.048540313
225	0x3dae6ed1	0.0851723
226	0x3d23f2bf	0.040026423
227	0xbdb5d837	-0.0887913
228	0xbd9ccfe9	-0.07656843
229	0xbac5d65a	-0.0015093789
230	0xbd80daa2	-0.06291701
231	0xbcb01be7	-0.02149768
232	0xbd3805d8	-0.044927448
233	0xbd225f9b	-0.039641958
234	0xbd201441	-0.039081816
235	0xbdcee992	-0.10103144
236	0x3e2a6003	0.16638188
237	0x3d459f78	0.048247784
238	0xbd0777d7	-0.033073273
239	0x3bd342c9	0.0064471704
240	0x3b551ce8	0.003251845
241	0xbab9f8d6	-0.0014188539
242	0x3de637e9	0.11241133
243	0x3d27bcb2	0.04095144
244	0xb7d9f503	-2.5982508e-05
245	0x3dc14610	0.094371915
246	0xbe02b1c9	-0.12763132
247	0x3b1cb962	0.0023914208
248	0x3cd625c4	0.026141055
249	0xbb89d3de	-0.0042061647
250	0x3d3f53c9	0.046710763
251	0x3bc139ea	0.0058967965
252	0x3d59922d	0.05311792
253	0x3d4cc44d	0.049991895
254	0xbdbd431b	-0.09241315
255	0xbda8191d	-0.08207915

bn1.weight f4 [400]
0	0x3f5e131a	0.86747897
1	0x3f29e614	0.66366696
2	0x3ea33b05	0.31880966
3	0x3dcbe912	0.09956564
4	0x3ed666a3	0.4187518
5	0x3f206eb8	0.62668943
6	0x3e0434ee	0.12910816
7	0x3e951342	0.29116255
8	0x3f359baa	0.7094065
9	0x3f64c996	0.89370096
10	0x3f789117	0.9709639
11	0x3e3e0205	0.18555458
12	0x3f1fe304	0.62455773
13	0x3e51ec61	0.20500328
14	0x3a70ccb0	0.0009185774
15	0x3f2f188b	0.68396825
16	0x3dce74e6	0.1008089
17	0x3f1c1df2	0.6098319
18	0x3e8a50c3	0.2701474
19	0x3f1051e8	0.5637498
20	0x3ef59499	0.47964934
21	0x3ee3c652	0.44487244
22	0x3eeff0d3	0.46863422
23	0x3ee12cc4	0.43979466
24	0x3ebf82a6	0.37404364
25	0x3e1bae1d	0.15203138
26	0x3f2044b8	0.62604856
27	0x3eef0d81	0.4668999
28	0x3f3d3948	0.7391553
29	0x3ba25a69	0.0049546254
30	0x3d850fce	0.06497155
31	0x3f09731a	0.53691256
32	0x3ee629fd	0.4495391
33	0x3f17176f	0.5902013
34	0x3dd33568	0.10312921
35	0xbd0ee8e1	-0.03489006
36	0x3f63596d	0.8880833
37	0x3e6bb2f2	0.23017481
38	0x3e0c6fdf	0.1371455
39	0x3efdfd82	0.49607474
40	0x3e71cabf	0.23612498
41	0x3f4ea3e7	0.80718845
42	0x3f56108c	0.83619
43	0x3e021624	0.12703758
44	0x3f43bdf0	0.76461697
45	0x3d9555f0	0.07291782
46	0x3f106de2	0.5641767
47	0xbe435c08	-0.19078076
48	0x3e8f5d6d	0.28000966
49	0x3e4edf22	0.20202306
50	0x3ebc3500	0.36759186
51	0x3ea47a7e	0.32124704
52	0x3de765b9	0.11298699
53	0x3f0377ed	0.5135487
54	0x3ec6ba16	0.38813847
55	0x3f0e48cd	0.55579835
56	0x3da86765	0.08222846
57	0x3f34943b	0.7053868
58	0x3e428fd1	0.19000174
59	0x3daba8cd	0.083818056
60	0x3ed058fe	0.40692896
61	0x3f3a08da	0.72669756
62	0x3f0af8c2	0.54285824
63	0x3c8989c7	0.01678933
64	0x3e8a4430	0.27005148
65	0xbd5e97e6	-0.05434408
66	0x3ea2abbc	0.31771648
67	0x3f3de57d	0.74178296
68	0x3ee4a686	0.44658297
69	0x3ed2977d	0.411312
70	0x3e453baf	0.19261049
71	0x3ef906bc	0.4863795
72	0x3f5393c2	0.82647336
73	0x3f0fa1b4	0.56106114
74	0x3e7059c7	0.23471747
75	0x3e4fe7c8	0.20303261
76	0x3f0b283f	0.54358286
77	0x3e976d0f	0.29575393
78	0x3f181418	0.5940566
79	0x3dc8ca08	0.098041594
80	0x3b351bb1	0.0027634914
81	0x3ed4badf	0.4154882
82	0x3f3bc215	0.7334302
83	0x3e538fed	0.20660372
84	0x3eec89bf	0.46198842
85	0x3e310278	0.17286098
86	0x3f554636	0.8331026
87	0x3f27b743	0.6551401
88	0x3e7b027f	0.24512671
89	0x3ec0a642	0.37626845
90	0x3f625145	0.8840526
91	0x3edeb912	0.43500572
92	0x3e2b6736	0.1673859
93	0x3f3b685e	0.73206127
94	0x3ee55ac5	0.44795814
95	0x3f4a3441	0.78985983
96	0x3ed8d9e9	0.42353752
97	0x3e288004	0.16455084
98	0x3f0b28d6	0.54359186
99	0x3e64d569	0.22347035
100	0x3e76c607	0.24098979
101	0x3eb813f8	0.35952735
102	0x3ebb44c5	0.36575904
103	0x3e2dd43d	0.16975494
104	0x3f0ebd62	0.55757725
105	0x3f0efcf9	0.55854756
106	0xbc079542	-0.008275332
107	0x3ef31f83	0.4748498
108	0x3f0caa46	0.54947317
109	0x3f54649f	0.82966036
110	0x3d0a4def	0.03376573
111	0x3f359330	0.70927715
112	0x3e86014f	0.26172873
113	0x3f0ddc17	0.55413955
114	0x3ede285c	0.43390167
115	0x3f32b8da	0.6981331
116	0x3d99b76c	0.07505688
117	0x3ec43fb9	0.38329867
118	0x3ebba256	0.3664729
119	0x3e8e6975	0.27814832
120	0x3f250bdd	0.64471227
121	0x3f08dec4	0.53464913
122	0x3f0bca36	0.54605424
123	0x3ed3d198	0.41370845
124	0x3f361c70	0.7113714
125	0x3e2edc1b	0.17076151
126	0x3f0e3209	0.555451
127	0x3f00bb4f	0.5028581
128	0x3eae8d6d	0.34092274
129	0x3ee3ccbc	0.44492137
130	0x3ea655d3	0.32487354
131	0x3e20c886	0.15701494
132	0x3f2ecfe5	0.6828597
133	0x3ddf60db	0.109071456
134	0x3ecea4e7	0.40360186
135	0x3e9daff8	0.30798316
136	0x3edfc1ac	0.43702447
137	0x3eedf181	0.46473315
138	0x3eedceb8	0.46446776
139	0x3e979158	0.29603076
140	0x3c239a2d	0.009985489
141	0x3eeb6e33	0.45982513
142	0x3e2c57c7	0.1683036
143	0x3dc5fb6b	0.09667095
144	0x3f0c0bd6	0.5470556
145	0x3f35c18e	0.70998466
146	0x3b0119be	0.0019699181
147	0x3e871a84	0.26387417
148	0x3f25cf1f	0.64769167
149	0x3e5a4693	0.21315984
150	0x3f332075	0.699714
151	0x3e927ca8	0.2861073
152	0x3ea701ed	0.32618657
153	0x3e49d786	0.19711122
154	0x3e48caed	0.1960866
155	0x3d3e640b	0.046482127
156	0x3ef6a45b	0.48172268
157	0x3f5b03aa	0.85552466
158	0x3ec45872	0.38348728
159	0x3f0afb54	0.54289746
160	0x3ee4d04a	0.44690162
161	0x3e5d561b	0.21614878
162	0x3eca387c	0.3949622
163	0x3f0af550	0.5428057
164	0x3f0d13a5	0.551081
165	0x3f553d53	0.832967
166	0x3f1c79d2	0.61123383
167	0x3e845c4b	0.25851664
168	0x3f124d8e	0.5714959
169	0x3e84cf92	0.25939614
170	0x3e85f2c8	0.2616179
171	0x3f1c9ad3	0.61173743
172	0x3e8b1c33	0.27169952
173	0x3ebcec08	0.36898828
174	0x3d02f678	0.031973332
175	0x3e80071f	0.25005433
176	0x3ecaa489	0.39578655
177	0x3f38cc5a	0.72186816
178	0x3f205fc7	0.62646145
179	0x3ed5579c	0.41668403
180	0x3e9ba1bd	0.30396834
181	0x3efa4cbd	0.48886672
182	0x3f3c3b27	0.7352776
183	0x3e855745	0.26043144
184	0x3e5d1db0	0.21593356
185	0x3eaf0e64	0.34190667
186	0x3f1a92b3	0.60380095
187	0x3e9a7afd	0.30171958
188	0x3bc4cf56	0.0060061617
189	0x3e5a6569	0.21327747
190	0x3d8d4139	0.06897206
191	0x3ef87062	0.4852324
192	0x3e94f1b8	0.29090667
193	0x3e69e273	0.2284029
194	0x3eaa06ca	0.33208305
195	0x3d8ccc3a	0.068748906
196	0x3eb44dd3	0.35215625
197	0x3f19a5ca	0.600186
198	0x3f077b82	0.5292283
199	0x3d9b8545	0.075937785
200	0x3f162ef8	0.5866542
201	0x3f228fe4	0.6350081
202	0x3f1ec620	0.62021065
203	0x3e8b6236	0.27223366
204	0x3f396bff	0.72430414
205	0x3ef634ad	0.48087063
206	0x3d0f4a0b	0.034982722
207	0x3e8f0ff5	0.27941862
208	0x3e8a3b39	0.26998308
209	0x3f391c08	0.723084
210	0x3e8bb6f3	0.27288017
211	0x3e517a15	0.20456727
212	0x3e9ddcf0	0.30832624
213	0x3f0f7860	0.5604305
214	0x3ebdba77	0.37056324
215	0x3f0f3a60	0.5594845
216	0x3d3f0bd9	0.04664216
217	0x3f1fe419	0.62457424
218	0x3f3398b0	0.7015486
219	0x3f24152a	0.64094794
220	0x3db0f36f	0.08640181
221	0x3f232b61	0.63738066
222	0x3c6fca0b	0.014635573
223	0x3ea82bd1	0.3284593
224	0x3e973255	0.29530588
225	0x3f0d516c	0.55202365
226	0x3f47cc50	0.7804613
227	0x3f236158	0.6382041
228	0x3e72ffd1	0.23730399
229	0xbd19aa46	-0.0375159
230	0x3eff603d	0.4987811
231	0x3e98a077	0.29809925
232	0x3e51ec3c	0.20500273
233	0x3f4d6dbc	0.80245566
234	0x3ee31fe7	0.44360277
235	0x3cbbe350	0.02293554
236	0x3f864cc3	1.0492176
237	0x3ee8f895	0.45502153
238	0x3f040b21	0.5157948
239	0x3f524c35	0.8214753
240	0x3e80b7de	0.2514028
241	0x3e4519ee	0.19248173
242	0x3f22942f	0.6350736
243	0x3f0763f5	0.528869
244	0x3eae172b	0.3400205
245	0x3ec9de73	0.39427528
246	0x3f1e9f93	0.6196224
247	0x3f02c479	0.51081043
248	0x3cfe61b2	0.031052444
249	0x3f39e71d	0.72618276
250	0x3f55fb65	0.8358672
251	0x3e289aff	0.16465376
252	0x3d6eebf1	0.05833048
253	0x3ee05178	0.43812156
254	0x3df1641e	0.11786674
255	0x3ebf83e7	0.3740532

bn1.bias f4 [400]
0	0x3d9e56a1	0.07731367
1	0x3e889521	0.26676276
2	0xbc1e6cbd	-0.00966948
3	0x3e839740	0.25701332
4	0x3cac5143	0.021034842
5	0x3de4f3ca	0.111793116
6	0x3dabf3f6	0.08396141
7	0x3d4f7698	0.05065021
8	0x3dfae36d	0.12250409
9	0x3db07deb	0.08617767
10	0x3d6dafc4	0.05802895
11	0x3e1b94c5	0.1519347
12	0x3e50fe1f	0.2040944
13	0x3e52c77f	0.20583914
14	0xbd87bb3f	-0.06627511
15	0xbd8635e6	-0.06553249
16	0x3df0eb2b	0.11763605
17	0x3e25b983	0.16184048
18	0x3ad7705c	0.0016436684
19	0x3c723fa6	0.014785683
20	0x3d57515a	0.052567817
21	0x3d5386c2	0.051642187
22	0x3ddb4d9a	0.10708161
23	0x3e12fab9	0.14353456
24	0xbc772c86	-0.015086299
25	0x3d554dbb	0.052076083
26	0x3e1d9f77	0.15392862
27	0x3de7f279	0.11325545
28	0x3e90ae4d	0.2825798
29	0xbbe0666b	-0.0068481467
30	0x3dab1338	0.08353275
31	0x3d9798cf	0.07402193
32	0x3e1fde40	0.15612125
33	0xbc93e6c4	-0.018054374
34	0x3e247ed3	0.16064005
35	0xbde149b3	-0.11000385
36	0xbc90d8dc	-0.017681532
37	0x3db5d9e6	0.088794515
38	0x3d51c372	0.05121178
39	0xbd19e182	-0.037568577
40	0xbd07dd41	-0.03316999
41	0x3e40a47b	0.18812744
42	0x3e39bdcd	0.1813881
43	0x3d6864da	0.056736805
44	0x3b571b10	0.0032822527
45	0x3da62ed5	0.08114401
46	0xbca2d7f4	-0.019878365
47	0xbda01488	-0.07816416
48	0x3d113c55	0.035457928
49	0x3d1f3739	0.038871024
50	0x3d798435	0.060917098
51	0x3e38f0af	0.18060564
52	0xbc66162f	-0.014043375
53	0x3e114732	0.14187315
54	0xbd19393e	-0.037408106
55	0x3c742df7	0.014903537
56	0x3e5cc635	0.21559985
57	0x3db0bbcc	0.086295694
58	0x3ddb5c1b	0.10710927
59	0x3df25a16	0.11833589
60	0xbe299aa4	-0.16562897
61	0x3d724538	0.059148043
62	0x3e036540	0.12831593
63	0xbce6b140	-0.028160691
64	0x3e464c82	0.19365123
65	0xbe292a5e	-0.16520068
66	0xbb917293	-0.004438707
67	0x3d1dc6f0	0.0385198
68	0x3dd1d09a	0.10244866
69	0x3e37490c	0.17898959
70	0x3db4754d	0.08811436
71	0x3e280bab	0.16410701
72	0x3e0683a8	0.1313616
73	0x3c0ae3e9	0.00847719
74	0x3e2eaf02	0.17058948
75	0xbdb0f359	-0.08640165
76	0x3a9b3864	0.0011842367
77	0x3d8449ed	0.06459413
78	0x3db75254	0.0895125
79	0x3ce9d444	0.028543599
80	0x3e979f69	0.29613808
81	0x3dff3dc2	0.12462951
82	0xbdb52a5b	-0.08845969
83	0x3df8921e	0.12137245
84	0x3dc3b4df	0.09555983
85	0x3e0d0c5b	0.13774244
86	0x3e381754	0.17977649
87	0x3dda7394	0.10666576
88	0x3dbe6922	0.09297396
89	0x3e8aacf9	0.27085093
90	0xbc941118	-0.018074557
91	0xbdd2b018	-0.102874935
92	0x3d7dcec6	0.061964773
93	0x3ddf1fd0	0.1089474
94	0x3e093a02	0.13401034
95	0x3e402de5	0.18767507
96	0x3d9de0e1	0.07708908
97	0x3cce4544	0.025179513
98	0x3df97063	0.12179639
99	0x3d77ea47	0.06052616
100	0x3cbab28c	0.022790216
101	0x3e879780	0.26482773
102	0xbdef904a	-0.11697443
103	0x3e4fed6e	0.20305416
104	0xbd0e3ad7	-0.034724083
105	0x3d7dd526	0.061970852
106	0x3e5c3a2e	0.21506569
107	0x3d5200d0	0.051270306
108	0x3e481c1b	0.19541971
109	0x3e68ea0c	0.22745532
110	0xbdf00816	-0.11720292
111	0x3dd55221	0.104160555
112	0xbc929802	-0.017894749
113	0xbd7dc035	-0.06195088
114	0x3e0243b5	0.1272114
115	0x3e1ca9d7	0.15299164
116	0xbd248c2f	-0.040172752
117	0xbdc928e5	-0.09822253
118	0x3dcd94d2	0.10038151
119	0xbc94b09c	-0.01815062
120	0x3e3bd06b	0.18341224
121	0x3dedb7c9	0.1160732
122	0x3e0b7ad4	0.13621074
123	0x3cd532ed	0.02602526
124	0x3db36adb	0.087606154
125	0xbe004302	-0.12525561
126	0x3d5546dc	0.05206953
127	0x3e109c28	0.14122069
128	0xbe06c2a0	-0.13160181
129	0xbd90fb53	-0.07079186
130	0xbca51c5a	-0.02015512
131	0xbdeb1157	-0.11477917
132	0x3d97b44b	0.07407435
133	0x3ce45705	0.027873525
134	0x3e4f3232	0.20233992
135	0x3daf90b6	0.08572523
136	0x3d320b04	0.043467537
137	0x3c20d984	0.009817485
138	0x3da3d533	0.07999649
139	0x3c84b8f1	0.016201468
140	0xbe8edb75	-0.27901807
141	0xbdc4e15b	-0.09613296
142	0xbd8d2c8e	-0.06893264
143	0xbc9541da	-0.018219877
144	0x3e06a3c8	0.13148415
145	0x3e5d7427	0.2162634
146	0x3b4fd91e	0.0031715105
147	0x3dee6627	0.11640578
148	0x3d842cf1	0.064538844
149	0xbd8a6ab8	-0.06758636
150	0x3dabef3a	0.08395238
151	0xbd2016d1	-0.03908426
152	0x3dc27e7d	0.09496782
153	0xbd83ea9b	-0.06441232
154	0x3e734542	0.23756889
155	0x3ca2971b	0.019847443
156	0xbd11abc5	-0.035564203
157	0x3dbef5b2	0.093242064
158	0x3df92bd8	0.12166566
159	0x39d01c1e	0.000396938
160	0x3e02012a	0.12695757
161	0x3df45484	0.119301826
162	0x3a9be836	0.0011894766
163	0x3d89950d	0.06717882
164	0x3db0ab13	0.0862638
165	0x3d4edd3a	0.050503947
166	0x3e0deeb5	0.13860591
167	0x3e0196ca	0.12655178
168	0x3e1081fc	0.14112085
169	0x3d3fb3c6	0.046802305
170	0xbcd2b765	-0.025722215
171	0x3ddaa33a	0.10675664
172	0xbdc91225	-0.09817914
173	0x3dc24213	0.09485259
174	0xbd1ec7b5	-0.038764674
175	0x3d28099d	0.041024793
176	0x3e0dc142	0.13843253
177	0x3e2b0eaf	0.1670482
178	0x3dd19b8b	0.102347456
179	0xbd3716dc	-0.044699535
180	0x3d35e056	0.044403397
181	0x3e3aa30b	0.18226258
182	0x3c0785ef	0.008271678
183	0xbd650364	-0.055911437
184	0xbb3a3952	-0.0028415513
185	0xbe0ab3a4	-0.1354509
186	0x3e235773	0.15951328
187	0x3dc4be69	0.0960663
188	0xbc572a12	-0.013132589
189	0x3e6e24c2	0.2325621
190	0x3d47d93f	0.048791166
191	0xbbecf223	-0.0072310134
192	0x3d901197	0.07034605
193	0x3d215503	0.039387714
194	0x3d535cd1	0.05160219
195	0xbcb397f1	-0.021923037
196	0x3daa0613	0.0830194
197	0x3df15c5a	0.11785193
198	0x3d59c86a	0.053169645
199	0x3e237d30	0.15965724
200	0x3e6ad283	0.22931866
201	0x3de8ba94	0.11363712
202	0x3d04bcec	0.032406732
203	0x3cc05eee	0.023482766
204	0x3e32be17	0.17455326
205	0x3d9c7f42	0.0764146
206	0x3e27e91e	0.16397521
207	0x3da10139	0.07861561
208	0x3d94a0a7	0.072572045
209	0x3de7762d	0.11301837
210	0x3e1487a1	0.14504863
211	0x3c3a72de	0.0113799255
212	0x3d195f53	0.037444424
213	0x3e03346e	0.12812969
214	0x3d28f485	0.041248817
215	0x3e183257	0.14862953
216	0xbe2579bf	-0.16159724
217	0x3d84a1b1	0.06476153
218	0xbe5e581b	-0.21713297
219	0x3de82053	0.1133429
220	0x39608c02	0.00021414462
221	0xbb96f9e0	-0.004607424
222	0xbbe3edf7	-0.006955858
223	0xbdb3dd74	-0.08782473
224	0x3e5df0c6	0.21673879
225	0xbce423ed	-0.027849162
226	0x3d9333e8	0.07187635
227	0x3d877b9c	0.066153735
228	0xbd71a8c1	-0.058998827
229	0xbe5d0551	-0.2158406
230	0x3d8d48b5	0.068986334
231	0xbd7d605e	-0.06185948
232	0x3cc4e2bc	0.024033897
233	0x3e5f6c7a	0.21818724
234	0x3dba1c5d	0.09087441
235	0x3e9caf74	0.3060261
236	0x3df7ee06	0.12105946
237	0x3da440eb	0.080201946
238	0x3e394041	0.18090917
239	0x3e4e90e4	0.20172459
240	0x3e48585b	0.19564955
241	0x3d855457	0.06510227
242	0x3dee6a0a	0.11641319
243	0xbcfce412	-0.030870471
244	0xbd8dc034	-0.069214255
245	0x3d692f54	0.0569299
246	0x3bd7a0fa	0.006580469
247	0xbc15d56c	-0.009145122
248	0xbc3aa364	-0.011391494
249	0x3dbd8414	0.092537075
250	0x3cdeab27	0.027181221
251	0x3e38e600	0.18056488
252	0xbe353ced	-0.17699023
253	0xbdbb76bc	-0.09153506
254	0xbd0e9814	-0.034813
255	0x3e1d191f	0.15341614
