checkpoint_actor.pth (torch_old, 531348 bytes, 10 tensors)

fc1.weight f4 [400, 24]
00000000: 33ea 713c 15b6 ddbd b626 67bd 8dc3 92bd
00000010: 353d e0ba 3749 e6bc 10c0 083c 0183 a2bd
00000020: 9ec6 92bc 725f 1cbe b7e9 63bc 7b90 773a
00000030: dc62 7eba b3eb 683d e88e 76bd 6ab6 c23b
00000040: 5d6b 1abd c816 05be b0af 473d 542c b53d
00000050: a8d6 9fbd c527 9e3d a40b 1f3d 7606 853d
00000060: 5efb a7bc d3ef 58bd 3014 52bd 4d4e d6bc
00000070: 85dc a03c ccec 7a3c 7260 0abd 4b3d 95bd
00000080: 3a82 fbbc e06c 43bc 9254 833d bf78 aeba
00000090: e039 57bd b0ec 343e 864a 13bc 367f abbc
000000a0: e51c 32bc 647d b3bc ae4f c9bc c099 183d
000000b0: b532 543d 2635 2f3e 97eb 533d 7a16 203d
000000c0: 0adb cc3c c32b 3ebe 0bd3 743c 3ffb 8abc
000000d0: f2c3 a43c 43ec 5b3d 7c8b 7dbc 237b c83c
000000e0: f0e0 6f3d 1fd3 1abe 1bc2 3abb 977b 5ebc
000000f0: 96d4 86bd 571f fc3d 7059 13bd e1df 323c
00000100: bdb1 9e3b 6cad b3bd d04a ab3c adee dd3d
00000110: 5837 28be fb7a 153e 6e6a dcbc e359 023d
00000120: 4872 09bd dbec 703d ddde d73c 3a13 d8bd
00000130: 49e6 06bd 576d 45be a7ab 4e3c ac0b 07be
00000140: a917 4b3c 5ad5 183d 8e61 d53c 694e 8dbd
00000150: b19a d8bd 5fc0 d7bd 5c51 dabc c9cf afbd
00000160: a1fe c0bb 39fa ed3d 4d13 d43c 7507 18bd
00000170: da50 80bd eb12 13be 375e b6bc 118c 303d
00000180: b581 03be f59b 6ebd 01e2 66bc 9ae8 c13c
00000190: 2add 5ebc 72d7 b33d 89cd 46bc e8bb 15bc
000001a0: 29d4 16bd 33b1 85bd 8dca 8bbd e2a7 6f3d
000001b0: 370f 163d 3db4 a63d c701 03bd a103 b13d
000001c0: bb52 9a3c 4169 b83b 9da8 303c 1602 6d3d
000001d0: 7f32 9a3c b9d6 d33d 9094 573d 5fa0 c73c
000001e0: 1c22 c2bc 8bbf 073d 9f8b d3bc aa7f f3bd
000001f0: f3b2 ba3d a96a 76be 6975 e33b de5c 13be
00000200: e5c3 cebc 6a1d 623c 0fea ffbc 3125 9ebd
00000210: 3b40 413d f20d 07be 7b31 dd3c daab b5bd
00000220: 7f3f 12bc 566f e63c 6198 9b3b 54a9 2fbd
00000230: 5cd6 1bbd d97e 03bd 326e 74bc 161e 9bbd
00000240: 3fc6 b53c 3a0b c1bd 4171 6fbd e3a2 ce3d
00000250: 0625 333c 8db1 31bd 9ae0 84bc 8e34 2a3d
00000260: afa6 9b3c df16 3cbd cb84 073d 7df0 a93d
00000270: ced6 763d 8330 87bd d5b3 d23c c52f 9e3d
00000280: 8b72 8e3d 8b18 1cbd e5f7 303d 06ff 9f3d
00000290: eff0 853d 4c24 d0bd f7da 553d f716 d53c
000002a0: f99d 7d3d f5e4 66bd 60bc 273d 1202 f1bd
000002b0: 33d4 573d 02a5 fb3a 5365 f73c cbcf 6abd
000002c0: 93f0 0e3c 5644 0abe cc61 8dbc 36c1 27bd
000002d0: 8749 853c 34c8 913d 141c debc 797b c03b
000002e0: b5be cdbc 3838 a1bd 5d21 fcbb 5c28 b8bd
000002f0: a8d7 aa3d aaa8 7d3c a29e 6fbd 407e fbbd
00000300: 9013 04bc 2f59 b83c 3a85 3cbc da6e e23d
00000310: 7f3c 1abc f7f7 15bd baff 443d ebaf 093e
00000320: bfdb 953c d5fa 64bb 3c98 5abd e486 aa3c
00000330: a7a9 d7bc 2976 35bd fe60 3ebd 6e3a 3c3b
00000340: d490 cebc 62f4 33bc 316f 8cbc b21f 35bd
00000350: 978b 9a3c 0b44 31be 1287 683c 11ba 9abd
00000360: ae1e 13bd 2e84 20be 7db5 b83c f47c 56bd
00000370: b6ea d33d 0b89 833b d849 0dbc 267e f7bc
00000380: e510 503d 2bb2 27be 31d8 33bd d2e0 29bd
00000390: cce0 d23d 2849 3cbc 1607 c93c 208a 623a
000003a0: b6b5 40bd 72fc 54be ec8a da3a 84f3 febc
000003b0: 6a61 de3d 60be b73c 3562 25bd 10a3 823c
000003c0: ea1e 763d 1af0 1a3e da5a ec3c 7e4c 90bd
000003d0: ec0e e13d d6fe f4bc a0ba 073c f682 83bd
000003e0: 867d 64bc e4ae a93d 84fd 1fbd 427b 023d
000003f0: 3ab9 f83c 02c4 02bc 50a1 50bd ad28 0c3c
0.01476531 -0.10825745 -0.056433402 -0.071662046 -0.0017108085 -0.028111083 0.0083465725 -0.07935143
-0.017916974 -0.15270784 -0.013910702 0.00094438315 -0.0009704062 0.056865405 -0.06019488 0.0059421556
-0.037700046 -0.12996972 0.048751533 0.088463455 -0.07804614 0.07722429 0.03882946 0.06495373
-0.020505603 -0.05296309 -0.051288784 -0.026160384 0.019636402 0.015315246 -0.033783384 -0.07287081
-0.030701745 -0.011927813 0.06412615 -0.0013311132 -0.05254543 0.17668414 -0.008989936 -0.020934682
-0.010871147 -0.021910377 -0.024574127 0.037256002 0.05180617 0.17110118 0.051738348 0.039083935
0.02500679 -0.18571381 0.014942895 -0.016965507 0.020112965 0.053692114 -0.01547515 0.024472779
0.058564126 -0.15119599 -0.0028497044 -0.013579271 -0.06583516 0.12310665 -0.035973966 0.010917635
0.0048429654 -0.08773312 0.020909697 0.108365394 -0.16427362 0.14597695 -0.026906218 0.031824004
-0.033556253 0.058819633 0.026351387 -0.10550542 -0.03293446 -0.19279991 0.012614167 -0.13188046
0.012395778 0.037312843 0.026047494 -0.06899721 -0.1057638 -0.10534739 -0.026650123 -0.08584554
-0.005889729 0.11619992 0.02588811 -0.037116487 -0.06265421 -0.14362685 -0.022261722 0.043102328
-0.12842448 -0.0582542 -0.0140919695 0.023670483 -0.013602534 0.08781327 -0.012133964 -0.009139039
-0.036823425 -0.06527939 -0.06825743 0.058509715 0.036635604 0.081398465 -0.031984117 0.0864327
0.018838277 0.0056277816 0.010782388 0.057863317 0.018822907 0.103436895 0.052631915 0.024368463
-0.023697905 0.033141654 -0.025823412 -0.11889584 0.09116163 -0.24064125 0.0069414866 -0.14390895
-0.025239894 0.013800958 -0.031239538 -0.077219374 0.047180396 -0.13188913 0.027001133 -0.08870669
-0.008926271 0.028129261 0.0047483896 -0.042886093 -0.038046226 -0.032103393 -0.014918851 -0.07574098
0.022189258 -0.094259694 -0.058457617 0.10089662 0.01093412 -0.043382216 -0.01622038 0.041554026
0.01900038 -0.04592025 0.033085626 0.082978226 0.060263447 -0.0660105 0.025720516 0.07723955
0.06955441 -0.038109343 0.04320516 0.07812314 0.06540095 -0.10163173 0.052210774 0.026011927
0.061918233 -0.056370694 0.040951133 -0.11767973 0.052692603 0.0019198956 0.030199682 -0.057327073
0.00872435 -0.1350263 -0.017258547 -0.040955745 0.016270412 0.07118264 -0.027112998 0.005874094
-0.02511535 -0.07872051 -0.007694407 -0.08992073 0.083419144 0.015482107 -0.058500893 -0.1227994
-0.008061305 0.022503464 -0.011506373 0.110562995 -0.009413837 -0.03661343 0.048095442 0.13446014
0.01829326 -0.0034939547 -0.05336784 0.020816274 -0.026326014 -0.04430214 -0.046479218 0.002872135
-0.025215544 -0.010983558 -0.017142864 -0.04421968 0.01886539 -0.17311113 0.0141923595 -0.075550206
-0.03591793 -0.15675423 0.022547478 -0.05236526 0.10347502 0.0040141395 -0.008623563 -0.03021152
0.050797362 -0.1637656 -0.043907348 -0.04147417 0.10296783 -0.011492051 0.024539512 0.0008641798
-0.047048293 -0.20799425 0.0016673482 -0.031121977 0.10858424 0.022429645 -0.04037686 0.015946895
0.060088076 0.15130654 0.028851915 -0.0704584 0.10989174 -0.029906671 0.008284241 -0.06421463
-0.013945943 0.08285311 -0.03906013 0.03185583 0.03036176 -0.007981302 -0.05093509 0.00855462

fc1.bias f4 [400]
00000000: 1106 0a3e 5aee 363d 58d9 063d 121e bbbd
00000010: 9510 29be 8f0c a1bd 5822 0dbb 7838 9dbd
00000020: ab8a e0bc fd5a 77be 79ed cc3c 230c 573e
00000030: c009 53be 8c65 183d e165 17bd 45f4 5dbe
00000040: a4b1 8c3e 03a2 0cbe f3d1 c2bd 3500 87bc
00000050: 71f6 8abd 110d 9a3d b7a0 a2bd 0785 0cbe
00000060: fec3 983d f3ff 96bd 1041 42be 68b1 cdbc
00000070: f7d8 84be b0e7 b3bd 53f3 88be 99e4 5c3e
00000080: d95a 0abd f00e 133e 420b 8bbe f52a 39be
00000090: 8e52 263d 524c 48be d199 8dbd 08bf 5dbe
000000a0: 19bb 763c 765d 50be e51d 113e 37d2 303e
000000b0: 9ade b1bd b9bb a6bd 5fe5 693d 7c73 b43d
000000c0: 428e 7e3d b5c8 d83d 5fd3 1f3e 5720 ec3d
000000d0: 88af abbd 23b6 74be 6fab 4fbc ce43 8b3d
000000e0: eb42 11be c89d d9bd 1041 3abd 7608 c5bd
000000f0: 83fa 30bd d93b 99be 0ce5 0cbe 3bc0 2fbd
00000100: 5c9c 55bd b396 bbbc c146 f6bc 9c8f 4f3d
00000110: 51c6 25be 644c 8bbc 6c28 d13b 89b6 e23d
00000120: 06f7 85bd 5657 9d3b d59f b7bd 5f7c d4bd
00000130: 104f 83be e3bd 1e3c 1fb7 4e3d 71b4 943e
00000140: 56eb 4d3e 356d 14be 9645 0ebd 66a9 343e
00000150: befa 27be e35b 303d 9ee9 47bd 7a70 58be
00000160: 4a04 8abe 1b53 21bd 565c 5fbe 95fa de3a
00000170: 1f66 993d 412f 3ebb a8a1 28bd 42d2 2bbd
00000180: 7a13 c3bc 3815 bc3d 85f7 fd3c eb10 57be
00000190: e46b b13d e97a 3ebc 71d0 ea3d 10d7 53be
000001a0: 37f7 bc3d 485a 98bd 3ad6 06bd 52a2 1d3e
000001b0: 1c37 96be f721 d73d 76fe 85bd 9206 69be
000001c0: 12bf 40be e0b0 c6bd ec72 6fbe 12bb 80be
000001d0: 3df0 aabd fea8 07be 47e8 21be b32d 58be
000001e0: e051 3d3d 1e09 33be 04a2 9ebe f486 38be
000001f0: e346 06be 508b dabd 88ea 493d 9a41 3dbb
00000200: b2c3 07be 274a 0ebe 8eed 973d 205e b33d
00000210: 40fb 7cbd 794a d9bc 31df e1bb 1c7d 33be
00000220: e619 933d 6ef2 2abd 22bd 8cbb 55b0 28be
00000230: 2573 d0ba 530f 57be ca95 44be f094 a6bd
00000240: a2cb d0bd bfbd 063e 4599 96be 1d20 d0bd
00000250: 77a6 aebd 972b abbd c23d 163d d193 a33d
00000260: a304 58be 66fb 3fbe 5529 9dbe d138 1dbe
00000270: 39d8 3e3e 6ad6 cd3d 7f12 683d a684 c9bd
00000280: 4c78 0ebe 1092 99bd 411f 22be a39b 94bd
00000290: a4c2 dfbd 58db 64bd c4ce 3dbe 8d5a 7abe
000002a0: 040b aebb 9b98 46bd 99cf 6ebe de94 a03c
000002b0: 12e7 933d 852c bbbd 6409 76be ea51 07be
000002c0: 1b18 abbd d18c 82bc bc1e 7ebe a185 ccbd
000002d0: c450 f1bc 836d 11be 834b 3abe 5862 71bd
000002e0: dde1 b23d c385 883c 49de 34be 0f15 5abe
000002f0: fa7b a0be 18e2 11be eea6 143e 9bd9 493c
00000300: 218e c43c 0b84 c5bd 8d6d 3abe 4042 323d
00000310: f4c0 33be 18be 5fbe a425 22be 0d98 ebbd
00000320: 5796 49bd 3dbd f6bd 47a2 d73d 3d7c d9bc
00000330: f2e3 8cba 78b8 57bc 0a36 ac3d 849a dbbd
00000340: 61e4 043e 9ca1 bb3d ff01 c23c 08dd adbe
00000350: 386a 2a3d f51c e7bc 5b44 3bbe 938e 63bd
00000360: d4ee dcbc 8d34 47bd f327 7dbe f7c7 213e
00000370: 27d8 15be c81b 9c3c 6d6a 5fbd 9207 01be
00000380: f7cb 00bd 60e0 f1bd e6d0 2cbd 96e1 58bc
00000390: 7e89 953d cbde 78be bba9 89be 97a6 7cbe
000003a0: 7f1e 3abe c7a6 2c3e 5eb1 723d 2bd8 1b3c
000003b0: b84f b03c 4dea 95be 6437 ce3d a8f3 6abd
000003c0: 4c2d 083e c0a7 87bc 06b7 c3bd b989 09bc
000003d0: ce3b ec3d 0680 a13d 98de 953d 740c 053e
000003e0: 8cdb 09be f898 2fbe 375e 13be 42de 86be
000003f0: 5b93 8abe 7473 313e ce56 3e3c 9df2 0abe
0.13478877 0.044660904 0.03292212 -0.09136595 -0.16510232 -0.078637235 -0.0021535363 -0.07676786
-0.027409872 -0.24155803 0.02501558 0.21000724 -0.20609188 0.037206218 -0.036962394 -0.21675213
0.2747928 -0.13733678 -0.09512701 -0.01647959 -0.06785286 0.075220235 -0.0794081 -0.13722621
0.074592575 -0.07373037 -0.18970132 -0.025109008 -0.2594678 -0.08784425 -0.26748142 0.21571578
-0.033778045 0.14361167 -0.27157027 -0.18082793 0.040606074 -0.19560364 -0.06914104 -0.21654904
0.015059256 -0.20348153 0.1417156 0.1726769 -0.08685036 -0.08141274 0.05710351 0.088110894
0.062147386 0.10585157 0.15607975 0.11529606 -0.08383089 -0.23897605 -0.01267515 0.06800042
-0.14185683 -0.106257975 -0.045472205 -0.096207544 -0.043207657 -0.29928473 -0.1375925 -0.042907935
-0.05215107 -0.022899007 -0.030063035 0.050674066 -0.16188933 -0.0170042 0.0063829925 0.11069972
-0.065412566 0.004801671 -0.089660324 -0.103752844 -0.25646257 0.009688827 0.050467607 0.29043916
0.20109305 -0.14494784 -0.03473433 0.17642745 -0.16404244 0.04305638 -0.04880678 -0.21136656
-0.26956397 -0.039385896 -0.21812567 0.0017011935 0.07490181 -0.0029019865 -0.041169792 -0.041948564
-0.023812998 0.09183735 0.031001816 -0.21002547 0.08663157 -0.011625984 0.11465538 -0.20687509
0.0922684 -0.07439095 -0.032919146 0.15393952 -0.2933892 0.10504525 -0.06542675 -0.22756413
-0.18822888 -0.09701705 -0.23383683 -0.25142723 -0.08346603 -0.13248059 -0.15811263 -0.21111183
0.04622066 -0.17483947 -0.30982983 -0.1802023 -0.13112979 -0.10671103 0.049295932 -0.0028878213
-0.13258246 -0.13895474 0.07418357 0.08758187 -0.06176305 -0.02652477 -0.0068930616 -0.17528194
0.07182674 -0.041735105 -0.0042950073 -0.16473515 -0.0015903456 -0.2100194 -0.19197765 -0.08133876
-0.1019509 0.1315832 -0.2941381 -0.10162375 -0.085278444 -0.083579235 0.03667999 0.07987178
-0.21095519 -0.18748245 -0.30695596 -0.15353705 0.1863717 0.10050662 0.056658264 -0.09839754
-0.13913077 -0.07498562 -0.15832235 -0.07256248 -0.10925797 -0.055873245 -0.18535906 -0.24448605
-0.0053113718 -0.04848538 -0.2332138 0.019602235 0.072218075 -0.09139351 -0.2402702 -0.13214841
-0.08354207 -0.015936287 -0.24816412 -0.09986425 -0.029457457 -0.14201932 -0.18192868 -0.05893168
0.08734486 0.016665345 -0.1766292 -0.21297096 -0.31344587 -0.14246404 0.14516804 0.012319948
0.023993554 -0.09644326 -0.18205853 0.043520212 -0.17554075 -0.21849859 -0.15834671 -0.11503611
-0.04921564 -0.12047813 0.10528999 -0.0265485 -0.0010749085 -0.013166539 0.08408745 -0.10722831
0.12977745 0.09161684 0.023682592 -0.33957696 0.041605204 -0.02821205 -0.18287794 -0.05555589
-0.02696935 -0.0486341 -0.2472227 0.15798937 -0.14633237 0.019056216 -0.054544855 -0.12600544
-0.031444516 -0.11810374 -0.04219141 -0.013237378 0.07301615 -0.24303739 -0.26887307 -0.24672924
-0.18175696 0.16860496 0.05925118 0.009511988 0.021522388 -0.2928032 0.10069159 -0.057361275
0.1329853 -0.016559482 -0.09556393 -0.008394652 0.11534844 0.07885747 0.07317847 0.12993032
-0.13462657 -0.17148197 -0.14391409 -0.26341444 -0.27065548 0.17329198 0.011617376 -0.13569112

fc2.weight f4 [300, 400]
00000000: d91a 31bc 5e0b 99bc 94ba 26bd bf01 fc3d
00000010: 4c41 29bd 91ba 773c a459 b8bd ac18 35bd
00000020: 8e77 113d d968 ccbd 17d0 9b3d 399d fbba
00000030: 2331 a9bd df70 323c ce72 923d 1d6a 923d
00000040: 13fd 7dbc 13f8 a93c f5c5 a43d 2294 bf3d
00000050: 0793 6cbd ff0b ec3d 280c 753c 0596 b4be
00000060: 5987 de39 9396 7b3d 7ed8 fbbb 7558 5b3a
00000070: ab70 2fbb 2017 c1bd cf2a 25be b199 2a3c
00000080: 18fd 82bd ad8e 4abe a8fa 22bd 3f13 80bc
00000090: fa52 933d 569b 5f3d dbe3 b4bd be75 1a3d
000000a0: 9010 9abd 428b c8bd bda1 003d f920 b03c
000000b0: a601 06be ba03 523c df3a b8bd d1bf e53d
000000c0: 680d 38bc 9025 ddbc 4043 dbbd 1344 0ebd
000000d0: 83fa 463d 261d babc f215 9d3c e666 0c3d
000000e0: 1acc 363d 8699 c5bb 5f34 efbc 8c86 ab3b
000000f0: 26d3 c7bc 38a2 ca3d 9a96 cfbd a0cf e13d
00000100: b89a 93bd a005 6c3d 1aa4 0d3d d88d 80bd
00000110: e198 fdbd 386a c1bd f074 563c 41b1 81bc
00000120: 09d1 ec3c ff3e 913d 139b 913d 1bb8 2b3d
00000130: b915 f73d 3714 90bb 086b 763d f4ce ff3c
00000140: 866c 0f3d ed6c 18bd 0e7b 0cbd f1cd 4abd
00000150: e0ed 7f3d a030 30bd 7af3 883d 0fc0 3c3d
00000160: 4f99 0c3e 7daa 70bb 3363 cebd 8855 85bd
00000170: 82b2 a23d 419a 0a3e 711b 433d e35e 42bd
00000180: caa0 5ebd a9f3 783c bf64 dbbd bbd0 dbbd
00000190: 0a40 3c3b 8043 93bd a133 593d 396d 023d
000001a0: 3668 6fbd f03e a3bd 8f38 833c 0b33 16bd
000001b0: cc08 0bbc 67ef cfbc d72c 983d 352d b83d
000001c0: c4b1 0f3d 0c27 113a 6c47 2e3d 1355 6fbd
000001d0: 7613 acbc c7dd 9ebd 7724 f2bd 6623 45ba
000001e0: 3c50 303d 4fae d3bd 2ca6 37bd f0d3 9c3d
000001f0: 267c cc3d f9aa 4fbd 95aa 083d 1d6b b43d
00000200: 1787 98bb 7c5f b43c 6525 c13d f949 6c3d
00000210: 0365 9f3d b9e0 95bd a2d0 813d feb0 eabd
00000220: e980 9b3c 4583 7cbd 39b2 09bd bd3e 9f3d
00000230: 6c60 f8bc 3814 1bbe d29d d4bd 7490 973d
00000240: d49d bdbd ba01 1cbd 707e 0cbc 99fd 093d
00000250: 8829 f3bd 1156 48be 062d 5bbc fe7b 9d3d
00000260: 82f0 debd d9c1 abbc aa38 56bd 1668 0f3e
00000270: 71fc 94bd 8427 553c a2a5 833d 61c3 dbbc
00000280: fb9c 12bd c041 e73c 2ecc b23d d06e 61bd
00000290: 3a3e 24bd 2cb1 b1bd 5b75 473d 595f 853d
000002a0: d3c6 15bd 78f4 cfbc a64f 2b3e 6aa3 34bd
000002b0: a1d6 f33b 0bf9 a3bd 1c07 f63c 560e f2bd
000002c0: e7b8 d1bd b54c 923c 34d5 4dbd c7d2 fabc
000002d0: 7593 7fbd 79a4 9a3b 9474 a6bc 789c fabc
000002e0: fdcd babc 47c3 f23c 08e2 9cbb e641 dcbc
000002f0: 6de0 2abd 233f d63c 3b8d 703d 6f05 cb3d
00000300: fa03 02be 54c8 463d e754 d13d ac02 3abd
00000310: bf40 af3d a890 773c 9195 ea3c 8946 0b3e
00000320: ccb6 b7bd fecb cc3d b5d3 943c facd 1b3d
00000330: 819e 43bd 7ad5 613d e2ea 3abd 6ba6 4abd
00000340: 7677 92bc c62f 86bd 824d 5abd 2393 673e
00000350: 5ab5 64bc 58db b3bd 44e8 f13c 8b4c 8bbc
00000360: 8f24 413d df40 7f3b 6cff 0e3d e1b2 93bc
00000370: 9590 b0bc e66c 7cbd 23f7 80bd 9467 74bd
00000380: c1f8 ef3b 8ea5 86bd 1621 6e3d ade2 b0bc
00000390: 1a05 733d 98ce edbd b080 04bd aa26 b7bc
000003a0: 602a 25bd f70d b83d ac87 edbb 85e5 2abc
000003b0: c10f b0ba 09de 4b3d c446 9dbc 0054 c33d
000003c0: 11bc 48bd e759 2ebd 4dea 9f3c ddfc d83d
000003d0: 2559 163d 2d0c 71bd 9239 3b3b 32f6 60bd
000003e0: 2f4a 9d3a ad35 40bc f801 903c f04f 2d3c
000003f0: 3836 a03d e458 be3d 10bb d4bc 8cdc afbc
-0.010809624 -0.018682178 -0.04070528 0.123050205 -0.041322038 0.0151201645 -0.090014726 -0.044212982
0.035514407 -0.099809356 0.07608049 -0.0019196636 -0.08261325 0.010891168 0.071508035 0.07149146
-0.015502232 0.020748174 0.0804557 0.09354426 -0.057757404 0.115257256 0.014956512 -0.35270706
0.00042443982 0.061422896 -0.00768572 0.0008367368 -0.0026770036 -0.09428239 -0.16129611 0.010412619
-0.0639593 -0.19780989 -0.039789826 -0.015634177 0.07193561 0.0545915 -0.088325225 0.037709944
-0.0752269 -0.09792186 0.031404246 0.021500098 -0.13086566 0.012818271 -0.08995604 0.11218227
-0.011233665 -0.02699545 -0.10706186 -0.03473289 0.04857875 -0.022718977 0.019175503 0.03427782
0.04462824 -0.0060302643 -0.029199777 0.005234545 -0.024392676 0.09894222 -0.10136147 0.110259295
-0.07207245 0.057622552 0.034580328 -0.062770545 -0.12382675 -0.09444088 0.0130894035 -0.015831592
0.02890827 0.07092094 0.07109656 0.041923624 0.1206469 -0.004396941 0.060160667 0.031226613
0.035015605 -0.037213255 -0.03429704 -0.049512807 0.062482715 -0.043015122 0.066870645 0.0460816
0.13730358 -0.0036722713 -0.100775145 -0.065104544 0.07944204 0.13535406 0.047633592 -0.047453772
-0.05435256 0.015194812 -0.10712575 -0.107331716 0.0028724694 -0.07190609 0.053027753 0.031842444
-0.058448993 -0.07970989 0.01601818 -0.036669772 -0.008485984 -0.02538271 0.074304275 0.089929976
0.03508164 0.00055371295 0.042548582 -0.058430742 -0.021005373 -0.077571444 -0.11823361 -0.00075202284
0.043045267 -0.10335981 -0.04483621 0.07657611 0.09984617 -0.05070016 0.033365805 0.08809493
-0.004654776 0.022018187 0.094309606 0.057687733 0.07782938 -0.07318253 0.06338622 -0.1145954
0.018982368 -0.061648626 -0.033617232 0.07775638 -0.030319415 -0.15144432 -0.10381664 0.07400599
-0.09258619 -0.038087584 -0.008575067 0.033689115 -0.11873156 -0.19564082 -0.013377434 0.07689665
-0.10885717 -0.020966457 -0.052300133 0.1400455 -0.07274712 0.01300991 0.06428076 -0.026826562
-0.03579424 0.028229594 0.087303504 -0.05503732 -0.040098406 -0.08676371 0.048695903 0.06512327
-0.036566567 -0.025385126 0.16729602 -0.044101156 0.0074413572 -0.080064856 0.030032687 -0.118191406
-0.102403454 0.017858842 -0.050252154 -0.030618085 -0.062396485 0.0047193137 -0.02031926 -0.030592188
-0.022803301 0.029634131 -0.004787687 -0.026886892 -0.041717935 0.026153153 0.058728438 0.09913146
-0.1269683 0.04853089 0.10221272 -0.045412704 0.08557271 0.015110172 0.028635772 0.13601126
-0.089704126 0.09999846 0.018167356 0.03803823 -0.047758583 0.055135228 -0.045634158 -0.049475115
-0.017879229 -0.06552081 -0.053296573 0.22614722 -0.013959253 -0.08782071 0.029529698 -0.017004272
0.047154006 0.0038948578 0.034911558 -0.018029632 -0.021553317 -0.06162729 -0.062971376 -0.059669092
0.007323355 -0.06574546 0.058137022 -0.021592462 0.059331037 -0.1161167 -0.03234929 -0.022357304
-0.040323615 0.089870386 -0.0072488394 -0.010430698 -0.0013432429 0.049772296 -0.019198783 0.09537506
-0.04900748 -0.042566206 0.019520903 0.10595105 0.03670611 -0.058849502 0.002856825 -0.05492229
0.0012000258 -0.011731547 0.017579064 0.010578141 0.078228414 0.09294298 -0.025968105 -0.02146747

fc2.bias f4 [300]
00000000: a2ae bdbc e202 aa3c ae69 1e3c 64d9 903d
00000010: e9b5 a1bc 1e8a 83bc 37fe 8d3d 8e35 5b3c
00000020: f9d8 04bd 3fbd 523d 0926 373d 2b55 ed3b
00000030: 4099 993d 50c6 c8bc e332 9f3c b981 ec3c
00000040: 76e8 493d fde8 e2bc 09e6 8e3d dace a53d
00000050: 02c3 023e 2105 51bc c5e5 4abd f14a 103c
00000060: 60bd 36bc 01e1 893d 200d 323d 0b88 b9bc
00000070: ec0e 553b 00cb dc3c 3b70 643d 901e 813c
00000080: 8b65 2b3d 1007 873c 27e5 83bd 1625 a23c
00000090: c8a7 3c3d a39b 0cbd 44dd 553d cbf9 febc
000000a0: bfac da3c fe32 4ebc 9137 853d d19a 603d
000000b0: 2ad7 a4bc 400a 903c b7eb 303d d309 22bb
000000c0: 235e 1e3d 1efa 16bc 1c5b 193c 4d99 b8bc
000000d0: 75fa 353c 74d9 433b 983a 7f3d c9ee 1abc
000000e0: 29b6 9b3d b444 b73d 219e 97bc 42d4 063d
000000f0: d59e 253d 43b8 cf3d d23a eb3c cd21 67bb
00000100: 9520 073c 642c 14bd 207e de3c f6aa 97bd
00000110: 8be7 2d3d d6cf a0bc 72f5 c83c 3bb8 1e3d
00000120: ef39 813d 2dd1 163b d61e bb3d 78b2 72bd
00000130: 58a7 17bd 4441 a3bd 243c 993c eea1 113d
00000140: b2e6 e83c 58f1 423d 3e12 6a3c 3427 cfbd
00000150: 145e dd3d 5d5c 21bc 6a5e 863d c241 ef3c
00000160: 7a00 e6bd 1db0 0d3d 7375 0c3c 666f 323d
00000170: 603c a53c 2594 633c 18c0 513d 8bcf 6d3d
00000180: dbf8 d93c af79 1c3d 8165 bf3d 2e5b ab3d
00000190: 2c13 27bd fa07 8c3d c185 1d3d 1abd 0dbe
000001a0: af77 a83d 881e bd3c c0fb 96bc 26e7 b73c
000001b0: 7976 593d 81cf 923d 94c4 ff3b 065d 453c
000001c0: bd2e 013d 5fad 583d d45f 30bd 4310 503d
000001d0: c84a 173e a1be 33bd 5757 5cbd b402 dabd
000001e0: 042c 153d e411 963d 0627 06ba 64d0 803d
000001f0: 91a7 833d 8928 cdbc bdec e5bb b899 253d
00000200: a5a9 b5bc eddf 393b 2ac1 463d 4318 a8bd
00000210: 6b1c a03c acb9 f1b8 88d1 afbc 5380 ecbc
00000220: ad9f a4bc 9b09 743d 7525 a0bc 6b72 ad3d
00000230: bca8 543d 461e e63c c0d6 6b3d 0ed9 79bc
00000240: d882 f63c c3af 96bc 926e 58bd 025f 5bbb
00000250: af95 053d c638 0abd e342 c53d 2a19 d33d
00000260: 9996 7e3b 3537 fcbc b294 143c 3fdd 1bbd
00000270: 558c 32bd 7350 1d3b a326 053c a2db 8d3d
00000280: f5d1 003d 711b e9bc f362 61bd 8b5b ff3c
00000290: 0638 9dbd 7768 6b3d 313c 9c3d f92e 34bc
000002a0: 9eee 66bc 54ee 583d 69d2 523d 7620 073c
000002b0: 7902 80bc 98ab a5bc ba89 e53a 0e34 5a3d
000002c0: 7de0 0f3d 411b 02bd 19b4 d2bc 7aa9 d2bb
000002d0: 2f18 923d 415d 4f3d 7263 cabb b9ce c83c
000002e0: c6e2 81bc 8756 703d 15ac 123d 5a45 403d
000002f0: 4825 043d 0abf 8dbd 99c0 803d 9a60 663d
00000300: 4026 893d 17b7 8d3d f444 443c bc73 2b3e
00000310: 2ffc 8c3c ea76 423c df36 15bc d46b e03c
00000320: c4e0 41bc 1de5 e5bb 2455 823d 0378 b63d
00000330: 4fff 76bb cf37 2d3c ae3d 443d afc3 b03b
00000340: ff65 673c 2527 f1bc 985d 21bc 6613 9a3d
00000350: d1ca 3d3d 11f1 323d 4776 9fbc 3f18 9b3b
00000360: e842 aa3c 0342 6c3d 3cad 2c3c 4764 40bd
00000370: 8fa7 b63d 8ada c9bb 33e3 203d 6b85 a8bd
00000380: 745b 8b3c ff23 17bc ab8a 463c dd83 33bc
00000390: a530 03bd e2c8 763d d0f6 9cbb 76e1 77bd
000003a0: 0351 103d 5855 1b3d 598f c03a 9164 9d3d
000003b0: 66b8 723d 17b9 44bd 4db2 9c3d b619 1d3c
000003c0: 4b64 08bd 8920 a9bd c06b 5dbd e570 22bc
000003d0: 34cd 753d 3a0f 533d eae9 7c3c dd40 6e3d
000003e0: ece6 8a3d f435 4a3c c3ac 553d f429 123d
000003f0: 3ba2 0a3d 5200 98bd 8245 12bd 8cbc 973d
-0.02315456 0.020753328 0.009668751 0.07072714 -0.019740062 -0.01605707 0.06933253 0.013379468
-0.032433484 0.05145001 0.044714008 0.007242819 0.07499933 -0.024508625 0.019433444 0.02887045
0.049293958 -0.027698988 0.069774695 0.080960944 0.12769702 -0.0127575705 -0.04953553 0.00880693
-0.011153549 0.06732369 0.04346955 -0.022647878 0.0032510115 0.026952267 0.055771094 0.015761644
0.041844886 0.01648286 -0.06440192 0.019793075 0.046058446 -0.034328114 0.05221297 -0.03112497
0.0266937 -0.0125854 0.06504739 0.054835144 -0.02012213 0.017583013 0.043193545 -0.0024725094
0.038663995 -0.009214906 0.009360101 -0.022534037 0.011107077 0.002988425 0.06231174 -0.009456345
0.07603104 0.08948651 -0.018508019 0.03291727 0.040434677 0.10142567 0.028714571 -0.003526795
0.008247514 -0.036175147 0.02715975 -0.07405655 0.042457145 -0.019630354 0.0245311 0.038749915
0.06309878 0.0023012862 0.09136741 -0.059252232 -0.037024826 -0.07971433 0.018705435 0.03555482
0.028430317 0.047593445 0.014286576 -0.10114899 0.108089596 -0.009848681 0.06560977 0.02920616
-0.1123056 0.034591783 0.008572924 0.04356327 0.02017039 0.013890301 0.051208586 0.058059257
0.026607921 0.038201984 0.09345532 0.083670005 -0.040789768 0.06837459 0.038457636 -0.13841668
0.08225953 0.023085847 -0.01843059 0.022449087 0.0530915 0.071684845 0.0078054164 0.012046104
0.031538714 0.052899715 -0.04306014 0.05079676 0.1477462 -0.04388297 -0.05379423 -0.10645047
0.03641893 0.07327631 -0.0005117509 0.06289747 0.06428445 -0.025043743 -0.007016747 0.0404298
-0.02217562 0.002836223 0.04852406 -0.082077526 0.0195448 -0.000115263596 -0.021462217 -0.028869784
-0.02009567 0.059579473 -0.01954911 0.08469089 0.05191873 0.028090607 0.05757785 -0.015249504
0.030091688 -0.018394357 -0.052839823 -0.0033473377 0.032613453 -0.03374555 0.09631898 0.10307534
0.0038847087 -0.030788044 0.009068655 -0.038052794 -0.043590862 0.002400425 0.0081268875 0.06926657
0.03145023 -0.028455468 -0.055026006 0.03117158 -0.07676701 0.057472672 0.07628668 -0.010997527
-0.014094977 0.052961662 0.051470194 0.008247485 -0.015626179 -0.020223424 0.0017512359 0.0532723
0.035126198 -0.031764273 -0.025720643 -0.0064288946 0.07133519 0.050626043 -0.0061764056 0.024512636
-0.015855204 0.05867627 0.03580864 0.04694114 0.032262117 -0.069212034 0.06286735 0.05624447
0.06696749 0.06919687 0.01197933 0.16743368 0.017210094 0.011869172 -0.009107321 0.027395166
-0.011833373 -0.007015838 0.063638955 0.08909609 -0.0037688797 0.010572388 0.047910385 0.005394421
0.014123439 -0.02943761 -0.009848975 0.07523231 0.046336 0.04368693 -0.019465579 0.004733115
0.020783857 0.05768014 0.010539349 -0.046970632 0.08918678 -0.006160085 0.039279174 -0.082285725
0.017011382 -0.009224891 0.012118022 -0.010956732 -0.032028813 0.06025017 -0.0047901645 -0.06051775
0.03523351 0.037923187 0.0014691158 0.07685197 0.059257887 -0.048028078 0.07651196 0.0095886495
-0.03329877 -0.08258159 -0.054057837 -0.0099146115 0.06001015 0.051528193 0.015436629 0.058167327
0.06782326 0.012341965 0.05216671 0.03568454 0.03384612 -0.07421936 -0.03571082 0.07409009

fc3.weight f4 [2, 300]
00000000: 390c f43d 837f d23c 6f8f b63b 4804 1c3e
00000010: 7cc8 393e 895e e2bd dd60 6fbe 361f 513e
00000020: 1103 9d3d 0894 423e 5e2e bb3d 78a2 f6bd
00000030: da05 2cbe 475f e6bc 43f9 a7bc 4202 29be
00000040: e1c9 463e aa0b 61be 81f2 f8bd e539 8ebd
00000050: 2f06 c4bc 6ee8 343e 6a43 863d 9fa1 f23c
00000060: 50c2 40be 6dc0 3c3e b7aa 26be 73f6 8d3d
00000070: 2a29 a23d c352 293e 2c1a d93d c475 58be
00000080: 2320 413e 92fb c73d 8bca 04be d1f5 333e
00000090: 72a3 60be 43e8 94bc da8e 593e ffa0 2c3d
000000a0: e934 c53c 5964 27be 0b81 4bbe 3dac 49be
000000b0: 02dc ec3d dd50 ddbc 3964 1abe 39d5 a33c
000000c0: 784c 19be f811 75bc 8f6d cd3c 9bde 68be
000000d0: 9730 fabd 2560 04be 1374 35be f3dc b43d
000000e0: 684f e8bc 154e a8bd 78b7 0c3d a341 fcbd
000000f0: 3101 ec3d f198 27be b247 733d 95af f33d
00000100: 9c97 923c 9111 4bbc 754f 43be 1381 f03d
00000110: 427b 5bbe cf83 9c3d 3698 f1bd 0f87 bc3d
00000120: 208a 90ba 5a19 07be 96ab edbc 31cd b93c
00000130: c89b e5bd 9348 773d 549c a63c 5e79 78bd
00000140: 3ab4 5fbb a712 b8bd 5608 50be ed62 9cbd
00000150: 46d9 0cbe 5488 0e3e 9d7c edbd f5f0 da3d
00000160: 6b3c 0a3e 60c3 b53d 8b0a 033e c60a 09be
00000170: d759 24be c4ad f4bd 50b5 ddbb 10b8 3abe
00000180: 8b61 67be a6a1 23be c693 ba3d 17d7 2fbe
00000190: e1cf 33be 32f2 67be 9d63 51be e9f5 d53d
000001a0: 56ab 94bd 730d 183c 1879 39be f00f 0d3e
000001b0: e515 38be e854 0ebe 4fab cebb 4ee4 273e
000001c0: 4a98 2bbe cdaf 533e 2f01 c73d 9028 6b3e
000001d0: f81c cd3d 236b f63d 4e34 6c3d 5529 643e
000001e0: 4ef2 543e 2450 38be 0b64 2cbd d000 493e
000001f0: 7ac2 43be 1e6a 61bd b029 bbbd db8e f0bd
00000200: 0ca7 91bd 75d6 c7bd 73f5 e1bd 757a 01bd
00000210: 6145 0b3e 9b80 4a3e 6e08 3c3e ba74 8fbd
00000220: cb72 c93d 7bfc 18be 5425 063e a88e 333e
00000230: c0b2 50be 2206 47be 7fd0 b53d 184c 4fbe
00000240: 5f77 bf3d 1a07 d33d 8ea9 373e b279 003e
00000250: 82c9 3e3e 3238 bb3d d1a5 84bb 2a8c cdbd
00000260: c8be bc3d 24b2 1bba 5fbf 283e cdd0 6e3d
00000270: 4596 7cbd b9d8 163e c7dd 593d b41e 15be
00000280: e230 3a3e 1ce9 1abe d6e0 533d fe52 32be
00000290: 119b 9d3d c348 063e c5ef 62be c09b bb3d
000002a0: 02d4 f33d 20bc 713d 111e babd a79c a23c
000002b0: 33d4 17be 1f6a 513e 6390 563d ddd0 edbd
000002c0: 9409 8cbe 622f 863d 4b60 12be b0fb ef3d
000002d0: 4422 0e3e 814c a8bd 66c6 723c c915 04be
000002e0: e8bb cdbc e03f 393e ffa7 2dbe c12b d53d
000002f0: b2c8 4c3e ee0d d7bc a80a 0fbc f1cb bb3d
00000300: a680 453e 736d de3d 53d5 46bc e09f 95bc
00000310: 92ea 60bd aad0 b3bd 5900 b4bd 979f e7bd
00000320: 4c1f d63d dae0 e8bc 3ccd 40be 81fa 27be
00000330: df10 5a3e 12f0 fc3d efa9 37be 61bf c2bd
00000340: bc1f 5dbe 484d 51be 1548 523e 46c2 bb3d
00000350: 0fc5 22be db03 46be 88dc 9fbd 63a7 f7bd
00000360: c5ef 1b3d 26c2 59bd 32c9 01be bb00 70bd
00000370: 48a7 95bc e0ca 41bd 2cbe 1d3e 8862 fe3d
00000380: f8d2 5ebe f43c a43d 429e 47be 8d45 a2bc
00000390: 65f3 473e cc87 94bc dcec 65be 3aec de3d
000003a0: 18b4 123d 9879 1e3e e84b 1a3e 2218 373e
000003b0: 47a6 42be 9f41 1fbe a6fa 51be e634 3ebd
000003c0: 1882 1e3c df99 e6bd e3d5 26b9 36da eabd
000003d0: 8e82 3cbe 1ea8 62be bed8 1ebe 2ddc 65be
000003e0: aca4 dcbd 3cba af3d 514e 2a3e 18dc 273c
000003f0: 273f 6f3d 7b49 68bd 9b84 09be f4f7 513e
0.11916394 0.025695568 0.005571298 0.15236008 0.18142885 -0.110531874 -0.23376794 0.20422062
0.076666005 0.19001782 0.09139703 -0.12042707 -0.16799107 -0.028121604 -0.0205046 -0.16504768
0.19412948 -0.21977106 -0.12155629 -0.06944636 -0.02392873 0.1766679 0.06555827 0.029618083
-0.18824124 0.1843278 -0.1627606 0.06931772 0.07918008 0.16535477 0.10600695 -0.21138674
0.18859915 0.0976478 -0.12967889 0.1757424 -0.2193735 -0.018177157 0.212459 0.042145725
0.024073081 -0.16346873 -0.19873445 -0.1969461 0.11565401 -0.027016098 -0.15077294 0.019999133
-0.14970577 -0.014957897 0.025076656 -0.22741167 -0.12216299 -0.12927301 -0.1772006 0.08831205
-0.028358176 -0.08218018 0.034354657 -0.12317207 0.11523665 -0.16366936 0.059394546 0.11898724
0.017894559 -0.012394325 -0.19073279 0.11743369 -0.21433738 0.07642328 -0.1179661 0.09205448
-0.0011027493 -0.13193265 -0.029012483 0.02268085 -0.112113535 0.060371947 0.020338215 -0.06066262
-0.0034134523 -0.08987933 -0.2031568 -0.07636056 -0.13754758 0.13919193 -0.11596034 0.1069049
0.1349961 0.088751554 0.1279699 -0.13383016 -0.16049896 -0.11947206 -0.006765999 -0.18234277
-0.22595803 -0.15979633 0.09110217 -0.17171894 -0.17559768 -0.22650984 -0.20448156 0.10447294
-0.07259242 0.00928055 -0.181126 0.13775611 -0.17977102 -0.13899577 -0.0063070427 0.16395685
-0.16757312 0.20672531 0.09717023 0.22964692 0.10015291 0.120321535 0.05766707 0.22281392
0.20795557 -0.17999321 -0.042087596 0.19629216 -0.19117156 -0.05503284 -0.09138811 -0.117459975
-0.0711194 -0.09757701 -0.11033144 -0.031610925 0.13600685 0.19775622 0.1836259 -0.07004686
0.09836348 -0.14940064 0.13100177 0.17534888 -0.20380688 -0.19435933 0.08877658 -0.20243871
0.0934894 0.10304089 0.17935774 0.12546423 0.18631557 0.09141578 -0.004048087 -0.100365
0.09216076 -0.0005939326 0.16479252 0.058304597 -0.061666746 0.1473111 0.05319002 -0.14562494
0.1818271 -0.15127987 0.051728092 -0.17414472 0.07695592 0.13113694 -0.22161777 0.09160566
0.11905672 0.0590173 -0.09087766 0.019850088 -0.14827041 0.20450638 0.05238379 -0.11612103
-0.27351058 0.06552006 -0.14294545 0.117179275 0.13880259 -0.08217717 0.01481781 -0.12898935
-0.025114015 0.18090773 -0.16958617 0.10408736 0.19998434 -0.02625176 -0.008730568 0.09169758
0.19287357 0.108607195 -0.012135821 -0.01826471 -0.054911204 -0.08780034 -0.08789129 -0.11309736
0.10455188 -0.02842753 -0.1882829 -0.16404153 0.21295498 0.12350477 -0.17935918 -0.09509159
-0.21594137 -0.20439637 0.2053531 0.09167914 -0.15895484 -0.19337408 -0.07805735 -0.12092473
0.03807046 -0.05316367 -0.12674406 -0.058594447 -0.018268242 -0.047312617 0.15404576 0.12421137
-0.21760166 0.080194384 -0.19493964 -0.019808555 0.19526441 -0.01813116 -0.22453636 0.108849004
0.035816282 0.15476072 0.15068018 0.178803 -0.19008742 -0.15552376 -0.20505771 -0.046437167
0.009674571 -0.11259817 -0.00015910673 -0.11467402 -0.18409178 -0.22134444 -0.15512368 -0.22447272
-0.10773596 0.08580443 0.16631438 0.0102453455 0.058409836 -0.0567107 -0.13429491 0.20504743

fc3.bias f4 [2]
00000000: 8ee4 ceba 6e83 a63d
-0.0015784667 0.08130537

bn1.weight f4 [400]
00000000: 13bd ff3d a083 d23e 3537 893f 2baa 7b3f
00000010: deb6 453f 1fcc a43e 7cbb 4b3e b285 713f
00000020: 1d60 2e3f 093a 1e3f abed 693f b686 833f
00000030: d168 573f a855 b53e 29ab 853f 8f68 263f
00000040: e305 493f e209 823f 0b45 3f3e 6657 d63e
00000050: 974f 293f 779c 4e3f 5e08 513f f2b3 283f
00000060: 9152 0a3d 9ed2 c23e d5b1 f73e 0107 5e3f
00000070: a4f8 2e3f 2c6c 263f ff3c bc3e ee35 163f
00000080: 9cd5 763e 699f 5b3f bfdc 1f3f 6e47 823f
00000090: 072a 8f3e b526 aa3e e4c5 4e3e a365 973d
000000a0: 33a2 483f 04b7 493f a93d 1d3e aaad 313f
000000b0: 2d01 7f3f d639 8a3f 7261 5b3f ad5a 3a3f
000000c0: c970 063f 4756 743f 5ee9 693f 67e5 243f
000000d0: 4e49 793f 8b9e e13e 85ad 153e 8bbd 323f
000000e0: 4772 313e 6122 5c3e 4f0a d23e 971f 853f
000000f0: 72e5 3d3f dddd 7c3f 1026 f53d d33a 223e
00000100: eb89 8d3f 851e 893e d27e 213f 310a 923e
00000110: 8ba4 bc3e 376f 513f 8ed8 7a3f dec3 473f
00000120: 8d21 d53e 0781 6b3f ebee 783f fe23 763f
00000130: 1b37 923e e40e 793f 50b1 d13e eb01 723f
00000140: 0ae3 643f c9aa d33e b78a 2d3f f57a 163f
00000150: 95a2 273f 7247 223f a692 853e bd96 353f
00000160: c5ba 203f 5761 283e 8aff 843f 9646 5f3f
00000170: 5ec9 2a3f d788 3f3f 92f4 403e c520 763f
00000180: ee1d 883f dbec 563f 9c86 603f 7791 1b3f
00000190: c3c5 bb3e 4ac5 5d3f b98d 703e 7aa2 f33e
000001a0: cbe6 b93e 8c61 853f e9bc 903e 52a6 2c3f
000001b0: ec2f 923f 220c a33e 961f 293f 01e9 433f
000001c0: 659c 253f 3ffc 863e 098e 683f 91a8 083f
000001d0: 0910 f93d e284 533f 6611 f63e d1ab cb3e
000001e0: 27bc 793f 2e4c cd3e 8b46 743f fe2e 9c3e
000001f0: 92e2 143f 8134 da3e 9e9f 723f 5345 2d3f
00000200: dfbb 333f 2280 4d3f d6ef 913e f5eb 5b3f
00000210: 7582 de3e a995 673f 849e 333f e445 d93e
00000220: b35f 513e 8217 2b3f f5e5 0f3f 7944 293e
00000230: ca7f 953f 0b82 b13e 446e 5e3f 0619 503f
00000240: c810 fe3e 6e4e 083f 517d 393f 29b4 ae3e
00000250: 0ccd f03e bee0 283f 0870 433f f35b 763d
00000260: 7d11 e43e 5f80 333e c750 a83e e778 093f
00000270: 7f41 783f c78b 083f 0b8a 843f 8a54 783e
00000280: 40be d63e 5c1b 633f 4263 203f 693d 903f
00000290: 1773 243f f35a 0f3e e147 733e 9ef2 2d3f
000002a0: 3c0b 073f 1628 853f 09f0 973e 9bd2 183f
000002b0: cab5 b43e 4194 0b3f e650 273f 82a0 bb3e
000002c0: 7423 403f 7104 483f 2be2 1a3f b14f 8a3f
000002d0: 17dc 413f 8ca1 81be 6ecf 563f 6df4 783f
000002e0: ba24 d63e 63f3 703e ca7a 303f 89be ad3e
000002f0: 42e7 8d3e c7c2 453f 4472 733f 689e 203f
00000300: 3a09 cf3e 0b2b 3c3f 4ca5 183f 38dd 793f
00000310: d96b 0e3e 23b4 6d3f 1453 f93e 8f7b bf3e
00000320: 0205 7e3f 0fdf 4d3f 78e8 883f f34c b53e
00000330: 060b 4b3f 35a4 4c3f 301d 963e a6fa 923f
00000340: a547 793f fcd1 063f ce84 8a3f 94f8 cb3e
00000350: 80df 2c3f 9802 f23e 5dfb f13e d8c3 7c3e
00000360: d6a9 7f3f 866d b83e 8418 833f 9278 943e
00000370: 0dab 973e 58e4 a43e 9267 853e d4c3 0e3e
00000380: 3692 613f 1de5 053f 237c 833e cc5b ac3e
00000390: cc1f 723e 7de2 b23e 19a6 a63e 5e96 753f
000003a0: d088 b23e 3ee2 5d3f 2511 7f3f 2d80 523e
000003b0: abee 063e 3aba 143f 8d0f c03e 8acd 863f
000003c0: be28 7c3f e83e e43e 582f 013f f990 3b3f
000003d0: 9c3a 743e 2663 dc3e 38da 853f 8ddc e93e
000003e0: c8e3 723f 06dc a93e e11b c43e e44d c13e
000003f0: 098e 5c3e 3565 283f f093 123f e938 543f
0.12487235 0.41116047 1.0719973 0.9830653 0.7723216 0.32186982 0.19895738 0.9434463
0.6811541 0.61807305 0.9137828 1.0275486 0.8414431 0.35416913 1.0442859 0.65003294
0.7852461 1.0159266 0.18678682 0.41863555 0.6613707 0.80707496 0.8165339 0.65899575
0.033770148 0.38051313 0.48377863 0.8672944 0.68348145 0.6500881 0.36765286 0.5867604
0.24104923 0.85790116 0.62446207 1.0178049 0.27961752 0.33232656 0.20192677 0.073924325
0.78372496 0.78794885 0.15355553 0.69405615 0.9961117 1.07989 0.85695565 0.7279461
0.52515846 0.9544415 0.91371715 0.6441254 0.9737748 0.4406627 0.14616974 0.6982047
0.1732875 0.2149749 0.4102349 1.0400265 0.7417823 0.98776037 0.119701505 0.15842752
1.1057714 0.26781097 0.6308414 0.285234 0.36844286 0.81810325 0.97986686 0.78033245
0.4162716 0.91993755 0.9723956 0.9614867 0.28557667 0.97288346 0.4095559 0.94534177
0.89408934 0.41341236 0.6778979 0.5878137 0.65482455 0.63390267 0.26088446 0.70933133
0.6278499 0.16443382 1.0390484 0.8721708 0.6671351 0.74818176 0.18843296 0.9614375
1.0634134 0.8395516 0.877054 0.60768837 0.36674318 0.86629164 0.23491563 0.47584897
0.36308894 1.0420394 0.28269127 0.67441285 1.1420875 0.31845194 0.6606382 0.7652741
0.64691764 0.26364323 0.9084173 0.5338221 0.121612616 0.8262464 0.4806015 0.39779523
0.9755272 0.40097183 0.9542014 0.30504602 0.5815822 0.42618182 0.94774806 0.67683905
0.70208544 0.8027364 0.28503293 0.85906917 0.43458906 0.9046274 0.7016375 0.42436135
0.20446663 0.66832745 0.5621026 0.16530026 1.1679623 0.34669527 0.86887 0.8128818
0.49622178 0.53244674 0.7245684 0.34121826 0.47031438 0.6596793 0.7634282 0.060146283
0.44544592 0.17529438 0.32874128 0.5370011 0.9697494 0.53338283 1.0354627 0.24250999
0.41942024 0.8871362 0.62651455 1.1268741 0.64238113 0.13999538 0.23757888 0.6794833
0.5275152 1.0402858 0.2967532 0.5969636 0.35294944 0.5452309 0.65357816 0.36645895
0.750541 0.7813178 0.60501355 1.080557 0.75726455 -0.25318563 0.8391026 0.97247964
0.41824895 0.23530345 0.6893736 0.3393443 0.27715498 0.7725033 0.9509623 0.6274171
0.40436727 0.7350318 0.59627223 0.9760318 0.13908328 0.9285299 0.48696196 0.37398955
0.9922639 0.80418485 1.0695944 0.3541027 0.79313695 0.7993806 0.29319143 1.1482742
0.97374946 0.5266416 1.0821779 0.39838088 0.67528534 0.47267604 0.47262087 0.24684083
0.99868524 0.3602106 1.0241857 0.28998238 0.2962269 0.32205462 0.2605558 0.1394189
0.88113725 0.52302724 0.25680646 0.33663785 0.23644942 0.34938422 0.32548597 0.9593257
0.34870005 0.86673343 0.99635535 0.20556708 0.13176982 0.5809666 0.37511864 1.0531476
0.9849967 0.44579244 0.50462866 0.73268086 0.23850483 0.43044394 1.045722 0.4567608
0.94878817 0.33175677 0.3830252 0.37754738 0.21538557 0.6577943 0.57256985 0.8289934

bn1.bias f4 [400]
00000000: 16df 803a 8a96 dbbb 0527 06bc 9320 f23b
00000010: 5d46 583d bbb6 133c 27f5 c43c 7535 103c
00000020: 26d3 a538 42ff 573c 343e 6c3d 3eaa 6d3d
00000030: 11cc 22bd 1596 303d 1114 23bd 4353 2abd
00000040: 2b8d fbbb fd90 d1bb 7f6f a9bb 84fb cabc
00000050: fd03 9fbb f4a9 81bc d4ae 5abd 49f8 d93c
00000060: 3bf8 2dbd 22a4 053c 2c2e 71bd f440 6ebc
00000070: 0068 b0bc cdcc 6c3d ee57 083d 8c10 173b
00000080: a4b0 883d 1ae4 65bc 8e32 183c 6c69 35bc
00000090: e723 b8bc a66d 783d 819f 06bd 66c6 33bb
000000a0: 6535 88bd 0372 7b3c da55 3abd 7ef3 033b
000000b0: 4c58 0a3d f980 4abb 7804 a23c 6882 2abd
000000c0: 0385 08ba cf7d 173d 0a6a 16bd e953 5f3d
000000d0: 41a2 573b 4d1b 633c cad7 32bc 309a d9bc
000000e0: 4d06 16bd 235c 7abd accc 3d3c f174 453c
000000f0: 66c1 67bd 403c afbc 11c8 3b3c d8f6 043c
00000100: 8014 00bc e0f2 99bd 959a 8e3c 8d02 77bc
00000110: 9ddf 683c 48cc 1e3d 5763 143d 48d6 7a3b
00000120: caae 77bd 3dde 74bc 1e85 a93c d510 f3bc
00000130: b1b6 9d3c 86dd 193c 0807 04bd 8a5b 84bc
00000140: fe69 b73c 8305 033d de45 7bbd 1fd9 393b
00000150: ddfe 533c d530 473d e5d3 423d 0bd9 1d3c
00000160: ec22 f4bb f6f3 063d a38a c4bc e786 ed3c
00000170: 8d92 9fbd a3ad 37bd 6a51 dc3c d121 933c
00000180: 766f c7bb 73d4 aebc e766 44bc 62e7 4dbd
00000190: 58c9 2a3c 5391 5a3d f528 b1bc 48ae d73c
000001a0: 1b43 17bd add1 ac3a e9d5 d93c 966d 8ebc
000001b0: 2a62 123d 51ea 813c 9a0c 7f3c dbc7 e739
000001c0: d35a c9bc 2b0d 1bbb 0c2f 203b 9387 613b
000001d0: 8afe 11ba 96b8 ab3c 0dd9 9b3d 5de6 62bd
000001e0: 5ad1 873c e613 553c 6452 6bbc b78b b2bd
000001f0: 68b8 38bd f62d 823c 76a7 ca3b 3e57 8c3d
00000200: e49a aa3c fdf6 47bc bc9a 083d 1fb1 f9bc
00000210: 4333 c9bb 0793 2c3d cfb9 e5bc 326e 803c
00000220: a0f2 18bc e66a e4bb f02c aa3b b54b 833d
00000230: cd77 abbb 0af2 133d 0f4b 823c a56d dbbc
00000240: 35d6 0e3c cdc9 003d b9d2 0f3c de91 56bd
00000250: 262a d03b 7241 d43b a43c 80bd 9ae5 24bd
00000260: 99b6 393d 44dc 5a3d a03e 1f3c 9dca 1ebd
00000270: 21bf 643d 3973 7fbb 32cd 8dbc 35e8 18bd
00000280: 051a 493c 3bfe fbbb f275 26bc 0e70 c0bc
00000290: e71a 00bc bba6 b1bc e767 283d 93d8 e33c
000002a0: 073c 18bc bcd5 89bc 7642 37bc ed9c f13b
000002b0: 755c 13bc 4d72 e5bc 24d6 843c 9c53 153d
000002c0: f9b1 04bd 6cee 443d af2c 44bc 01e5 893c
000002d0: 4814 e2bc c14c ddba 9457 b83d 5ade a73b
000002e0: f897 72bc 1942 2fbd 1f73 37bd 2e6d fbbb
000002f0: 5daf b43c a034 443c 4ecf 653c 1d7b 1d3c
00000300: cb15 01bd b0f1 a33d 7769 ebbb f839 8c3c
00000310: 1cbb 6dbc d4ac 463b 9a64 86bd e39c 6b3c
00000320: d859 6c39 f309 15bc 93c7 65bd dd88 03bd
00000330: 2fc4 04bd 806e a2bd c512 44bc 0b8b 7ebd
00000340: 13c8 a6bd b066 29bd ac2c 95bd 70c5 09bd
00000350: 413f 08bd 9c0d 2f3d 0c37 233d 889d 8dbb
00000360: 564c 13bd 96c7 023d 038f 2cbd 1d23 1d3d
00000370: ae93 10bc 2dfa 37bc 884c f13c 2933 a33b
00000380: 9fb6 413c d941 6abd 0846 b93c 5923 3cbd
00000390: ea34 a3bb ebc2 70bc 7de9 013d 8e1e 9e3c
000003a0: b758 b5bc 928e a13d c996 76bd 7078 8e3c
000003b0: 842c 5abd 3c14 893c ecc3 26bd caf7 2dbc
000003c0: 3825 69bc 6ab6 4a3c 3b68 dcbb 7da8 e0bc
000003d0: 3e7f b4bc 2b6f 413d 08ac 1e3d ae57 ed3a
000003e0: 80fb 2abd fdbe 8e3c 6a67 09bc 7c79 edbb
000003f0: c378 00bc 4f44 553d 6ef9 74bd a1bb 693b
0.000983211 -0.0067012953 -0.008188014 0.007389137 0.05280148 0.009015734 0.024042679 0.008801808
7.9071426e-05 0.013183417 0.05767651 0.058023684 -0.039745394 0.04311188 -0.03981406 -0.04158331
-0.0076767406 -0.006395458 -0.005170762 -0.024778135 -0.0048527704 -0.01582811 -0.053389385 0.02660765
-0.04247306 0.008156808 -0.058881924 -0.014541853 -0.021533966 0.0578125 0.03328698 0.0023050634
0.066743165 -0.014031434 0.009289397 -0.011072498 -0.022478057 0.060651444 -0.03286696 -0.0027431487
-0.06650809 0.015347007 -0.04549203 0.0020134146 0.033775613 -0.0030899628 0.019777521 -0.04162827
-0.00052078086 0.036985215 -0.03672222 0.054523382 0.0032903107 0.0138614895 -0.010915706 -0.02656278
-0.036627103 -0.061123025 0.011584442 0.012051807 -0.056580923 -0.021391034 0.011461274 0.008115493
-0.007817388 -0.07517028 0.017407695 -0.015076292 0.01421347 0.038769037 0.03622755 0.0038274694
-0.060469426 -0.014945564 0.020693358 -0.029671112 0.019252153 0.009391194 -0.032233268 -0.01615693
0.022389408 0.03198768 -0.061345927 0.0028358174 0.012939182 0.048630554 0.04756536 0.009634267
-0.007450452 0.032947503 -0.023991888 0.02899499 -0.07791624 -0.044843327 0.02689429 0.01796046
-0.006086285 -0.021341538 -0.011987424 -0.050269492 0.010423981 0.05336125 -0.021625975 0.026328221
-0.03692923 0.0013185047 0.026591258 -0.017386239 0.035738148 0.015858801 0.015566969 0.00044208657
-0.024579441 -0.0023658972 0.0024442105 0.0034413084 -0.00055692403 0.02096204 0.076097585 -0.055395473
0.016579319 0.013005232 -0.014362905 -0.08718055 -0.04509774 0.015891057 0.0061845137 0.068525776
0.02082581 -0.012204883 0.03335069 -0.030479966 -0.006140144 0.042132404 -0.028042702 0.015677545
-0.00933519 -0.006970751 0.0051933452 0.06410924 -0.005232787 0.0361195 0.015904931 -0.026785681
0.008718063 0.031442452 0.008778268 -0.052385204 0.0063526807 0.0064775283 -0.06261566 -0.040258028
0.045340154 0.053432718 0.009719521 -0.038767446 0.055846337 -0.003897859 -0.017309759 -0.037330825
0.01227427 -0.0076902187 -0.010159956 -0.023490932 -0.007818914 -0.021685949 0.041114714 0.027813232
-0.009291655 -0.01682555 -0.011185279 0.0073734433 -0.008994211 -0.028008604 0.016215391 0.03645669
-0.03239629 0.04807894 -0.011973544 0.01683283 -0.027597561 -0.0016883836 0.09001079 0.005122942
-0.01480674 -0.042787645 -0.044787522 -0.0076729273 0.022056276 0.011975437 0.014026476 0.009611872
-0.031514924 0.080050826 -0.0071842032 0.017117485 -0.014509942 0.0030315416 -0.06562157 0.014380666
0.00022540183 -0.00909661 -0.056098532 -0.032112945 -0.032413658 -0.079312325 -0.011967366 -0.06214432
-0.0814363 -0.041357696 -0.07283911 -0.033635557 -0.03326345 0.04273759 0.03984742 -0.0043217577
-0.03596147 0.03192862 -0.042128574 0.038363565 -0.008824272 -0.01122908 0.029455438 0.004980464
0.011823325 -0.057191703 0.022616401 -0.045932148 -0.004980673 -0.01469491 0.031716812 0.019301679
-0.02213703 0.07888521 -0.060202394 0.017391413 -0.05326511 0.016733281 -0.04071419 -0.01061816
-0.014230065 0.012372592 -0.0067262924 -0.027424091 -0.02203333 0.04722516 0.03873828 0.0018107796
-0.041743755 0.017425055 -0.008386472 -0.007247148 -0.007841292 0.052067097 -0.059808187 0.0035664814

bn1.running_mean f4 [400]
00000000: ad7c be3f 63cf ff3f d43d 813f 3623 d73e
00000010: 556f 0840 af9f cd3e 3e58 583f 29fd 603f
00000020: 9a50 db3e a608 6b3f a220 1e3f c9e5 fa3f
00000030: 73d7 993f 2755 e83e 282b ac3e 584f e53e
00000040: 13b0 0f40 cb6a e83f 3ea7 183e 39d6 f73e
00000050: 5d41 f03d 48ff dc3e e289 343e f37f 873f
00000060: ac5b 883f d44e e93f 9248 e63e f827 af3f
00000070: d9fd 1b3e 0a7a a23d cc89 173d b052 2740
00000080: c9d6 813f 9e82 053f 72d5 d53d 0566 853f
00000090: a0b1 ca3c 4fa4 6340 1a0f 503e aaa0 283f
000000a0: 7cf4 3e3f 38fb 8e3f c83b 6c3f cdd4 2240
000000b0: 47b0 b83e 5266 933f eb1a a83e 0cd8 1f3f
000000c0: 0cf5 463e c605 0a3d 8298 973e 06c5 723f
000000d0: 4e4a 8a3f fade 8d3f 35f4 143f 6914 923f
000000e0: 0808 263e 4519 043f bea2 813f 197d a03f
000000f0: 0957 633d 545a bd3e eaf7 1540 ada8 1a3f
00000100: 75ee 423f c696 983f 2695 263f 806b 033f
00000110: b6c7 5f3d 6674 7a3f f1cf 693e c3d2 0d3f
00000120: db24 9b3f 7cc4 ed3a e498 1e3f 0c05 1c3f
00000130: 1519 3b3e 3083 9b3e 46ff 8d3f f000 0840
00000140: a717 983f c8f1 f93e 6c5c d73e 764c f03f
00000150: 786b 433f fa30 e53e b4d3 8d3f 599e 1d40
00000160: 842f 0f3e 0400 0000 466e ca3e 5664 373e
00000170: 60a0 9e3e d61d 1b3e 913e ea3f 546e 6e3e
00000180: e30a d43d 6ebc 703e 08b5 813f 4215 273f
00000190: 7e54 ce3f 8e9f 933f 17d6 2240 d545 ba3e
000001a0: 8056 953e 866a e73e 8334 da3d 964a d43f
000001b0: a2ad eb3e d073 b73f 5532 d33d 03bb b83f
000001c0: c552 963e f870 573d 2bed c03d 1667 823f
000001d0: cefb 113f 7f3a 543e 6ffb 9f3f 82ff 263f
000001e0: 352b cd3f 2144 963d 428b ba3c 4dc0 c93e
000001f0: 5c49 db3e deb3 fb3f c0ea c13f b747 3d3e
00000200: 954b 1d3f 9587 743f 57b1 b13e d01c fa3f
00000210: e9b6 2740 de32 503f 83de 113e 9224 623e
00000220: 958c 2840 3264 d43f 395a fd3f 2097 b03f
00000230: 767d dd3e 99b8 ab3f 7383 c23d c2c3 dc3e
00000240: c95c 353f 4947 bf3f fcb3 263f b477 9c3c
00000250: 26cd 0f3f 01d7 c73e abd5 b93e b826 0940
00000260: 7d9a 423f 6fee a53f f5ea 083f c1f7 463e
00000270: 139e c43f 558b 0440 800b 143f 6c63 033f
00000280: dcff cc3e 76a8 133e 28a0 033e 2c66 853f
00000290: 2129 1a3f 0400 0000 9216 033e 5ab0 b13f
000002a0: 03f3 4e3e f84d c737 d484 2b3d 5f9f 593f
000002b0: 3512 473f 66e5 d93e 4ba8 113f ce91 853f
000002c0: fb47 1e3f 8c03 db3f 7a95 273e c2cb 783f
000002d0: 9a29 663f 4489 2b3e c7de 813f 7e4e 1d40
000002e0: 0c78 1740 4a48 213e cb1a 1e3f b5f3 483f
000002f0: 4fb9 3e3d 8f80 ef3f 2433 cd3f 00d7 2440
00000300: ed41 893d 1bce ac3e 9ce0 3c3f 764d bc3f
00000310: 713a 3a3f 1610 a73f 23f9 333e ad11 6b3d
00000320: 47b1 043f a4bd 533d 503c 843f 5a3c 7e3d
00000330: f2e7 823e 3200 4440 9aa9 473f bb9a de3f
00000340: 6629 393f 2c8f 5e3f 5d64 7f3f 9132 843d
00000350: 3292 973d 9b89 8a3e 6ead 813f 5c01 bf3f
00000360: b26c c53e 8a48 223f 5ae8 fd3e f197 0040
00000370: a8e0 8a3f c786 e93e 0619 133e c5fe 2a3d
00000380: 2e19 eb3e 0400 0000 7c5e f83f 2911 773f
00000390: 2966 7d3f c5f2 f63e 2022 9f3d 2b00 1c3f
000003a0: fa72 b43c 202d 1140 f970 413e 42d6 b73e
000003b0: 43fe 8a3f ce8a da3e 02a3 7c3f d710 793c
000003c0: ba67 1e3f 1abc d83f 49e8 173e 2e69 1c3e
000003d0: 55f5 0f3f 8182 bd3d b0e4 753f e85c 7d3f
000003e0: 6af3 9c3e 707d 1640 4b7c 503f 5b95 9d3e
000003f0: 15da 9a3f da65 6140 b4f5 a63d 8431 ae3f
1.4881798 1.9985164 1.0096993 0.4201905 2.1317952 0.4016089 0.84509647 0.8788629
0.42834932 0.9181007 0.61768544 1.9601375 1.2018875 0.45377466 0.33626676 0.44787097
2.2451217 1.8157591 0.14907548 0.48405626 0.11731217 0.43163514 0.17630723 1.0585922
1.0652976 1.8227181 0.44977242 1.3684072 0.15233554 0.07933433 0.036996648 2.6144218
1.0143672 0.5215243 0.10441102 1.0421759 0.024742901 3.5569036 0.20318261 0.65870154
0.74591804 1.1170416 0.9227872 2.5442383 0.3607199 1.1515601 0.32833037 0.62439036
0.19429415 0.033696912 0.29608542 0.94831884 1.0803926 1.1083672 0.5818513 1.1412479
0.16214001 0.5160106 1.012779 1.2538177 0.055502925 0.36982977 2.3432565 0.6041363
0.76145107 1.1921012 0.6507133 0.51335907 0.05463382 0.9783386 0.2283323 0.5539972
1.2120622 0.0018140222 0.6195204 0.609452 0.18271287 0.30373526 1.1093528 2.1250572
1.1882218 0.48817277 0.420627 1.8773334 0.7633586 0.4476393 1.1080232 2.4627898
0.1398297 6e-45 0.39537257 0.17909369 0.3098173 0.151481 1.8300344 0.23284274
0.10353639 0.2350938 1.0133371 0.6526681 1.6119535 1.1533067 2.544317 0.36381403
0.29167557 0.45198458 0.10654547 1.6585262 0.4603091 1.4332218 0.103123344 1.4432071
0.29360023 0.05259797 0.09420236 1.0187709 0.5702485 0.2072544 1.2498606 0.65233624
1.6028811 0.07337213 0.022771481 0.39404526 0.42829406 1.9664266 1.5149765 0.18484388
0.61443454 0.9551938 0.34705612 1.9540043 2.620539 0.8132762 0.14245038 0.22084263
2.6335804 1.6593077 1.9793159 1.379612 0.43259782 1.341571 0.09497728 0.431181
0.70844704 1.494363 0.65118384 0.019100048 0.56172407 0.39031222 0.36295828 2.1429882
0.7601698 1.2963389 0.53483516 0.19430448 1.536074 2.0710042 0.5783005 0.5132358
0.40038955 0.14419731 0.12854064 1.0421805 0.6021901 6e-45 0.12801579 1.3881943
0.20209889 2.3758956e-05 0.04187472 0.85008806 0.77762157 0.4255783 0.5689742 1.0435121
0.61828583 1.7110457 0.16365615 0.9718591 0.8990723 0.16751581 1.0146111 2.4579158
2.366702 0.15750232 0.6175963 0.7849687 0.046563443 1.8711108 1.6031232 2.5756226
0.067020275 0.33750996 0.73780227 1.4711139 0.72745425 1.3051784 0.17575507 0.057389904
0.51833004 0.051694527 1.0330906 0.062069274 0.25567585 3.062512 0.77993166 1.739097
0.72328794 0.8693721 0.9976252 0.06454957 0.074009314 0.2705811 1.0131052 1.492229
0.3855949 0.63391936 0.49591333 2.0092738 1.084981 0.4561064 0.14365014 0.041746873
0.45917648 6e-45 1.9403834 0.9651056 0.9898401 0.48232093 0.07770181 0.60937756
0.022027481 2.2683792 0.18890752 0.35905653 1.0858845 0.42684025 0.9868623 0.015201769
0.61877024 1.6932404 0.14834704 0.15274498 0.5623372 0.09253407 0.96052074 0.9896989
0.3065446 2.351406 0.81439656 0.30778012 1.2097803 3.5218415 0.08152333 1.3608861
