checkpoint_actor_final.pth (torch_old, 531348 bytes, 10 tensors)

fc1.weight f4 [400, 24]
-0.0075145466 -0.039568882 -0.018573983 -0.14716935 -0.076263405 -0.13343212 0.04620571 -0.15485883
-0.038436983 -0.12530042 -0.008302769 -0.043589458 -0.03218757 0.030786254 -0.054586615 -0.038591728
-0.042813603 -0.12463231 0.06718854 0.016542755 -0.061587784 0.12659371 0.05726668 -0.0069666035
-0.049967326 -0.0014497882 -0.005113006 -0.014100706 -0.05316086 -0.28809097 0.012392264 -0.060811218
-0.042602368 0.053067457 0.033762604 -0.020537648 -0.07685434 0.09835774 -0.039353438 -0.040141314
-0.027100554 0.05369671 -0.03954569 0.03533493 0.07657662 0.38690117 0.03676651 0.037162907
0.025635239 -0.12370096 0.0075765094 0.001991062 -0.052785438 0.060941644 -0.022841617 0.04342969
0.0753812 -0.09537513 0.02450454 -0.01646915 -0.11008992 0.17280392 -0.008619585 0.008027772
0.046038594 -0.029309973 0.03227809 0.13981724 -0.19530363 0.22968717 -0.015537822 0.06327501
-0.027998297 0.09770661 0.04376424 -0.14341481 -0.00579854 -0.21652842 0.030027337 -0.16979043
0.015857434 0.06934009 0.016958237 -0.048207063 -0.10235423 -0.15917346 -0.035739392 -0.06505517
-0.0055217408 0.14340918 0.051297713 -0.065934606 -0.07095287 -0.20386355 0.0031480636 0.014284624
-0.15251839 -0.023902211 -0.014960036 -0.02111305 0.012438196 0.100210994 -0.013002051 -0.053922433
-0.050018776 -0.055209026 -0.043621704 0.08300856 0.033315193 0.20509413 -0.0073482217 0.110931605
0.004726863 0.024080357 -0.01842148 0.073916435 -0.009108263 0.29905602 0.023427984 0.040423047
-0.033146974 0.030716965 -0.02389886 -0.15464343 0.15140304 -0.23861112 0.008865896 -0.17965697
-0.03547115 0.00017766628 0.0011719264 -0.09807984 0.05348594 -0.0924856 0.05941272 -0.10956716
-0.016517472 0.0072345235 0.032916356 -0.05071852 -0.078692965 0.0559882 0.01324928 -0.083573624
0.0270814 -0.10486378 -0.0605155 0.08475462 -0.12590095 -0.0016198406 -0.018278312 0.025412278
0.018746518 -0.0851101 0.025071025 0.1255309 -0.015469484 -0.10024543 0.01770617 0.11979271
0.087682426 -0.07319948 0.025901178 0.11808094 0.053175837 -0.23626299 0.034907266 0.06596979
0.08321039 0.08637501 0.024105208 -0.15345699 0.15016583 -0.06365947 0.013353771 -0.09310401
0.023610886 -0.011899113 -0.002776356 -0.026362242 0.082203686 0.070078515 -0.012630773 0.020467402
-0.011391643 0.026339915 -0.011651483 -0.10829269 0.121754415 0.047728058 -0.06245823 -0.14117146
-0.007770935 0.05835742 -0.028665628 0.16828285 0.010106147 -0.06178255 0.03093633 0.19218005
0.025256198 0.069327235 -0.041412443 0.11647238 -0.04862948 -0.061951626 -0.034523822 0.09852828
-0.018270899 0.10768755 -0.023104263 0.054070584 -0.031727705 -0.22526842 0.008230771 0.022739679
-0.03749853 -0.18253423 0.005283224 -0.0065510324 0.14531432 -0.059180517 -0.02588767 0.0156028485
0.041865677 -0.18640082 -0.071975864 -0.092847206 0.13172968 -0.02590837 -0.0035289426 -0.05050793
-0.06519142 -0.25839832 0.0199452 -0.06070785 0.1361331 0.075484574 -0.022099074 -0.01363906
0.03135801 0.23284188 0.008237356 -0.09091817 0.18496867 -0.02972962 -0.012330347 -0.0846744
0.0048656077 0.1927939 0.001512813 0.027097795 0.008184488 0.003945169 -0.010362063 0.0037963963
00000000: 963c f6bb fb12 22bd 7728 98bc 90b3 16be
00000010: fd2f 9cbd 6ea2 08be 3342 3d3d 5093 1ebe
00000020: 1970 1dbd c14e 00be 5608 08bc dc8a 32bd
00000030: 1dd7 03bd 7433 fc3c 3796 5fbd 5c12 1ebd
00000040: 515d 2fbd 393f ffbd 259a 893d ac84 873c
00000050: 7943 7cbd c8a1 013e 7790 6a3d 1b48 e4bb
00000060: 8aaa 4cbd d206 beba 018b a7bb a606 67bc
00000070: 34bf 59bd a980 93be ec08 4b3c 2f15 79bd
00000080: d27f 2ebd 435d 593d a84a 0a3d 923e a8bc
00000090: cf65 9dbd c86f c93d 1231 21bd 386b 24bd
000000a0: fb01 debc 15f1 5b3d a9fa 21bd 5cbb 103d
000000b0: 34d4 9c3d e917 c63e 7b98 163d 2238 183d
000000c0: fe00 d23c ee56 fdbd 5e44 f83b 7a7c 023b
000000d0: 8b35 58bd f29d 793d 581e bbbc 55e3 313d
000000e0: 7561 9a3d 0954 c3bd bfbd c83c 50ea 86bc
000000f0: d376 e1bd 83f3 303e 2939 0dbc eb86 033c
00000100: f792 3c3d 781b f0bc 0836 043d 402c 0f3e
00000110: adfd 47be 1d33 6b3e 5992 7ebc 5496 813d
00000120: af5c e5bc 671a c83d 2242 333d 55db 12be
00000130: ae01 bebb a0b9 5dbe e4fb f53c 8bdd 2dbe
00000140: 73e7 813c 2d02 8e3d 00ec 8a3c c574 45bd
00000150: 189f d1bd 5efe 22be 7863 12bd a53b 85bd
00000160: b8ef b4bb dbd9 123e 8d1d 523d b908 87bd
00000170: bd4f 91bd 9bc1 50be be4f 4e3b 0e0a 6a3c
00000180: c82d 1cbe 92ce c3bc f01a 75bc 46f5 acbc
00000190: 93c9 4b3c 6c3b cd3d 8e06 55bc c5dd 5cbd
000001a0: 7de0 4cbd dc22 62bd acac 32bd 6400 aa3d
000001b0: 8375 083d 3204 523e 5ac9 f0bb 1c30 e33d
000001c0: cde3 9a3b 2b44 c53c a5e8 96bc 8061 973d
000001d0: d33a 15bc df1d 993e 0bec bf3c a392 253d
000001e0: 1fc5 07bd 25a2 fb3c 8bc7 c3bc d95a 1ebe
000001f0: 6609 1b3e 7956 74be 4342 113c fff7 37be
00000200: 324a 11bd ee4b 3a39 539b 993a 15de c8bd
00000210: 1314 5b3d 1769 bdbd c15a 733d bf64 e0bd
00000220: a64f 87bc 950f ed3b 4dd3 063d 39be 4fbd
00000230: c729 a1bd e253 653d 8213 593c a628 abbd
00000240: d0d9 dd3c d2c2 d6bd 1adf 77bd d593 ad3d
00000250: 2eec 00be d550 d4ba 66bc 95bc 692d d03c
00000260: 4c92 993c 344e aebd c061 cd3c 2c8b 003e
00000270: b873 7dbc 7a4d cdbd 880c 913c e155 f53d
00000280: d892 b33d 9ce9 95bd b52e d43c 6bd4 f13d
00000290: e8ce 593d edee 71be ecfa 0e3d 2b1b 873d
000002a0: 356a aa3d 62e5 b03d 4978 c53c d423 1dbe
000002b0: 12c5 193e e55f 82bd c6c9 5a3c 51ad bebd
000002c0: 9e6b c13c 7ff4 42bc 86f3 35bb a1f5 d7bc
000002d0: 685a a83d 5385 8f3d 4df1 4ebc 41ab a73c
000002e0: 04a4 3abc cec6 d73c dde5 3ebc 8fc8 ddbd
000002f0: 615a f93d 7f7e 433d 33d4 7fbd 408f 10be
00000300: 54a3 febb 3108 6f3d 2ed4 eabc 5752 2c3e
00000310: 4194 253c b30f 7dbd 306e fd3c d9ca 443e
00000320: 16e6 ce3c 70fb 8d3d 18a0 29bd 1289 ee3d
00000330: b52f 47bd fdc0 7dbd da68 0dbd 32c9 c93d
00000340: daac 95bc 4a8b dc3d 2745 bdbc 1e79 5d3d
00000350: e9f4 01bd c4ac 66be 5bda 063c 9048 ba3c
00000360: 0f98 19bd 41ea 3abe e51e ad3b 0baa d6bb
00000370: 47cd 143e 4567 72bd 6112 d4bc 17a3 7f3c
00000380: 587b 2b3d dbdf 3ebe 1568 93bd ad26 bebd
00000390: 25e4 063e ca3d d4bc d545 67bb 67e1 4ebd
000003a0: 1483 85bd c94c 84be 1e64 a33c cba8 78bd
000003b0: 7a66 0b3e a897 9a3d 1e09 b5bc 5d76 5fbc
000003c0: 4271 003d 1a6e 6e3e faf5 063c 4e33 babd
000003d0: 6d68 3d3e 888b f3bc 3905 4abc c669 adbd
000003e0: ad6f 9f3b c46b 453e 9549 c63a 32fc dd3c
000003f0: 3b18 063c 7a46 813b a4c5 29bc f6cc 783b

fc1.bias f4 [400]
0.11438095 -0.14654717 -0.036701217 -0.105250776 -0.18151803 -0.0667161 -0.05667944 -0.12923737
-0.041220274 -0.25304952 -0.084939905 0.073566176 -0.17327486 0.037045103 -0.100340545 -0.25535676
0.2573183 -0.20948777 -0.13109352 0.0056012617 -0.11983814 0.046369888 -0.061734274 -0.13883345
0.018145323 -0.14942476 -0.16266775 -0.10936242 -0.28407732 -0.07181956 -0.3109825 0.19333449
-0.07776679 0.16430607 -0.30160695 -0.12828904 0.020332107 -0.3133231 -0.16761015 -0.2695889
0.018660037 -0.28892973 0.10194865 0.11702107 -0.10442817 -0.0557632 0.06061383 0.08521177
0.048508897 0.029574223 0.11949865 0.12509865 -0.10546749 -0.24816585 -0.09415382 0.042693477
-0.20507307 -0.16333573 -0.04856705 -0.16198978 -0.108072005 -0.27921888 -0.18020092 -0.017929342
-0.07552093 -0.021971392 -0.029612763 0.048419908 -0.19518396 -0.04920512 -0.005434931 0.11646489
-0.13844211 0.013908109 -0.11125496 -0.111839116 -0.27210268 -0.03468744 0.046083312 0.25849673
0.10351345 -0.17779481 -0.08398527 0.13720089 -0.15933889 -0.004555198 -0.08200596 -0.2293105
-0.25297216 -0.039385896 -0.30650464 -0.06735179 0.04532483 -0.019523125 -0.1343961 -0.025292851
-0.10596004 0.12109743 0.015003195 -0.24133484 0.07063913 -0.02794003 0.14407523 -0.18559898
0.0073879394 -0.19680281 -0.052154835 0.21730049 -0.33425185 0.033426587 -0.14421935 -0.30612585
-0.30639666 -0.093579896 -0.22481972 -0.31592152 -0.12814699 -0.15748087 -0.22196557 -0.18701796
0.040921208 -0.1767772 -0.30051675 -0.17431054 -0.13681887 -0.07732415 0.042072214 -0.06087667
-0.133761 -0.13615921 0.081549294 0.08171236 -0.3730121 -0.0061393455 -0.016863799 -0.2504703
-0.00911825 -0.026699958 -0.29293084 -0.27674723 -0.0031093415 -0.27707744 -0.1906871 -0.028806338
-0.12044919 0.07862888 -0.27905107 -0.11576836 -0.13498855 -0.06153876 0.017252553 0.11420442
-0.25434878 -0.16082318 -0.29693276 -0.16636825 0.18207356 0.097159974 -0.009377915 -0.12490878
-0.19601832 -0.1433324 -0.13145563 -0.118898995 -0.15424642 -0.06746788 -0.32686785 -0.2908011
-0.036906008 -0.055377718 -0.17514458 0.015971502 0.073781244 -0.13114291 -0.2107716 -0.13375998
-0.16696745 0.0063677696 -0.21302514 -0.08191069 -0.014388309 -0.13000472 -0.13127336 -0.07781303
0.068156436 -0.00336624 -0.18889557 -0.2227778 -0.31963983 -0.16400759 0.13322876 -0.12165225
-0.080652416 -0.13238862 -0.21147867 0.032071855 -0.19022724 -0.25728047 -0.119091906 -0.13502865
-0.1598841 -0.11233757 0.06647887 -0.02136373 -0.017803505 -0.180657 0.026933243 -0.08605787
0.10885059 0.08690992 -0.013733757 -0.31818467 0.06856669 -0.10863629 -0.19782692 -0.10294071
-0.017554771 -0.12551668 -0.33625463 0.099664375 -0.22812262 0.0021306393 -0.06192381 -0.20654413
-0.025898831 -0.11810374 -0.03944191 -0.06325791 0.08498566 -0.26155245 -0.3200548 -0.3319137
-0.19279183 0.08255081 0.021365648 -0.065670155 -0.029349446 -0.4568328 0.0890243 0.008048004
0.09056728 -0.029569633 -0.15537211 -0.023455175 0.14901873 0.023106197 0.0705964 0.10119372
-0.13984652 -0.32764825 -0.13357149 -0.30428404 -0.38473293 0.17738463 -0.026656577 -0.13672028
00000000: 8f40 ea3d 7610 16be 0454 16bd b88d d7bd
00000010: dddf 39be 73a2 88bd b328 68bd cd56 04be
00000020: 97d6 28bd b58f 81be f9f4 adbd dda9 963d
00000030: f76e 31be 9bbc 173d 587f cdbd 1fbe 82be
00000040: 39bf 833e f683 56be 613d 06be ca8a b73b
00000050: b36d f5bd 5aee 3d3d 14dd 7cbd 5b2a 0ebe
00000060: 80a5 943c ce02 19be 6092 26be 68f9 dfbd
00000070: 9572 91be 2216 93bd 1939 9fbe 7af9 453e
00000080: 3244 9fbd da3f 283e 3a6c 9abe 345e 03be
00000090: 858f a63c e36b a0be ffa1 2bbe 8e07 8abe
000000a0: efdc 983c 99ee 93be 74ca d03d bea8 ef3d
000000b0: 70de d5bd f467 64bd 3546 783d 8283 ae3d
000000c0: 44b1 463d a445 f23c b5bb f43d dc19 003e
000000d0: 57ff d7bd 301f 7ebe b8d3 c0bd 5bdf 2e3d
000000e0: adfe 51be 7b41 27be 3eee 46bd a6e0 25be
000000f0: db54 ddbd c7f5 8ebe 9786 38be 8ee0 92bc
00000100: b8aa 9abd 59fd b3bc 7796 f2bc f453 463d
00000110: 4ede 47be 4f8b 49bd 8117 b2bb 2585 ee3d
00000120: c5c3 0dbe d6de 633c a4d9 e3bd e80b e5bd
00000130: 0b51 8bbe 6b14 0ebd dbc1 3c3d af59 843e
00000140: dcfe d33d d80f 36be 7800 acbd 647e 0c3e
00000150: bc29 23be c543 95bb bef2 a7bd 5fd0 6abe
00000160: 9185 81be 1b53 21bd 2dee 9cbe bcef 89bd
00000170: 87a6 393d f6ee 9fbc 229f 09be f432 cfbc
00000180: 9401 d9bd ee01 f83d f6cf 753c 7b20 77be
00000190: 40ab 903d 7de2 e4bc 7588 133e a90d 3ebe
000001a0: 8716 f23b ad86 49be 4fa0 55bd 0584 5e3e
000001b0: 0f23 abbe 51ea 083d 3dae 13be 87bc 9cbe
000001c0: 06e0 9cbe d1a6 bfbd 2437 66be 77c0 a1be
000001d0: f738 03be aa42 21be f14a 63be a381 3fbe
000001e0: ff9c 273d 1505 35be 55dd 99be 767e 32be
000001f0: 3f1a 0cbe 205c 9ebd ea53 2c3d d159 79bd
00000200: a5f8 08be 526d 0bbe 5103 a73d cf58 a73d
00000210: 71fb bebe 902c c9bb f325 8abc a53d 80be
00000220: b664 15bc dfb9 dabc 08fb 95be d0b1 8dbe
00000230: 18c6 4bbb 18dd 8dbe 7b43 43be 45fb ebbc
00000240: 11ae f6bd 2e08 a13d c8df 8ebe f617 edbd
00000250: 703a 0abe 1110 7cbd 3a55 8d3c 02e4 e93d
00000260: 013a 82be d5ae 24be 9207 98be 705c 2abe
00000270: 7e71 3a3e cffb c63d d4a5 19bc 2dd0 ffbd
00000280: 07b9 48be bbc5 12be 4e9c 06be 5181 f3bd
00000290: c6f2 1dbe 9a2c 8abd 395b a7be e2e3 94be
000002a0: c12a 17bd bfd3 62bd 1a59 33be abd6 823c
000002b0: 9f1a 973d 544a 06be 83d4 57be 60f8 08be
000002c0: 84f9 2abe b9a8 d03b 4323 5abe cbc0 a7bd
000002d0: f1bc 6bbc f51f 05be 866c 06be 705c 9fbd
000002e0: 9a95 8b3d 239c 5cbb d76d 41be dd1f 64be
000002f0: d5a7 a3be 9bf1 27be 1f6d 083e d124 f9bd
00000300: 182d a5bd e290 07be dd8d 58be c75d 033d
00000310: eeca 42be 44ba 83be 75e6 f3bd f344 0abe
00000320: a8b8 23be 3d11 e6bd 1326 883d fd02 afbc
00000330: a8d8 91bc 26fe 38be 1ba3 dc3c 1c3f b0bd
00000340: 0fed de3d d4fd b13d 8d03 61bc 1ae9 a2be
00000350: b16c 8c3d b47c debd 2493 4abe 94d2 d2bd
00000360: 06cf 8fbc 7287 00be 9129 acbe d61c cc3d
00000370: fa98 69be 32a2 0b3b d2a3 7dbd 4e80 53be
00000380: c929 d4bc 60e0 f1bd d78d 21bd 5d8d 81bd
00000390: f60c ae3d 34ea 85be 39de a3be 98f0 a9be
000003a0: 396b 45be 6610 a93d 0307 af3c 137e 86bd
000003b0: 406e f0bc fde5 e9be 5f52 b63d c6db 033c
000003c0: 577b b93d 043c f2bc de19 1fbe 1125 c0bc
000003d0: 5e98 183e 3549 bd3c d894 903d a73e cf3d
000003e0: ed33 0fbe 83c1 a7be f7c6 08be 1ecb 9bbe
000003f0: b7fb c4be 51a4 353e e55e dabc 6700 0cbe

fc2.weight f4 [300, 400]
-0.017962188 -0.046985295 -0.051650915 0.07052203 -0.04869126 -0.011970233 -0.12018951 -0.04834343
-0.0139700165 -0.080835015 -0.0015716747 -0.024043864 -0.14693488 -0.06936545 0.013715303 0.025598908
-0.05621023 -0.0024406197 0.051245164 0.10798669 -0.20376523 0.067650475 0.039368875 -0.3048436
0.011245076 0.052980814 -0.038864087 0.0064434595 -0.04387116 -0.060864575 -0.05489632 -0.0072438056
-0.104528196 -0.16063248 -0.06801177 -0.041772503 0.222722 0.038244896 -0.22218639 0.07534755
-0.111357085 -0.21928063 0.009232138 -0.00033553102 -0.12797214 0.008457892 -0.10026648 0.106796615
0.016263274 0.022492299 -0.07400311 -0.034701623 -0.0052487045 -0.04980495 -0.048331145 0.01990988
0.032244626 -0.021689964 -0.039692488 -0.10226946 -0.019528728 0.10849767 -0.11206682 0.115251176
-0.014052819 0.017459465 0.040925328 -0.08106905 -0.15456243 -0.12837738 -0.021455565 -0.051377077
-0.0063468013 0.0964979 0.08078657 0.03208656 0.12800235 -0.06627996 0.0765284 0.026985968
0.053042393 -0.023889499 -0.11622441 -0.023910223 0.04920569 -0.045421556 0.04268145 0.0566281
0.11770127 0.007689786 -0.17873995 -0.06908822 0.086832635 0.030908143 0.061798304 -0.01286747
-0.12506902 -0.038062967 -0.051054064 -0.13716732 0.00034659955 -0.03290296 0.010136771 0.055498883
-0.057066318 -0.11347532 0.060498834 -0.027032102 -0.039234847 -0.0134127885 0.16802172 0.05020708
0.002839494 0.056425624 0.089253396 -0.10113732 -0.03965913 -0.090563774 -0.042098816 0.018536752
0.04838636 -0.041576732 0.028871521 0.09275042 0.042446688 -0.060630843 0.06326413 0.022973184
-0.16389292 -0.035866152 0.12393455 0.01076392 0.083094865 -0.09076265 0.114087634 -0.08051853
0.025678769 -0.08128855 -0.059017196 0.115489304 -0.09614743 -0.14219226 -0.10125585 0.08761657
-0.10627164 -0.050755102 0.048744738 0.044083457 -0.14135155 -0.16141814 -0.04215719 0.059503775
-0.2723871 -0.043974105 -0.0688305 0.13887833 -0.13319194 0.020744279 0.022809235 -0.031737972
0.012225779 -0.05082662 -0.013543433 -0.061958347 -0.036895797 -0.05770105 -0.040091913 0.032725953
-0.068161085 -0.0519326 0.123665355 -0.043491226 0.0031717916 -0.13297825 -0.021519024 -0.17674139
-0.17307761 -0.0073686577 -0.021482434 -0.08702575 -0.052694093 0.043834683 -0.043405876 0.0008705453
-0.05144256 0.03658786 -0.029110475 -0.06156771 -0.0035735776 0.011718988 0.05616236 0.0052864854
-0.043536507 0.0037261152 0.07129077 0.0022396483 0.090120554 0.001903664 0.011447917 0.058243413
-0.13939822 0.0941805 -0.03655742 0.019180542 -0.08240048 0.016368192 -0.07600995 -0.06360567
-0.08836727 -0.08043094 -0.062774725 0.18972717 -0.062220026 -0.15992914 0.041918408 0.0148013905
-0.009265568 0.037309602 0.009091084 0.019605823 -0.040329944 -0.04530714 -0.027746152 -0.03399014
0.010190905 -0.08284375 0.031809084 -0.090843946 0.029007982 -0.13004406 -0.09852941 0.004921776
0.0074378583 0.09978335 -0.0041116304 -0.081137605 -0.021574803 0.13234869 -0.023319727 0.050073445
-0.042050637 -0.077485904 0.04872057 0.07748529 0.05829619 0.12268662 -0.03710505 -0.024629798
0.056105834 -0.029701656 -0.015411942 -0.062044162 0.06881817 0.07203757 -0.05800338 -0.019844303
00000000: 7025 93bc a773 40bd e98f 53bd db6d 903d
00000010: 7d70 47bd cc1e 44bc eb25 f6bd c303 46bd
00000020: 7fe2 64bc d48c a5bd a700 ceba a3f7 c4bc
00000030: 1976 16be 790f 8ebd 26b6 603c cdb4 d13c
00000040: b33c 66bd cef2 1fbb 73e6 513d 2028 dd3d
00000050: d5a7 50be 558c 8a3d 4241 213d 7614 9cbe
00000060: 443d 383c 6902 593d f32f 1fbd a823 d33b
00000070: 3fb2 33bd 224d 79bd f7da 60bd 725d edbb
00000080: e112 d6bd d77c 24be c149 8bbd a519 2bbd
00000090: 3c11 643e aea6 1c3d d484 63be d14f 9a3d
000000a0: 2f0f e4bd 1a8b 60be 6542 173c 36ea afb9
000000b0: 210b 03be f892 0a3c 8358 cdbd 2fb8 da3d
000000c0: 8f3a 853c c541 b83c f18e 97bd 4a23 0ebd
000000d0: 53fd abbb 4600 4cbd e1f6 45bd 0b1a a33c
000000e0: f112 043d 27af b1bc 9794 22bd a772 d1bd
000000f0: b6fa 9fbc 0734 de3d 4a83 e5bd cf08 ec3d
00000100: cc3d 66bc 2707 8f3c 51a1 273d 8807 a6bd
00000110: 9d45 1ebe 5c75 03be 95c3 afbc c570 52bd
00000120: d4f8 cfbb b1a0 c53d 6e73 a53d 326d 033d
00000130: 0c13 033e cabd 87bd ecba 9c3d ad11 dd3c
00000140: fb42 593d e9b3 c3bc 1007 eebd 5fdf c3bc
00000150: e88b 493d f40b 3abd bed2 2e3d def2 673d
00000160: 5d0d f13d 9afa fb3b 9b07 37be 207e 8dbd
00000170: 4fd5 b13d 1333 fd3c 3820 7d3d 15d2 52bc
00000180: 1812 00be eae7 1bbd 111e 51bd 9775 0cbe
00000190: ceb7 b539 41c5 06bd b314 263c cc52 633d
000001a0: 5fbe 69bd c065 e8bd a0cd 773d 6d72 ddbc
000001b0: b8b4 20bd 50c1 5bbc e30d 2c3e f0a5 4d3d
000001c0: ce16 3a3b 8e1e 673d 7cca b63d 1521 cfbd
000001d0: 9d71 22bd 8079 b9bd cf6f 2cbd 63da 973c
000001e0: c730 463d 5d4c 2abd f883 ec3c eff3 bd3d
000001f0: 94dc 2d3d 0c58 78bd a090 813d 4232 bc3c
00000200: 8cd3 27be 63e8 12bd 66d1 fd3d 275b 303c
00000210: a42d aa3d c5e1 b9bd c7a6 e93d e6e6 a4bd
00000220: 485c d23c 9c7a a6bd 04bc 71bd a885 ec3d
00000230: f2e8 c4bd d99a 11be 3a5f cfbd 5170 b33d
00000240: f2a4 d9bd 95e4 4fbd 90a8 473d db90 343d
00000250: 76be 10be cc4a 25be 05ad 2cbd 3bba 733d
00000260: 5276 8bbe 311e 34bd 01f7 8cbd 1f36 0e3e
00000270: 7863 08be e8ef a93c 6fda ba3c adff 01bd
00000280: a24e 483c 932f 50bd 46e5 5dbc 09c8 7dbd
00000290: 0c20 17bd f057 6cbd 6b37 24bd a60b 063d
000002a0: 0a98 8bbd 47b7 54bd 4344 fd3d db23 32bd
000002b0: d5dd 4f3b 732b 08be aa48 b0bc b2fb 34be
000002c0: 423b 31be c874 f1bb eefb afbc 8e3a b2bd
000002d0: c3d5 57bd ff8b 333d 5cca 31bd 4e35 643a
000002e0: 6fb5 52bd 27dd 153d 1779 eebc 6c2e 7cbd
000002f0: af32 6abb 0001 403c 810a 663d 413a ad3b
00000300: 5653 32bd d731 743b e500 923d 10c7 123b
00000310: 2091 b83d 5d84 f93a 0b90 3b3c a590 6e3d
00000320: 68be 0ebe b5e1 c03d 3cbd 15bd 8320 9d3c
00000330: 95c1 a8bd 9616 863c 1bab 9bbd b143 82bd
00000340: e6f9 b4bd fab8 a4bd 0990 80bd d747 423e
00000350: 6dda 7ebd 77c4 23be a3b2 2b3d 8881 723c
00000360: 9cce 17bc f4d1 183d c5f2 143c 649c a03c
00000370: 0331 25bd fb93 39bd e64b e3bc 3f39 0bbd
00000380: c1f7 263c fca9 a9bd 3e4a 023d 640c babd
00000390: 26a2 ed3c 452a 05be cac9 c9bd d946 a13b
000003a0: 47b9 f33b 375b cc3d dbba 86bb 792b a6bd
000003b0: a4bd b0bc 6a86 073e 0309 bfbc d019 4d3d
000003c0: 4a3d 2cbd eeb0 9ebd 388f 473d 9cb0 9e3d
000003d0: fcc7 6e3d 1f43 fb3d 77fb 17bd 6ec4 c9bc
000003e0: 3bcf 653d e350 f3bc 5f82 7cbc 0522 7ebd
000003f0: 8af0 8c3d 6f88 933d f494 6dbd 8590 a2bc

fc2.bias f4 [300]
-0.011351902 0.034570664 -0.057334848 0.0037647001 -0.03385181 -0.031527337 -0.046783444 0.0049155285
-0.09354198 0.024179945 0.01337971 -0.02165506 0.04436122 -0.03002449 0.018101448 0.02674466
0.023011753 -0.07563775 0.033199824 0.044093568 0.05731133 -0.08105969 -0.04811529 -0.033563
-0.01635987 0.0730188 -0.040271353 -0.07729783 -0.018967059 0.010128944 0.040497866 -0.046867978
0.018195426 -0.0030130732 -0.05348728 -0.015317796 0.0386417 -0.12979595 0.02914263 -0.02598574
0.01804675 -0.029457878 0.026671343 -0.031713802 -0.04293187 0.023917826 0.009189441 -0.021672975
-0.035471026 -0.08422552 0.0058875894 -0.054560505 -0.09240287 -0.0053246785 0.032511026 -0.023529608
0.050629254 0.07790671 -0.11869577 -0.0026799692 0.03585086 0.036053162 0.00734772 0.022820827
0.027802415 -0.052948285 0.0073790634 -0.063513815 0.006852951 -0.054902207 -0.00881369 -0.012543382
0.030089349 -0.033816367 0.022380933 -0.13403726 -0.09424093 -0.12599702 -0.0430815 0.020166826
-0.048820022 0.038240403 -0.005286293 -0.22611928 0.060539715 -0.031120146 0.033390705 -0.028960232
-0.14886484 -0.002034309 0.002852524 0.0006873455 -0.051619 -0.09990718 0.017383883 -0.002475149
-0.06396737 -0.012700783 0.015908765 0.06311999 -0.16437843 0.018014537 -0.0031093296 -0.15322158
0.089903325 -0.035559144 -0.048085466 -0.027925666 0.053323023 0.020463305 -0.023826832 0.03223843
-0.017229928 0.03786077 -0.0684055 0.02259453 0.14899427 -0.077232346 -0.10136203 -0.118983045
-0.007838214 0.05408565 -0.013000878 0.019770367 0.041337475 -0.010557374 -0.003444457 -0.064024
-0.075891584 -0.08578292 0.03129505 -0.11073464 0.004731017 -0.05601843 -0.05322607 -0.07614181
-0.026208593 0.0114167435 -0.049992878 0.05823199 -0.0032217961 -0.058851782 0.030039534 -0.053913433
0.008345972 -0.07646729 -0.014590776 -0.106301114 0.02041206 -0.069888815 0.06590131 0.11283439
-0.04214586 -0.040693596 -0.0012246699 -0.032640822 -0.06098976 -0.018424416 -0.07470672 0.008839918
-0.006068094 -0.023494214 -0.12307676 -0.0438709 -0.16268712 0.037219282 0.033571802 -0.079644285
-0.052479863 -0.016559646 0.010178777 0.024370238 -0.025342925 -0.052949823 -0.017023083 -0.00078103394
-0.0026304596 -0.077484034 -0.072709 -0.0077811913 0.012735157 0.08093771 -0.087079816 0.011224676
-0.10560769 0.03991536 -0.04286576 -0.11794626 -0.021276569 -0.14126608 0.031160107 0.025130413
0.039277557 0.05042983 -0.04503653 0.14006105 -0.0062215677 0.025742857 -0.012445708 -0.0065888395
-0.1106594 -0.08195002 -0.016838448 0.053582154 -0.05547181 -0.010439962 0.023796346 0.0025502208
-0.009896256 -0.055370465 -0.13852139 0.03981221 0.029944416 -0.028834635 -0.11487928 -0.04233238
-0.07835637 0.022745077 -0.036207322 -0.07449386 0.075473174 -0.08995316 -0.036126483 -0.123480484
-0.032787666 -0.02228766 -0.06399614 0.0043791207 -0.06595039 0.045293197 -0.051190086 -0.09997809
-0.10070064 -0.005634261 0.00803176 0.0529956 0.05751892 -0.064994246 0.038497683 0.056353882
-0.05832072 -0.13174838 -0.037439443 -0.097709075 0.03943877 0.020976955 -0.0744452 0.063766114
0.00840762 -0.024509868 0.02550817 0.04576694 -0.053330846 -0.120403394 -0.06111387 0.029707558
00000000: 54fd 39bc f899 0d3d f2d7 6abd 30b9 763b
00000010: 32a8 0abd cf22 01bd ff9f 3fbd 7112 a13b
00000020: f092 bfbd 0515 c63c 9236 5b3c f465 b1bc
00000030: 1cb4 353d ebf5 f5bc 7d49 943c 9e17 db3c
00000040: 2583 bc3c f7e7 9abd 8afc 073d 759b 343d
00000050: 49bf 6a3d 9f02 a6bd 8a14 45bd 5b79 09bd
00000060: 2205 86bc e18a 953d 93f3 24bd 534e 9ebd
00000070: ce60 9bbc dff3 253c 17e1 253d a3f8 3fbd
00000080: 930e 953c fb76 45bb 7a15 5bbd 7ef7 7abc
00000090: c246 1e3d 3be9 04be 86bc ee3c 0ce0 d4bc
000000a0: c7d6 933c a651 f1bc dc7d da3c 55e6 01bd
000000b0: 54d9 2fbd 51ef c33c 4f8f 163c 868b b1bc
000000c0: 114a 11bd 6e7e acbd aeec c03b d67a 5fbd
000000d0: b73d bdbd a47a aebb 482a 053d 2ac1 c0bc
000000e0: 9f60 4f3d 8e8d 9f3d c516 f3bd 6ca2 2fbb
000000f0: 5ad8 123d 7bac 133d 25c5 f03b bef2 ba3c
00000100: e4c1 e33c 4de0 58bd 12cc f13b 8813 82bd
00000110: b88e e03b 23e1 60bd 4c67 10bc c282 4dbc
00000120: f07d f63c 0883 0abd 3858 b73c 1041 09be
00000130: 6401 c1bd 5d05 01be 3a76 30bd e634 a53c
00000140: 81f7 47bd f8a1 1c3d a438 adbb d08b 67be
00000150: 7ef8 773d adef febc b1c4 083d 023e edbc
00000160: 0670 18be 0b52 05bb 69f1 3a3b fa2e 343a
00000170: 726e 53bd 239c ccbd a568 8e3c 1c36 22bb
00000180: 5301 83bd f216 50bc 1953 823c 0e45 813d
00000190: d252 28be 3993 933c e5c5 4bbb 1ee6 1cbe
000001a0: 3c1f b83d 77a6 11bd 44f5 44bd 5ec4 e4bc
000001b0: 3e69 5a3d a9a2 a73c 7d30 c3bc 720c 043d
000001c0: c725 8dbc e513 1b3d 2f18 8cbd 2a18 b93c
000001d0: f491 183e fe2b 9ebd e596 cfbd 62ad f3bd
000001e0: da6b 00bc ea88 5d3d a201 55bc 77f5 a13c
000001f0: 7c51 293d d6f8 2cbc 66bc 61bb 041f 83bd
00000200: 0c6d 9bbd f5ae afbd 3d2f 003d d8c8 e2bd
00000210: a606 9b3b 9573 65bd 9403 5abd 3df0 9bbd
00000220: 67b3 d6bc 4b0d 3b3c 55c5 4cbd ab84 6e3d
00000230: c524 53bb 910e 71bd 7815 f63c 55d4 5cbd
00000240: 8bbd 083c e29a 9cbd 260e 6fbc 66b4 d9bd
00000250: 3137 a73c de21 8fbd 44f7 863d b715 e73d
00000260: 23a1 2cbd 54ae 26bd 1a85 a0ba 62b2 05bd
00000270: 66d0 79bd cdee 96bc d6ff 98bd 4ed5 103c
00000280: ddd6 c6bb f076 c0bc ab0f fcbd f9b1 33bd
00000290: 7497 26be 3f73 183d 9682 093d 8b1c a3bd
000002a0: 20f5 56bd 18a8 87bc e3c4 263c 18a4 c73c
000002b0: f79b cfbc eae1 58bd fe73 8bbc 4dbe 4cba
000002c0: ca63 2cbb f3af 9ebd 75e8 94bd 5df9 febb
000002d0: 1fa7 503c acc2 a53d e756 b2bd b4e7 373c
000002e0: d848 d8bd 4a7e 233d 0294 2fbd cf8d f1bd
000002f0: 334c aebc 0ea8 10be 7b43 ff3c 4cde cd3c
00000300: 81e1 203d 828f 4e3d 3978 38bd 2a6c 0f3e
00000310: 4bde cbbb afe2 d23c 15e9 4bbc 31e7 d7bb
00000320: 65a1 e2bd 69d5 a7bd c9f0 89bc f678 5b3d
00000330: 6936 63bd 600c 2bbc 8ef0 c23c 9b21 273b
00000340: e823 22bc 24cc 62bd 8dd8 0dbe 2112 233d
00000350: fe4d f53c 9d36 ecbc d445 ebbd b864 2dbd
00000360: 4e79 a0bd e253 ba3c 214e 14bd 3d90 98bd
00000370: ae91 9a3d 5d39 b8bd 5df9 13bd 56e3 fcbd
00000380: 5c4c 06bd 9c94 b6bc 6910 83bd ba7e 8f3b
00000390: 0011 87bd 5c85 393d b2ac 51bd 50c1 ccbd
000003a0: 233c cebd 9b9f b8bb a597 033c ea11 593d
000003b0: f698 6b3d b41b 85bd bfaf 1d3d 54d3 663d
000003c0: b5e1 6ebd 0ce9 06be 1a5a 19bd b21b c8bd
000003d0: 8c8a 213d ddd7 ab3c ba76 98bd cf97 823d
000003e0: 1dc0 093c ebc8 c8bc 82f6 d03c 1d76 3b3d
000003f0: 7271 5abd 0e96 f6bd 8a52 7abd 445d f33c

fc3.weight f4 [2, 300]
0.10890458 -0.007492607 0.042061374 0.111002035 0.10721038 -0.05833204 -0.23695806 0.21043067
0.09101948 0.092637986 0.005148904 -0.09718226 -0.14880346 -0.02238375 -0.020801768 -0.16936386
0.23017651 -0.17546806 -0.077063985 -0.078408845 0.015564643 0.1734612 0.036501862 0.08252449
-0.1910372 0.15184972 -0.16106474 0.08630461 0.121377386 0.11283643 0.034823045 -0.2889589
0.21198778 0.096695885 -0.07256621 0.13029361 -0.14318453 -0.004774824 0.14396924 0.07091403
0.010301379 -0.14753254 -0.11751888 -0.17062348 0.13639946 -0.05155803 -0.11253714 0.025505958
-0.18657786 -0.040030926 0.020444976 -0.19488321 -0.07698707 -0.13079529 -0.17406087 0.09542567
-0.06621044 -0.06538154 -0.03651077 -0.11493744 0.03153929 -0.14652672 -0.021553209 0.21090983
0.065399356 0.06454561 -0.19494247 0.041871846 -0.1493395 0.00406009 -0.066941895 0.050987367
0.0049933637 -0.12017327 0.009707801 0.05418073 -0.20914057 0.14499477 -0.028785272 -0.1164564
0.009035571 -0.070706196 -0.13885182 -0.059823494 -0.09897695 0.080425344 -0.101340175 0.02301137
0.15281157 0.037152074 0.3254492 -0.07642303 -0.26548612 -0.09426255 -0.041102774 -0.09558072
-0.21876583 -0.1902786 0.067131884 -0.140474 -0.25446877 -0.16859509 -0.15321374 0.074239686
-0.01833277 -0.0584983 -0.14066966 0.08279664 -0.14549859 -0.1370776 0.0013546109 0.15750816
-0.15324815 0.17537732 0.06757275 0.18604246 0.054704964 0.12763377 0.14702104 0.3910315
0.18888435 -0.12800953 -0.022556143 0.16824043 -0.14147232 -0.024393268 -0.1411056 -0.1703768
-0.04750645 -0.0696662 -0.065784596 0.025345724 0.096597575 0.11966881 0.16486488 -0.03567051
0.048120193 -0.055454656 0.11166255 0.27379024 -0.15404372 -0.18423577 0.12000895 -0.17031054
0.03304144 0.09813588 0.15020208 0.05791118 0.14780174 0.11520255 0.021781677 -0.14400968
0.042825256 -0.030729413 0.17909962 0.017143233 -0.040953066 0.12231543 0.056314725 -0.13856824
0.16243456 -0.16572206 0.08286389 -0.2208836 0.10195488 0.117659345 -0.25033176 0.075355306
0.06468976 0.016083935 -0.077295534 0.06320739 -0.11376818 0.16670299 0.033990838 -0.07048256
-0.2598184 0.10921243 -0.18804932 0.35784572 0.014420785 -0.07364861 0.008384331 -0.13412973
-0.053756706 0.14549042 -0.28503355 0.12983704 0.17062815 -0.009111244 0.048754137 0.08605093
0.16195543 0.07978253 -0.030786972 -0.05945832 -0.0043298807 -0.061812695 -0.032501277 -0.031683933
0.27886432 -0.024370303 -0.23274519 -0.14958015 0.2489134 0.18648256 -0.18897338 -0.12311306
-0.15731344 -0.18185133 0.30319846 0.07286736 -0.1752097 -0.12156314 -0.17038916 -0.034036048
0.009511279 -0.009897809 -0.112788714 -0.025037427 -0.019499462 -0.011340068 0.13452274 0.12938088
-0.20042676 0.13975082 -0.27661803 -0.003607541 0.16347975 -0.013409928 -0.2066768 0.21589877
0.19036879 0.19204268 0.20359473 0.08641878 -0.18852831 -0.22712356 -0.16170661 -0.010436933
0.022969088 -0.1791156 -0.0022965188 -0.09271855 -0.14272425 -0.2048467 -0.28751206 -0.19022153
-0.15521897 0.100069776 0.1374626 -0.037563324 0.18762578 -0.0060669975 -0.26864904 0.13675189
00000000: 5d09 df3d 8b84 f5bb 8c48 2c3d 0955 e33d
00000010: 1e91 db3d 94ed 6ebd 22a5 72be 237b 573e
00000020: 6c68 ba3d fcb8 bd3d 23b8 a83b 7e07 c7bd
00000030: ef5f 18be 205e b7bc 7868 aabc b86d 2dbe
00000040: 64b3 6b3e e6ad 33be b9d3 9dbd d194 a0bd
00000050: d802 7f3c d09f 313e fa82 153d 9a02 a93d
00000060: 419f 43be 7e7e 1b3e 28ee 24be 79c0 b03d
00000070: b594 f83d c916 e73d 9ca2 0e3d 6cf2 93be
00000080: 5313 593e 7e08 c63d 989d 94bd b06b 053e
00000090: f79e 12be 2076 9cbb ac6c 133e 603b 913d
000000a0: 1dc7 283c c512 17be bdad f0bd ecb7 2ebe
000000b0: 4dac 0b3e 832e 53bd df79 e6bd dff1 d03c
000000c0: 440e 3fbe 78f7 23bd 397c a73c 778f 47be
000000d0: 66ab 9dbd 33ef 05be 033d 32be 896e c33d
000000e0: 5799 87bd c2e6 85bd 518c 15bd 5264 ebbd
000000f0: 582f 013d 1a0b 16be 5b90 b0bc bff8 573e
00000100: 19f0 853d 7d30 843d 009f 47be d081 2b3d
00000110: 74ec 18be 810a 853b d518 89bd 21d8 503d
00000120: 5f9f a33b 671d f6bd 780d 1f3c 9dec 5d3d
00000130: f228 56be 8279 143e 17cf ebbc b180 eebd
00000140: ee09 143c 69ce 90bd 2c2f 0ebe 7b09 75bd
00000150: 6db4 cabd 0bb6 a43d 708b cfbd 5782 bc3c
00000160: a37a 1c3e c62c 183d 47a1 a63e ad83 9cbd
00000170: cced 87be b90c c1bd 625b 28bd d3bf c3bd
00000180: 2604 60be 65d8 42be 717c 893d 6bd8 0fbe
00000190: bb49 82be 31a4 2cbe 10e4 1cbe fa0a 983d
000001a0: 9b2e 96bc ea9b 6fbd b50b 10be 4991 a93d
000001b0: 95fd 14be 125e 0cbe 338d b13a d249 213e
000001c0: 15ed 1cbe 1d96 333e 9563 8a3d ea81 3e3e
000001d0: 5012 603d 6db2 023e af8c 163e 4835 c83e
000001e0: e66a 413e ee14 03be a9c7 b8bc 3847 2c3e
000001f0: 1fde 10be 64d4 c7bc fd7d 10be 4177 2ebe
00000200: 2096 42bd 27ad 8ebd 13ba 86bd d6a1 cf3c
00000210: f3d4 c53d ec14 f53d 57d2 283e 3e1b 12bd
00000220: ae19 453d 6c24 63bd 56af e43d 3c2e 8c3e
00000230: a3bd 1dbe 4da8 3cbe 41c7 f53d e365 2ebe
00000240: 7656 073d 77fb c83d 93ce 193e 4634 6d3d
00000250: 5759 173e 51ef eb3d 7d6f b23c 4677 13be
00000260: 8969 2f3d 40bc fbbc e465 373e f76f 8c3c
00000270: 67be 27bd 8380 fa3d 45aa 663d d5e4 0dbe
00000280: 3f55 263e 0bb3 29be 8bb4 a93d 4f2f 62be
00000290: b8cd d03d 62f7 f03d 7c2b 80be e253 9a3d
000002a0: 117c 843d 75c2 833c 1f4d 9ebd e072 813d
000002b0: 4bff e8bd 30b4 2a3e fa39 0b3d 2959 90bd
000002c0: eb06 85be c4aa df3d 0090 40be 8e37 b73e
000002d0: 2845 6c3c 15d5 96bd 6f5e 093c 4e59 09be
000002e0: fe2f 5cbd 71fb 143e ebef 91be 00f4 043e
000002f0: 25b9 2e3e 5447 15bc 6bb2 473d 783b b03d
00000300: a5d7 253e 0665 a33d f634 fcbc 918a 73bd
00000310: ace1 8dbb 4f2f 7dbd 0f20 05bd 03c7 01bd
00000320: 4ec7 8e3e 3ba4 c7bc c154 6ebe 8a2b 19be
00000330: 28e3 7e3e 49f5 3e3e 3d82 41be b322 fcbd
00000340: c616 21be 3c37 3abe d43c 9b3e 7c3b 953d
00000350: 2c6a 33be 18f6 f8bd 7f7a 2ebe 6269 0bbd
00000360: 32d5 1b3c 6b2a 22bc c5fd e6bd 4a1b cdbc
00000370: 56bd 9fbc b1cb 39bc 54c0 093e 6c7c 043e
00000380: ac3c 4dbe d71a 0f3e e1a0 8dbe 7f6c 6cbb
00000390: 3c67 273e 51b5 5bbc 15a3 53be 9114 5d3e
000003a0: 09f0 423e d6a6 443e 237b 503e 54fc b03d
000003b0: 910d 41be 1493 68be 6b96 25be abff 2abc
000003c0: ab29 bc3c 146a 37be 3181 16bb 39e3 bdbd
000003d0: 4e26 12be 55c3 51be c834 93be 6fc9 42be
000003e0: b9f1 1ebe 62f1 cc3d ffc2 0c3e 00dc 19bd
000003f0: f920 403e aacd c6bb 5e8c 89be b008 0c3e

fc3.bias f4 [2]
-0.008754472 0.07603023
00000000: eb6e 0fbc bdb5 9b3d

bn1.weight f4 [400]
0.13167953 0.6400149 1.0529145 0.9375564 0.743438 0.3196918 0.26204246 0.96189994
0.63845736 0.69559747 1.0888772 1.2326987 0.77585435 0.34362805 1.0136685 0.6164812
0.7400474 1.0113932 0.18018596 0.43409052 0.6859632 0.7678548 0.8289838 0.6386794
-0.0407441 0.40401396 0.4860467 0.9262309 0.7125616 0.64935136 0.2697782 0.48349774
0.26035938 0.7778427 0.66502744 0.9565991 0.45012313 0.30344385 0.36588922 0.08308641
0.80495983 0.76023346 0.19659948 0.7098423 0.96134984 1.056225 0.82912815 0.71145177
0.51287615 0.7949608 0.9104503 0.6302039 0.96284527 0.40645948 0.26702026 0.744335
0.21537541 0.2789352 0.43219176 1.0130347 0.7324491 1.0502595 0.0824936 0.13808212
1.1485054 0.2534683 0.62186635 0.26220617 0.35426635 0.8055086 0.9848308 0.7936529
0.40225765 0.9034512 1.0307845 0.9568115 0.3103728 0.99421805 0.41960552 0.96649355
0.9152796 0.43546304 0.7081775 0.56305784 0.6618292 0.64009017 0.22258663 0.6436005
0.6841727 0.16443382 1.0208977 0.90095705 0.6478245 0.7645202 0.24497016 0.96944827
1.0782465 0.7984733 0.87914926 0.6116867 0.29133084 0.7991252 0.20036288 0.5213845
0.45487615 1.1178625 0.32171986 0.61119634 1.1301309 0.5287973 0.742323 0.83651006
0.6366656 0.3007227 0.96423525 0.655398 0.13276626 0.8435281 0.5031516 0.43970874
0.9487461 0.39918014 0.9224397 0.36091805 0.6052515 0.44167098 0.8356016 0.728312
0.7543638 0.77511066 0.43515906 0.82489383 0.8077051 0.8868786 0.80353373 0.3966825
0.26281962 0.6534147 0.9103206 0.22870767 1.1813773 0.36203024 0.83606505 0.78579926
0.46473986 0.5791249 0.6911122 0.3958081 0.4802858 0.6155463 0.73228234 0.014539241
0.528726 0.18295915 0.28801256 0.5301854 0.8825638 0.49299008 1.0614934 0.25868982
0.432617 0.862856 0.5996345 1.1236752 0.6022293 0.13703376 0.4358082 0.6403889
0.5023438 1.0374266 0.29526347 0.6897981 0.37140653 0.573562 0.68284196 0.3438076
0.80826193 0.7559998 0.57878023 1.065836 0.7489287 -0.26143125 0.837835 1.0499244
0.33886313 0.2614834 0.6966099 0.33843288 0.34279588 0.73701835 0.88091946 0.92649186
0.45537874 0.78027105 0.5638356 0.9559936 0.16665247 0.88204265 0.4640775 0.35144988
1.0053426 0.7958199 1.0608307 0.43884343 0.7570328 1.0050281 0.2711861 1.1132423
0.9443706 0.51491874 1.1095302 0.37000766 0.76595604 0.527264 0.5905856 0.19401127
0.9614135 0.4123244 1.0129255 0.2854648 0.39504904 0.33253074 0.28870603 0.27867174
0.89295 0.52302724 0.21198772 0.35787618 0.23171154 0.37179488 0.31796873 0.96094143
0.425964 0.8930948 1.0213124 0.32671708 0.11349896 0.68532574 0.34687322 0.9342172
0.9990461 0.39806274 0.5106814 0.75381327 0.28957117 0.51606005 1.0033276 0.4335036
0.9482355 0.41117343 0.40590784 0.40724102 0.32229054 0.6024951 0.609555 0.76822156
00000000: 00d7 063e 04d8 233f e7c5 863f b203 703f
00000010: f451 3e3f a5ae a33e 6e2a 863e 133f 763f
00000020: f171 233f ad12 323f 5460 8b3f 12c9 9d3f
00000030: 649e 463f 04f0 af3e e4bf 813f b6d1 1d3f
00000040: bf73 3d3f 5575 813f ab82 383e 1d41 de3e
00000050: 499b 2f3f 2292 443f 4838 543f 7e80 233f
00000060: 49e3 26bd ebda ce3e 1ddb f83e 781d 6d3f
00000070: 706a 363f e43b 263f 5e20 8a3e 048d f73e
00000080: d34d 853e b320 473f 3d3f 2a3f aee3 743f
00000090: 8a76 e63e fe5c 9b3e d555 bb3e 3529 aa3d
000000a0: d911 4e3f a99e 423f 6051 493e 3ab8 353f
000000b0: 061b 763f 6132 873f be41 543f b421 363f
000000c0: da4b 033f 8d82 4b3f 4513 693f 0b55 213f
000000d0: 077d 763f 751b d03e e1b6 883e bd8c 3e3f
000000e0: 5f8b 5c3e 98d0 8e3e 3d48 dd3e 1fab 813f
000000f0: c981 3b3f e76e 863f 68f2 a83d 6665 0d3e
00000100: 3a02 933f 99c6 813e a232 1f3f e33f 863e
00000110: 6662 b53e d035 4e3f df1d 7c3f d62c 4b3f
00000120: b7f4 cd3e 9448 673f bff0 833f 99f1 743f
00000130: 2fe9 9e3e 1385 7e3f 89d6 d63e 1f6c 773f
00000140: c44f 6a3f 03f5 de3e 1f4b 353f 8f24 103f
00000150: a36d 293f f3dc 233f c0ed 633e 01c3 243f
00000160: f125 2f3f 5761 283e c7ac 823f 1fa5 663f
00000170: d4d7 253f 99b7 433f 75d9 7a3e c32d 783f
00000180: fb03 8a3f bf68 4c3f ed0f 613f 8097 1c3f
00000190: 5129 953e 7893 4c3f ed2b 4d3e 7479 053f
000001a0: 87e5 e83e 1e16 8f3f 77b8 a43e 5d77 1c3f
000001b0: 21a8 903f 435f 073f e108 3e3f 8625 563f
000001c0: 84fc 223f 53f8 993e 1fd8 763f 2ac8 273f
000001d0: e1f3 073e 75f1 573f 8bce 003f 8121 e13e
000001e0: 06e1 723f 5761 cc3e 0225 6c3f 40ca b83e
000001f0: c3f1 1a3f b322 e23e fde9 553f a872 3a3f
00000200: fc1d 413f a76d 463f 2bcd de3e 3e2c 533f
00000210: c3c5 4e3f 7a0a 633f 63b4 4d3f f819 cb3e
00000220: 4b90 863e 3046 273f c50a 693f 5832 6a3e
00000230: 5f37 973f 075c b93e 5c08 563f 242a 493f
00000240: 62f2 ed3e 8841 143f bbec 303f 5ca7 ca3e
00000250: 05e8 f53e 7194 1d3f db76 3b3f ff35 6e3c
00000260: 965a 073f a559 3b3e 6276 933e 3bba 073f
00000270: b4ef 613f 3269 fc3e 04df 873f fe72 843e
00000280: fa7f dd3e 21e4 5c3f a681 193f 97d4 8f3f
00000290: b32b 1a3f 9452 0c3e 4122 df3e 87f0 233f
000002a0: 9a99 003f 65ca 843f c62c 973e 9c96 303f
000002b0: ff28 be3e f6d4 123f bbce 2e3f 8d07 b03e
000002c0: 41ea 4e3f 3489 413f f12a 143f 506d 883f
000002d0: cbb9 3f3f 51da 85be 5b7c 563f ec63 863f
000002e0: 787f ad3e 27e1 853e 0755 323f 1347 ad3e
000002f0: f182 af3e 3cad 3c3f f083 613f 922e 6d3f
00000300: 6727 e93e d8bf 473f 8857 103f ffbb 743f
00000310: f2a6 2a3e 8ccd 613f 919b ed3e 3df1 b33e
00000320: 11af 803f daba 4b3f 4dc9 873f 16b0 e03e
00000330: e7cc 413f c3a4 803f e8d8 8a3e b97e 8e3f
00000340: 46c2 713f b7d1 033f 1605 8e3f a571 bd3e
00000350: b215 443f c6fa 063f 9e30 173f e4aa 463e
00000360: 321f 763f 2f1c d33e 8ba7 813f 7128 923e
00000370: de43 ca3e 7841 aa3e 47d1 933e 10ae 8e3e
00000380: 5f98 643f 1de5 053f 4f13 593e 8c3b b73e
00000390: ca45 6d3e e65b be3e cccc a23e 4200 763f
000003a0: f417 da3e dca1 643f 5dba 823f 7647 a73e
000003b0: 2572 e83d 8271 2f3f 5e99 b13e dc28 6f3f
000003c0: 7cc1 7f3f e1ce cb3e 04bc 023f e8f9 403f
000003d0: ac42 943e 831c 043f 0a6d 803f 2ff4 dd3e
000003e0: 90bf 723f 5385 d23e 27d3 cf3e e581 d03e
000003f0: 4403 a53e 1e3d 1a3f cc0b 1c3f 2baa 443f

bn1.bias f4 [400]
0.025989309 0.014428061 -0.027434813 0.0545564 -0.04278131 0.013934601 0.080009334 0.05553049
7.27696e-05 0.050885145 0.13453045 0.076095544 -0.025274586 0.07892744 -0.033807494 -0.041909393
0.0389312 0.032979406 0.017377233 -0.012250386 0.012156991 0.015178159 -0.020035084 0.013068714
-0.02990436 0.07013624 -0.058344472 0.02390061 0.020688089 0.076980345 0.022978406 -0.029268987
0.090602495 0.024418486 0.0373428 0.01887051 -0.018715026 -0.060358994 -0.04986926 0.009308877
-0.06900775 0.01964167 -0.0035088833 0.09254397 0.058852706 0.0068349005 0.07699571 -0.026572114
0.025388537 0.028132614 -0.024693476 0.07025568 0.0008432107 0.03176666 0.025390984 -0.053698637
-0.009755637 -0.042305816 0.03275971 0.034824718 -0.050678898 -0.001190178 -0.007376517 0.03897564
0.07843145 -0.07469116 0.018582229 0.029211381 0.024496134 0.0848948 0.087282225 -0.0012069864
-0.09562108 0.017565629 0.011938603 -0.037434272 0.02773387 0.04328694 -0.018950393 -0.17452899
0.07669335 0.05409384 -0.01892553 0.003961634 0.048862398 0.05994099 0.052048035 -0.024358297
0.005550572 0.058949612 -0.008225677 0.04262523 -0.057231322 -0.020803006 0.065416835 0.01258498
-0.0048628133 -0.00620112 0.024133617 -0.059480276 0.04592569 0.079705045 -0.039453868 0.02424975
-0.03058962 0.012812146 0.024630282 0.0023178821 0.022308245 0.030200616 0.06715507 -0.0006292714
-0.017282166 0.032421913 0.04885582 0.020926239 0.053020246 0.01652577 0.094829105 -0.0018158183
0.025878051 0.02208156 0.017721456 -0.05411975 -0.0079062935 0.042983763 0.04011317 0.10176558
0.038100168 0.03488619 0.11652048 -0.045342136 -0.0014748619 0.049057424 0.02609171 0.007829719
-0.066828944 0.021565817 0.14658387 0.11047041 0.029604593 0.061616562 0.02008035 -0.025371917
0.05039207 0.024444161 0.0135646835 -0.03406913 0.0076218187 -0.0008325796 0.0013578102 -0.06386704
0.033457235 0.11138909 0.0046132975 -0.015140265 0.1963582 -0.001817218 -0.011152379 -0.051945996
0.027477443 0.0067320126 0.0018450246 0.019327462 -0.006790155 0.00048016643 0.066585675 0.05196399
-0.0048659146 -0.00037094104 -0.008297553 -0.00841711 0.011831827 -0.00612392 0.050741885 0.07414166
-0.028132036 0.05160608 -0.024467446 0.02843978 -0.008916214 -0.00079461874 0.065247476 -0.13296144
-0.007708151 -0.021324228 -0.05751503 -0.0064227902 0.039044958 0.016677711 0.045215152 -0.079055704
-0.032106377 0.08245014 -0.002323699 0.045934036 -0.008397843 0.007698512 -0.05441297 0.031788003
0.09388005 0.007389218 -0.05013278 -0.0006848787 -0.0057017547 -0.19050935 -0.035285395 -0.0042532114
-0.07952578 -0.047335226 -0.083869345 -0.020008875 -0.004020455 0.05416685 0.08752972 0.00785455
-0.032556046 0.054532327 -0.011091692 0.058891006 -0.008858923 0.0034833075 0.016280483 0.038097672
0.13209622 -0.08966007 -0.04536364 0.012179217 -0.0019975721 0.00518575 0.04690469 0.029751092
-0.009618335 -0.021124981 -0.032235943 0.039482806 -0.012189939 0.046497587 -0.019300641 0.0028752943
0.0331925 0.058505997 0.02625639 -0.0109853875 -0.01618574 0.05205465 0.07123837 0.0019431874
-0.033983532 -0.05959834 -0.0044972887 -0.011321406 -0.031205561 0.030485883 -0.043321434 0.036985524
00000000: 88e7 d43c ad63 6c3c f9be e0bc 8876 5f3d
00000010: 743b 2fbd f44d 643c efdb a33d f073 633d
00000020: e29b 9838 f16c 503d 5ac2 093e fbd7 9b3d
00000030: a60c cfbc b6a4 a13d ba79 0abd 2fa9 2bbd
00000040: 5276 1f3d 6a15 073d b35a 8e3c d8b5 48bc
00000050: 1e2e 473c d0ad 783c 9e20 a4bc 291e 563c
00000060: fdf9 f4bc 97a3 8f3d 9dfa 6ebd 36cb c33c
00000070: 117a a93c dfa7 9d3d 363d bc3c 84c5 efbc
00000080: cd8d b93d 4709 c83c c4f4 183d 5496 9a3c
00000090: 4150 99bc fe3a 77bd b643 4cbd 4384 183c
000000a0: ef53 8dbd 91e7 a03c 4bf5 65bb b187 bd3d
000000b0: 890f 713d 4df7 df3b edaf 9d3d c3ad d9bc
000000c0: 9ffb cf3c 5e76 e63c f949 cabc 36e2 8f3d
000000d0: ea0a 5d3a c21d 023d c100 d03c 1af3 5bbd
000000e0: 1bd6 1fbc dd48 2dbd 0c2f 063d 5da4 0e3d
000000f0: ad94 4fbd bfff 9bba b6b6 f1bb eca4 1f3d
00000100: aba0 a03d aef7 98bd c239 983c b54c ef3c
00000110: 1eac c83c 53dd ad3d 06c1 b23d be33 9eba
00000120: fcd4 c3bd cbe5 8f3c 219a 433c ae54 19bd
00000130: 2432 e33c a54d 313d db3d 9bbc bab7 32be
00000140: 6711 9d3d 8191 5d3d b709 9bbc 98d0 813b
00000150: f023 483d af84 753d 5230 553d 0d8b c7bc
00000160: 93e1 b53b 2675 713d fdc4 06bc cb97 2e3d
00000170: 646b 6abd 116b aabc 43f9 853d 3b31 4e3c
00000180: 3c58 9fbb c432 cbbb ddb3 c53c 97a1 73bd
00000190: 941c 3c3d 663c a33d 619a 21bd 69a7 c63c
000001a0: 1597 fabc 09ea 513c 72c5 c93c 9ce7 173b
000001b0: c8bf b63c 4867 f73c 9988 893d b0f5 24ba
000001c0: 5493 8dbc d7cc 043d 0a1d 483d 816d ab3c
000001d0: c22b 593d 0d61 873c c335 c23d c000 eeba
000001e0: 35fe d33c 63e4 b43c 962c 913c acac 5dbd
000001f0: 6689 01bc be0f 303d b54d 243d 796a d03d
00000200: ec0e 1c3d d2e4 0e3d 4aa2 ee3d adb8 39bd
00000210: 2750 c1ba 70f0 483d 48be d53c 3948 003c
00000220: 9ddd 88bd ccaa b03c 151a 163e 4f3e e23d
00000230: 5585 f23c a661 7c3d 8c7f a43c c4d8 cfbc
00000240: ea67 4e3d 1f3f c83c 683e 5e3c 128c 0bbd
00000250: 73c0 f93b 7941 5aba 8df8 b13a b9cc 82bd
00000260: 740a 093d f71f e43d 252b 973b e00e 78bc
00000270: 2012 493e b82f eeba 78b8 36bc 53c5 54bd
00000280: 6018 e13c 3798 dc3b c1d4 f13a a054 9e3c
00000290: f37f debb d9be fb39 125e 883d 31d8 543d
000002a0: 4072 9fbb dd7a c2b9 76f2 07bc ebe7 09bc
000002b0: 48da 413c 2aab c8bb b9d6 4f3d 95d7 973d
000002c0: 2875 e6bc e660 533d f46f c8bc 8bfa e83c
000002d0: 5015 12bc f64d 50ba 78a0 853d 0b27 08be
000002e0: a894 fcbb 26b0 aebc e194 6bbd 4576 d2bb
000002f0: 9bed 1f3d b29f 883c 8633 393d f5e7 a1bd
00000300: fa81 03bd 9edb a83d 3349 18bb 5425 3c3d
00000310: 1b97 09bc cd43 fc3b 22e0 5ebd 2334 023d
00000320: 2f44 c03d 4121 f23b 0858 4dbd 6e89 33ba
00000330: c9d5 babb e214 43be 6b87 10bd 865e 8bbb
00000340: 6ade a2bd 95e2 41bd b1c3 abbd a7e9 a3bc
00000350: 05be 83bb 0fde 5d3d c842 b33d 5fb0 003c
00000360: 7d59 05bd 4a5d 5f3d eeb9 35bc b237 713d
00000370: 0425 11bc 3448 643b a65e 853c 4e0c 1c3d
00000380: 3b44 073e b39f b7bd 39cf 39bd 578b 473c
00000390: b3e9 02bb 39ed a93b 221f 403d 90b8 f33c
000003a0: 3996 1dbc 4c0e adbc d609 04bd b9b8 213d
000003b0: 4fb8 47bc 4174 3e3d 611c 9ebc 6f6f 3c3b
000003c0: dcf4 073d fca3 6f3d a417 d73c 0efc 33bc
000003d0: f597 84bc 4237 553d 6ce5 913d 8db2 fe3a
000003e0: 5132 0bbd 641d 74bd fe5d 93bb 6b7d 39bc
000003f0: cea2 ffbc 88bd f93c d171 31bd 227e 173d

bn1.running_mean f4 [400]
1.9081731 1.3968903 1.2738355 0.42759654 3.2307708 1.0494401 0.39825252 0.80458724
0.4950881 1.2818466 0.1279956 0.44863644 2.0652266 0.7274134 0.06835153 0.4844675
2.5875149 0.7847813 0.002467462 0.27780542 0.3224762 0.4003652 0.37914428 1.8894383
1.2699885 1.4089423 0.91562605 0.52538073 0.057274923 0.043483563 0.0026546144 2.4227967
0.8677932 0.9521843 0.046200015 1.6648356 0.041996993 0.9418726 0.106457554 0.14090218
1.0725913 0.15791696 1.4291246 2.722206 0.45618787 2.1887336 0.7460659 1.0859107
0.27459654 0.0001770774 0.25836194 0.98134315 0.5159433 1.3480614 0.81247354 1.6337783
0.080331616 0.42955026 0.6347126 0.39305547 0.12004525 0.26860452 2.8586574 1.7030196
1.3813457 1.4766872 0.64859635 1.2105923 0.03123187 1.067845 0.35820928 1.767024
1.426789 0.06986618 0.12750976 0.6326586 0.22422014 0.14741874 2.2247696 0.6432035
1.0270609 0.0072032544 0.59873986 2.0157714 0.8927842 0.7048752 1.397418 2.6505568
0.056532547 6e-45 0.21546324 6e-45 0.23913005 0.14004497 0.07579505 0.8946955
0.090206996 0.98997855 1.5153196 0.7989139 1.4935293 1.9749707 2.7109532 0.59536844
0.21888165 0.08833464 0.0115012275 2.8356092 0.23043647 0.47129938 0.051519915 0.58941466
0.17734386 0.03162672 0.1126348 0.40152007 0.78741544 0.07797733 0.5480208 1.7067721
2.465174 0.030960867 0.011701305 0.23324719 0.571198 3.0783963 1.3107239 0.08090629
0.3179236 1.2935292 0.015457736 1.6922365 1.0220964 0.79224366 0.07587532 0.0459135
0.95929843 2.2946796 0.28765443 0.2733484 0.56863093 0.43663588 0.3173243 0.28337497
0.910135 0.7513697 1.5822095 0.22864749 0.46092656 0.95734096 0.25553116 3.980086
0.3293527 2.3175662 0.7204316 0.10585455 1.76782 2.1719053 0.4403035 0.70709336
0.51050115 0.06410812 0.10386052 1.3232188 0.3105514 6e-45 0.15045662 1.2714231
0.32270095 6e-45 0.45734543 0.7669937 0.8183846 0.5921876 0.40924203 1.4559717
0.2771343 1.8200043 0.29575294 0.9136742 1.1746312 0.25376227 2.0693922 0.63766617
2.7647471 0.33563477 0.5516559 0.79572797 0.0881361 1.8431257 2.48271 0.7435175
0.04981739 0.3241812 1.0284885 0.56562525 1.0141987 1.6469414 0.117616706 0.4283024
0.20415393 0.04124704 0.7868173 0.074752145 0.47653797 1.5277643 0.47818032 2.522246
1.5381812 0.75487506 1.6879056 0.15286517 0.060174864 0.04771889 0.06242392 0.4411903
0.7915223 0.031534255 0.60448796 0.8354048 0.7657696 0.27220416 0.4960267 0.0423342
0.09500035 6e-45 2.8427777 0.98427737 1.3351825 0.5610952 0.04090961 0.047943875
0.09697956 0.64963365 0.06863629 0.39455435 1.1413532 0.22942892 0.9669997 0.073903345
0.29316252 2.2914567 0.068773575 0.3469259 0.60699165 0.030529033 0.5319121 0.5311959
0.51786584 0.5450815 0.77390647 0.1888229 0.5323968 3.8733253 0.4759795 1.0771283
00000000: 043f f43f 4dcd b23f 0b0d a33f efed da3e
00000010: f3c4 4e40 0e54 863f c1e7 cb3e 6ef9 4d3f
00000020: 307c fd3e 8d13 a43f 4711 033e adb3 e53e
00000030: ac2c 0440 c437 3a3f e3fb 8b3d 200c f83e
00000040: d899 2540 6de7 483f 25b5 213b 833c 8e3e
00000050: 9a1b a53e abfc cc3e 331f c23e 1dd9 f13f
00000060: fc8e a23f 3958 b43f 7866 6a3f 5a7f 063f
00000070: 1c99 6a3d d21b 323d 0af9 2d3b 1a0f 1b40
00000080: b227 5e3f 5ac2 733f 3a3c 3d3d 5519 d53f
00000090: 0a05 2c3d 901e 713f 6b06 da3d a948 103e
000000a0: ac4a 893f fcb4 213e 8eed b63f a038 2e40
000000b0: 7591 e93e 3614 0c40 2dfe 3e3f 1fff 8a3f
000000c0: eb97 8c3e daad 3939 0448 843e 4e39 7b3f
000000d0: dc14 043f 478d ac3f 44fe 4f3f a61f d13f
000000e0: e784 a43d 03ee db3e 867c 223f 913e c93e
000000f0: 49da f53d 8886 893e 3ef4 3640 8cfc d93f
00000100: f0cf b03f 1604 bd3f 690a 263f b0f4 9a3f
00000110: fbd9 ff3c 25af 883f 3567 b73e d82d e23f
00000120: 06a1 b63f 0016 8f3d eb91 023e eaf5 213f
00000130: f799 653e f0f4 163e a062 0e40 fca8 243f
00000140: bb76 833f 4709 ec3b 0447 193f 6602 0140
00000150: 818d 643f b372 343f 98de b23f b9a2 2940
00000160: ac8e 673d 0400 0000 65a2 5c3e 0400 0000
00000170: 82de 743e f367 0f3e 6f3a 9b3d c40a 653f
00000180: 72be b83d 3c6f 7d3f fef5 c13f 9f85 4c3f
00000190: f82b bf3f d7cb fc3f 4280 2d40 116a 183f
000001a0: 8322 603e cbe8 b43d a56f 3c3c 9f7a 3540
000001b0: 8af7 6b3e 274e f13e 8c06 533d e1e3 163f
000001c0: a199 353e 058b 013d 13ad e63d 0a94 cd3e
000001d0: 0f94 493f 94b2 9f3d 174b 0c3f 8277 da3f
000001e0: 69c5 1d40 a5a1 fd3c d5b6 3f3c 5ad8 6e3e
000001f0: 083a 123f 7204 4540 cdc5 a73f 32b2 a53d
00000200: e2c6 a23e 5d92 a53f 7242 7d3c 359b d83f
00000210: 0ed4 823f 7bd0 4a3f 8564 9b3d cb0f 3c3d
00000220: 9594 753f 08dc 1240 7147 933e 52f4 8b3e
00000230: cc91 113f bd8e df3e 5578 a23e 8616 913e
00000240: 9bfe 683f c459 403f d785 ca3f 9122 6a3e
00000250: 91fe eb3e 4c14 753f fbd4 823e bbb9 7e40
00000260: eba0 a83e 0153 1440 356e 383f 45ca d83d
00000270: ed47 e23f 7f00 0b40 766f e13e 1204 353f
00000280: 34b0 023f 1e4b 833d d3b4 d43d 3c5f a93f
00000290: 9800 9f3e 0400 0000 4d11 1a3e febd a23f
000002a0: 0f39 a53e 0400 0000 2e29 ea3e b359 443f
000002b0: a781 513f 9b99 173f 2c88 d13e 485d ba3f
000002c0: 8ce4 8d3e e7f5 e83f ee6c 973e 8de6 693f
000002d0: 515a 963f 21ed 813e ec70 0440 173e 233f
000002e0: 9ef1 3040 52d8 ab3e 5239 0d3f d4b4 4b3f
000002f0: b380 b43d 8beb eb3f b8e4 1e40 2a57 3e3f
00000300: 520d 4c3d 14fb a53e 83a5 833f d1cc 103f
00000310: 43d1 813f face d23f 07e1 f03d 744a db3e
00000320: ba0d 513e a8f2 283d dc6c 493f a717 993d
00000330: c9fc f33e c88d c33f 0dd4 f43e 7a6c 2140
00000340: 1fe3 c43f 7e3f 413f 4a0d d83f b088 1c3e
00000350: eb79 763d e274 433d 39b0 7f3d b2e3 e13e
00000360: 35a1 4a3f 102a 013d b9bf 1a3f 17dd 553f
00000370: 7a09 443f 585e 8b3e 36f7 fd3e a066 2d3d
00000380: 8b8f c23d 0400 0000 12f0 3540 9af9 7b3f
00000390: 43e7 aa3f efa3 0f3f d690 273d cc60 443d
000003a0: 389d c63d 644e 263f 2f91 8c3d 0703 ca3e
000003b0: dd17 923f 6aef 6a3e 4b8d 773f a35a 973d
000003c0: 6619 963e 3aa7 1240 29d9 8c3d 46a0 b13e
000003d0: ce63 1b3f 0618 fa3c 642b 083f 74fc 073f
000003e0: db92 043f 768a 0b3f bc1e 463f ca5a 413e
000003f0: 284b 083f 90e4 7740 96b3 f33e 57df 893f
