checkpoint_critic.pth (torch_old, 532547 bytes, 9 tensors)

fcs1.weight f4 [400, 24]
0	0xbce4ce3d	-0.027930373
1	0x3d53cc86	0.05170872
2	0x3cd6afb3	0.026206827
3	0xbda0c172	-0.07849397
4	0x3daf2410	0.085518
5	0x3c4250b9	0.011860066
6	0x3c7b7095	0.015346666
7	0xbd2783c7	-0.040897157
8	0x3ce78f51	0.02826658
9	0x3d82b1bb	0.06381556
10	0xbc3d5504	-0.011555914
11	0xbca1279e	-0.019672211
12	0x3dc7269f	0.09724163
13	0x3d0c9625	0.034322876
14	0x3c861871	0.016369076
15	0xbd01292f	-0.031533416
16	0xbc4fb987	-0.0126785105
17	0x3ced0f71	0.028938027
18	0xbbfb006c	-0.0076599624
19	0x3dd4236a	0.10358317
20	0x3dd5984b	0.10429438
21	0x3afc2622	0.0019237439
22	0x3c71a053	0.014747697
23	0x3de287d2	0.11061062
24	0x3d28875a	0.041144706
25	0xbe56ca88	-0.20975697
26	0xbabb9608	-0.001431168
27	0x3d0cb664	0.03435363
28	0x3d30eca0	0.043194413
29	0xbc89b4c1	-0.016809823
30	0xbb2995f1	-0.0025876726
31	0x3d0ae402	0.03390885
32	0x3d99cb4d	0.0750948
33	0xbe3d5db5	-0.18492778
34	0x3b594af9	0.003315626
35	0x3c37427a	0.011185283
36	0xbc03cea4	-0.008044872
37	0xbdbf0685	-0.093274154
38	0xbc8e19c5	-0.017346272
39	0x3d70a125	0.05874743
40	0x3dc8317b	0.09775063
41	0xbe15009e	-0.14551017
42	0xbd2e4505	-0.04254629
43	0x3deca219	0.11554355
44	0x3d318f5e	0.043349616
45	0xbccb1461	-0.02478999
46	0x3d2d34f7	0.04228684
47	0x3dd27de5	0.10277919
48	0xbd20f06e	-0.03929179
49	0xbabb1e01	-0.001427591
50	0x3d68d870	0.056847036
51	0xbcdbfb95	-0.026853362
52	0xbd8be211	-0.06830228
53	0xbdb32cdb	-0.0874879
54	0x3c7634d9	0.015027248
55	0xbb6282bc	-0.0034562787
56	0xbd02e6ed	-0.03195851
57	0xbd9533e8	-0.07285291
58	0x3d74ad45	0.059735555
59	0x3cdab6c3	0.026698476
60	0xbc70157a	-0.014653558
61	0xbd764072	-0.060120054
62	0x3c5aabd2	0.013346629
63	0x3d5ab24f	0.053392705
64	0x3d4488e4	0.04798211
65	0xba6092b6	-0.00085667835
66	0x3c9a0bd4	0.018804468
67	0x3b9beb33	0.0047582625
68	0xbca79845	-0.02045835
69	0xbe14c7c3	-0.14529328
70	0x3b4bb4b1	0.0031083042
71	0xbd0785d4	-0.033086613
72	0x3d97b9e6	0.07408504
73	0x3d1208b6	0.03565284
74	0xbc927404	-0.017877586
75	0x3d2b05e2	0.041753657
76	0xbd7c3890	-0.06157738
77	0xbd0d247e	-0.03445863
78	0x3d1b7813	0.03795631
79	0x3c4fb1bd	0.012676653
80	0x3d9aa8f0	0.075517535
81	0xbd4b0c8e	-0.04957252
82	0xbc89f6aa	-0.016841251
83	0xba97cdf4	-0.0011581765
84	0xbd71856d	-0.058965135
85	0xbccb191e	-0.02479225
86	0x3d3c07e7	0.045905974
87	0xbceb2ed1	-0.028708847
88	0x3d7408de	0.05957877
89	0x3c80b114	0.015709437
90	0x3ccd27bf	0.025043366
91	0xbd1ce457	-0.0383037
92	0xbdbb3f3d	-0.09142921
93	0xbde359f6	-0.11101143
94	0xbbd5fa7c	-0.006530104
95	0x3c388ad9	0.011263573
96	0x3d4b0b2a	0.049571194
97	0x3dee81b1	0.116458304
98	0x3c0ebf09	0.0087125385
99	0x3e0bfeeb	0.13671462
100	0x3cd97696	0.026545804
101	0xbb8fbba8	-0.004386384
102	0xbc21376f	-0.009839877
103	0x3da95bac	0.08269438
104	0x3d20328a	0.039110698
105	0x3e2e9c00	0.17051697
106	0xbd629911	-0.055321757
107	0x3d032374	0.032016233
108	0x3c3c5425	0.011494671
109	0xbd89b266	-0.0672348
110	0x3ca86762	0.02055711
111	0xbce6c04c	-0.028167866
112	0x3dc7bb7d	0.097525574
113	0x3e5cad2a	0.21550432
114	0x3cf9afe2	0.030479375
115	0xbb8ab990	-0.0042335466
116	0xbc9531f6	-0.0182123
117	0x3d325cd2	0.04354555
118	0x3cedfdcc	0.029051684
119	0x3cf40d87	0.029791607
120	0x3d474635	0.04865094
121	0xbd1b7ca9	-0.037960682
122	0x3c234232	0.009964513
123	0xbc9ebef0	-0.019378155
124	0x3c666d12	0.01406409
125	0xbd903059	-0.070404716
126	0xbc323106	-0.010875946
127	0xb9494b24	-0.00019196846
128	0x3d0ae265	0.033907313
129	0x3d557a79	0.052118752
130	0x3d42d9e3	0.047571074
131	0xbcd6b557	-0.026209516
132	0x3cac9726	0.021068167
133	0xbd59eb02	-0.053202637
134	0x3d8dca12	0.069233075
135	0xbc0d8525	-0.008637701
136	0x3d9e0072	0.07714929
137	0x3d5bd97e	0.053674214
138	0x3c92646c	0.01787015
139	0x3e1db992	0.1540282
140	0xbc198806	-0.009370809
141	0x3cf3691c	0.029713206
142	0xbaf390c5	-0.0018582573
143	0x3dda2c26	0.10652952
144	0x3cab314a	0.020897526
145	0xbd9413d1	-0.07230342
146	0x3d384b0a	0.044993438
147	0x3da162f2	0.078802004
148	0xbd99bcf8	-0.07506746
149	0xbdcc2b26	-0.099691674
150	0x3cbaaabf	0.022786496
151	0x3c51d856	0.012807926
152	0x3c9eaeed	0.01937052
153	0xbd87d9f7	-0.0663337
154	0x3cd534dc	0.026026182
155	0xbc0d248c	-0.0086146705
156	0xbd1b72b7	-0.037951197
157	0x3b62a4d3	0.0034583106
158	0x3d053d32	0.032529064
159	0xbc6bdbfb	-0.014395709
160	0x3cad74a8	0.02117379
161	0x3b5e02ad	0.0033876107
162	0x3c083abb	0.008314784
163	0xbd9bd1ef	-0.07608401
164	0x3daad7ba	0.08341928
165	0xbd2987dc	-0.04138933
166	0x3c718bca	0.014742801
167	0xbc35fca8	-0.011107601
168	0x3d13702c	0.035995647
169	0xbd60a5de	-0.054845683
170	0xbc0e3f98	-0.008682154
171	0x3d673941	0.056451086
172	0x3c58da7b	0.013235684
173	0xbdfca880	-0.12336826
174	0x3c37ae0e	0.011210931
175	0x3da49c42	0.08037616
176	0x3cc9fb32	0.024655912
177	0xbc9e90ae	-0.019356098
178	0xbd34b2c6	-0.044115804
179	0x3d2699d2	0.04067404
180	0x3bd3b171	0.0064603616
181	0xbe0d3924	-0.13791329
182	0xbd12de05	-0.035856266
183	0xbd2e2bca	-0.04252223
184	0x3d8e936e	0.06961714
185	0x3c4cfee0	0.012511939
186	0xbd12f9cd	-0.03588276
187	0x3dc95627	0.098308854
188	0xbd56bad4	-0.052424267
189	0xbc884294	-0.01663331
190	0x3d1777e1	0.03697956
191	0x3de1c28f	0.11023437
192	0x3d29534e	0.04133921
193	0xbcd4806d	-0.025940144
194	0x3c40b1ac	0.01176111
195	0xbd6eab7f	-0.05826902
196	0x3c5e8b52	0.013583021
197	0xbda2d33b	-0.07950445
198	0xbd029c8d	-0.03188758
199	0xba852454	-0.0010157921
200	0xbc81bc3d	-0.01583683
201	0xbd0c0121	-0.034180764
202	0xbc860f42	-0.016364697
203	0xbc541dd9	-0.012946569
204	0x3d9587c6	0.07301287
205	0xbdfa6780	-0.12226772
206	0xbba07a3f	-0.0048973854
207	0xbdc39038	-0.09548992
208	0xbd2e5b89	-0.042567763
209	0xbe3f1918	-0.18661916
210	0x3d1bd918	0.038048834
211	0x3c550fa8	0.013004221
212	0x3d8438d8	0.064561546
213	0x3d6ae54c	0.05734758
214	0xbcaaf7b9	-0.020870076
215	0x3d2ade06	0.041715644
216	0x3d4c1b87	0.04983094
217	0xbab183cd	-0.0013543308
218	0x3ab06315	0.0013457263
219	0xbd499497	-0.049213972
220	0xbda00a4a	-0.078144625
221	0x3c912765	0.01771898
222	0xbce5bbcb	-0.028043648
223	0x3cddbfc2	0.027068976
224	0x3d5f43e6	0.054508112
225	0xbd723cce	-0.05914002
226	0xbcc2cefd	-0.02378034
227	0xbbd2271e	-0.0064133545
228	0xbd47ec1f	-0.048809167
229	0x3d99b849	0.07505853
230	0x3c8c5cfe	0.017134186
231	0xbd246350	-0.040133774
232	0x3d7e06d7	0.06201824
233	0x3c00568a	0.0078331325
234	0xbc0f5ce4	-0.008750174
235	0x3bc89d41	0.0061222618
236	0xbcd641e9	-0.026154475
237	0x3dfbf36a	0.12302287
238	0x3d022bff	0.03178024
239	0x3d3530b5	0.044235904
240	0xbc0cf5fd	-0.00860357
241	0x3d4c5ab9	0.049891207
242	0x3b740230	0.003723275
243	0xbd1eb2bd	-0.038744677
244	0xbb58f23b	-0.0033103365
245	0x3d631824	0.055442944
246	0xbc82f682	-0.015986685
247	0xbd28731d	-0.041125406
248	0x3d12a7df	0.035804626
249	0x3c5e3708	0.013562925
250	0x3a86cf42	0.0010285156
251	0x3c844bd0	0.016149431
252	0xbce1665c	-0.027514629
253	0x3e1cde37	0.15319143
254	0xbc04564e	-0.008077217
255	0x3c80a1fd	0.015702242

fcs1.bias f4 [400]
0	0x3d5cdc42	0.05392099
1	0xbd14b7f2	-0.036308236
2	0x3dcfaf90	0.10140908
3	0xbb6c89da	-0.0036092908
4	0xbe36c750	-0.17849469
5	0xbd692f0a	-0.056929626
6	0x3d84d51a	0.064859584
7	0xbd06038d	-0.03271823
8	0xbbca84e5	-0.006180393
9	0xbe76d858	-0.24105966
10	0xbc00d4e3	-0.007863256
11	0x3e067ab9	0.13132752
12	0xbe833318	-0.2562492
13	0x3d9d0fe0	0.076690435
14	0x3d008385	0.031375427
15	0xbe0d26c6	-0.13784322
16	0x3e05e264	0.13074642
17	0xbdea7690	-0.11448395
18	0xbcaa7091	-0.020805629
19	0x3c57fe26	0.013183152
20	0x3b9fbad5	0.004874567
21	0x3e33370d	0.17501469
22	0xbcd19b8e	-0.02558687
23	0xbdfa189f	-0.12211727
24	0x3dc5990a	0.096483305
25	0xbe11d513	-0.14241438
26	0xbdb70cd5	-0.089379944
27	0xbd24edaf	-0.040265735
28	0xbe4a8fc6	-0.19781408
29	0x3d66bbe6	0.056331538
30	0xbe3e8d10	-0.18608499
31	0x3e577c03	0.210434
32	0x3db68697	0.0891239
33	0x3d8306c4	0.06397775
34	0xbe28cf60	-0.16485357
35	0xbe045cf1	-0.1292608
36	0xbe186448	-0.14882004
37	0xbe82047c	-0.25394046
38	0x3d489fdb	0.048980575
39	0xbe379320	-0.17927217
40	0x3e035cbe	0.12828347
41	0xbe33ec91	-0.17570712
42	0x3e113009	0.1417848
43	0x3e42b400	0.19013977
44	0xbdfd7253	-0.12375321
45	0xbdac660b	-0.08417901
46	0x3df23d92	0.1182815
47	0x3d084225	0.033266205
48	0x3d7b9467	0.061420824
49	0x3e1378e7	0.1440159
50	0x3dd24243	0.10266545
51	0x3e12d347	0.14338408
52	0xbcb80029	-0.022461014
53	0xbe793b4e	-0.24339029
54	0x3d3129f7	0.04325291
55	0x3da0c50f	0.07850086
56	0xbdca4b46	-0.098776385
57	0xbe0933ce	-0.13398668
58	0x3da39ec6	0.07989268
59	0xbd2e5f8b	-0.042571586
60	0x3d6a515e	0.057206504
61	0xbe4f97b1	-0.2027271
62	0xbe0c8b81	-0.13725092
63	0xbcb38c25	-0.021917412
64	0x3c99316f	0.01870033
65	0xbd2a4022	-0.041565068
66	0x3d46a309	0.048495326
67	0x3c29b2bc	0.010357555
68	0xbe155813	-0.14584379
69	0x3e08142a	0.13288942
70	0x3d737332	0.05943603
71	0x3e13d5b5	0.14436992
72	0x3c9db1d4	0.019249834
73	0x3da2b6d3	0.07945027
74	0xbdd6f43d	-0.104958035
75	0xbdacde52	-0.08440842
76	0xbe5e25e7	-0.21694146
77	0x3df070eb	0.117402874
78	0x3d3726e0	0.04471481
79	0x3e5a6843	0.21328835
80	0x3e408e10	0.18804193
81	0xbd6908b7	-0.056893077
82	0x3d37d3aa	0.044879593
83	0x3e2eaa1a	0.17057076
84	0xbe397fa3	-0.18115096
85	0x3e24e393	0.16102438
86	0x3b500220	0.0031739548
87	0xbe64c5fd	-0.22341152
88	0xbe6738b2	-0.22580221
89	0x3d8684a2	0.065682665
90	0xbdff0f9d	-0.1245415
91	0x3d7a9c55	0.061184246
92	0x3e17e99b	0.14835207
93	0x3d86d92b	0.0658439
94	0xbda57739	-0.080793805
95	0xbd2fad25	-0.042889733
96	0x3c179e7a	0.009254092
97	0x3e31c3af	0.17359804
98	0x3e04d9b8	0.12973678
99	0xbe6354c1	-0.222003
100	0x3dc9a71d	0.098463275
101	0xbd873a4f	-0.06602918
102	0x3d122210	0.035677016
103	0xbe02ffc8	-0.12792885
104	0x3de09d20	0.10967469
105	0xbc397b2f	-0.011320873
106	0x3d30d54f	0.043172177
107	0x3e2b675e	0.1673865
108	0xbe3ce53d	-0.18446822
109	0x3df9b342	0.12192394
110	0x3d7dece6	0.061993502
111	0xbe4793b9	-0.19489945
112	0xbe827fb3	-0.25488052
113	0xbcbc7a5a	-0.02300756
114	0xbe62bc31	-0.22142102
115	0xbe5c240d	-0.21498127
116	0xbd9a664a	-0.07539041
117	0x3d106403	0.03525163
118	0xbe38d137	-0.18048559
119	0xbe5831bd	-0.21112724
120	0x3d945daa	0.072444275
121	0xbd692bff	-0.056926724
122	0xbe54c32a	-0.20777574
123	0xbe5206cc	-0.20510405
124	0xbe745eba	-0.2386426
125	0xbe4a635e	-0.19764468
126	0xbb4da666	-0.0031379699
127	0x3d22d64c	0.03975515
128	0xbd9e2a53	-0.077229165
129	0xbe17cfbe	-0.14825341
130	0x3dc3ff1e	0.09570144
131	0x3ce1ddd3	0.027571594
132	0xbe560def	-0.20903753
133	0x3d689a12	0.056787558
134	0x3ddcbec7	0.107785754
135	0xbd818315	-0.0632383
136	0x3ca676e2	0.02032036
137	0x3c586991	0.013208763
138	0x3d80b16a	0.06283839
139	0xbe2f7072	-0.17132738
140	0x3d317049	0.043319974
141	0xbe2bcd06	-0.16777429
142	0xbe177b98	-0.14793241
143	0xbdd756a2	-0.10514571
144	0xbe059271	-0.13044144
145	0x3dca48e2	0.098771825
146	0xbe2e9e76	-0.17052636
147	0x3d07eb69	0.03318349
148	0x3d04a4de	0.032383792
149	0xbdb3be9a	-0.08776589
150	0x3e1fb37d	0.15595813
151	0x3d14e1d4	0.03634818
152	0xbdd72ad7	-0.10506218
153	0xbe50b8b0	-0.20382953
154	0xbdf7ebba	-0.12105508
155	0xbd2ef287	-0.04271176
156	0x3e07d899	0.13266219
157	0x3bed5a0b	0.0072434
158	0x3ba08574	0.0048987214
159	0xbd476720	-0.048682332
160	0xbd9ab6fc	-0.07554433
161	0xbcdf60c4	-0.027267821
162	0xbe740546	-0.23830137
163	0xbc40654a	-0.011742899
164	0xbe2cd579	-0.16878308
165	0x3cd8fa24	0.026486464
166	0xbdd2b2fb	-0.10288044
167	0xbe72e2d2	-0.23719338
168	0x3c33a5ba	0.010964805
169	0x3ca30bfc	0.019903176
170	0xbdc74f48	-0.097319186
171	0x3dbf5e6b	0.09344181
172	0x3e2253a3	0.15852217
173	0xbd0ea669	-0.03482667
174	0xbe6e892d	-0.23294516
175	0xbdc75e45	-0.09734777
176	0xbd51fc9c	-0.051266298
177	0xbcccb16a	-0.024986941
178	0xbe5e01d6	-0.21680388
179	0xbe321281	-0.17389871
180	0xbda58c26	-0.08083372
181	0xbe2dfaec	-0.1699025
182	0xbe3ff666	-0.18746337
183	0xbe3f0ddf	-0.18657635
184	0x3dbff5d9	0.093730636
185	0x3e015f54	0.12634021
186	0xbe166744	-0.1468783
187	0xbe3cdeeb	-0.18444411
188	0xbe35f7dd	-0.17770334
189	0xbdfd94cf	-0.123818986
190	0x3dceea8d	0.10103331
191	0xbdced766	-0.10099678
192	0x3dc3d096	0.09561269
193	0xbcd1c6e8	-0.025607541
194	0xbe21072d	-0.15725394
195	0x3dd45d40	0.103693485
196	0xbe53a781	-0.20669366
197	0xbe81bcb7	-0.2533929
198	0xbe027a40	-0.12741947
199	0xbcbcf445	-0.023065696
200	0xbd7c96d8	-0.061667293
201	0xbd9275e5	-0.07151393
202	0x3dc2732e	0.09494625
203	0x3cb489b3	0.022038316
204	0x3d5b873b	0.053595763
205	0xbe583942	-0.21115592
206	0x3e0c4201	0.13697053
207	0xbe1294ea	-0.14314619
208	0x3e5bd3f2	0.2146757
209	0x3e0e170f	0.13875984
210	0x3ad20ac3	0.0016024936
211	0xbe166751	-0.1468785
212	0x3d26304b	0.0405734
213	0x3d973f5e	0.07385133
214	0xbe047158	-0.12933862
215	0xbc154343	-0.009110275
216	0xb97f5098	-0.00024348719
217	0xbd6a0a3b	-0.057138663
218	0xbe23e63c	-0.16005796
219	0x3d6d4746	0.0579293
220	0xbe3459c2	-0.17612365
221	0x3dba607c	0.09100434
222	0xbda0f190	-0.078585744
223	0xbd57ab36	-0.052653514
224	0x3dbb52a3	0.09146621
225	0xbd9b80d5	-0.07592932
226	0xbe0a2cd7	-0.13493668
227	0x3b784131	0.0037880654
228	0x3d54422e	0.051820926
229	0xbe115263	-0.14191584
230	0xbdf5d15e	-0.12002824
231	0xbe42ba57	-0.19016396
232	0xbd4664e8	-0.048436075
233	0x3e09a7aa	0.13442865
234	0x3e018fcc	0.1265251
235	0x3de80ca0	0.11330533
236	0x3ca457c3	0.02006138
237	0xbe4b4ad7	-0.19852768
238	0x3e2e5bba	0.17027178
239	0x3d8e5ba0	0.0695107
240	0x3e5a1d2c	0.2130019
241	0x3c03fa98	0.008055352
242	0x3d3a8380	0.045535564
243	0x3d954611	0.07288755
244	0x3e2f110e	0.1709635
245	0x3e0b6ea1	0.1361642
246	0x3e28f9dd	0.16501565
247	0x3e562a2a	0.20914522
248	0xbd56a3b2	-0.052402206
249	0xbe7ed10e	-0.24884436
250	0xbde4eb20	-0.11177659
251	0xbe4336c9	-0.19063868
252	0xbe30fb51	-0.1728337
253	0x3dd981c3	0.10620453
254	0x3c388078	0.011261098
255	0xbdf2e04e	-0.11859189

fc2.weight f4 [300, 402]
0	0x3d895d45	0.06707243
1	0xbe540bfc	-0.20707697
2	0xbc1724ac	-0.009225052
3	0xbdc65556	-0.09684245
4	0x3d8c468c	0.06849393
5	0x3d9d2865	0.0767372
6	0xbcdadb1f	-0.026715813
7	0xbb1cd9f0	-0.0023933612
8	0x3d52212e	0.051301174
9	0x3d0e0913	0.034676623
10	0xbced9f13	-0.029006517
11	0xbb9721aa	-0.0046121674
12	0xbce897b1	-0.028392645
13	0xbe020541	-0.12697317
14	0x3c228b0b	0.009920846
15	0x3dbb0293	0.0913135
16	0xbbe582b7	-0.007004108
17	0xbcafb582	-0.021448854
18	0xbaea2508	-0.0017863819
19	0xbcb5f7c4	-0.02221287
20	0x3c621766	0.013799524
21	0x3da92c69	0.08260424
22	0x3c3f9bfa	0.011694903
23	0xbc9f00a9	-0.019409494
24	0x3b4b0796	0.0030979863
25	0x3d216ad2	0.039408512
26	0xbd6dfda1	-0.058103207
27	0x3cfac923	0.030613488
28	0x3bd5be81	0.006522954
29	0x3d14216f	0.036164697
30	0xbd1f8c23	-0.038952004
31	0x3d4eab3b	0.050456267
32	0xbc40b8c3	-0.011762801
33	0x3cb1ea82	0.021718267
34	0x3bdc4050	0.006721534
35	0x3dc45998	0.09587401
36	0x3b8939c8	0.0041877963
37	0x3d6484a4	0.05579056
38	0x3c92588d	0.01786449
39	0xbb41a2eb	-0.002954657
40	0x3d700812	0.058601446
41	0xbd3d1301	-0.0461607
42	0x3d4151d1	0.047197167
43	0xbcb72da7	-0.022360636
44	0xbc82bdc3	-0.015959626
45	0xbd45f585	-0.04832985
46	0xbda0a960	-0.07844806
47	0x3d728bbe	0.0592153
48	0x3d876f2c	0.06613001
49	0xbcd8c43b	-0.026460757
50	0x3cf5f713	0.03002504
51	0x3c825281	0.015908482
52	0x3ce3b90b	0.027798196
53	0xbc5dd423	-0.013539347
54	0xbc92248b	-0.01783969
55	0x3d1db2ff	0.038500782
56	0xbdf6cbb6	-0.120505735
57	0x3c76660c	0.015038978
58	0xbd14c77f	-0.036323067
59	0xbc486473	-0.01223098
60	0x3d0c4111	0.03424174
61	0xbd3ae142	-0.04562498
62	0xbd2cd9b0	-0.04219979
63	0xbc8acfdb	-0.016944816
64	0xbd8fd73c	-0.070234746
65	0x3dbb8850	0.09156859
66	0x3c5d9340	0.013523877
67	0x3d9235af	0.071391456
68	0xbc104afe	-0.008806942
69	0xbcc0d4ef	-0.023539035
70	0xbbcbdb12	-0.0062211836
71	0x3d01d32e	0.031695537
72	0x3c437e70	0.0119320005
73	0x3d8ff27e	0.070286736
74	0xbdb75e30	-0.08953512
75	0x3da653fd	0.08121488
76	0x3cb56faf	0.022147981
77	0x3cab7104	0.020927913
78	0xbc2f29b8	-0.010691099
79	0xbc2d6ec0	-0.010585487
80	0xbd40571f	-0.046958085
81	0x3d0f02d8	0.03491482
82	0xbcf06761	-0.02934617
83	0x3d0f519e	0.034989946
84	0x3c6a89c9	0.014315077
85	0x3caeb4ba	0.021326412
86	0x3d5dd534	0.054158404
87	0x3d8440d2	0.06457676
88	0xbd6674de	-0.056263797
89	0x3cfcec92	0.030874524
90	0x3d4a48ad	0.049385715
91	0x3c974ac3	0.018468266
92	0xbd8574a7	-0.0651639
93	0x3d453b61	0.04815233
94	0xbe06dcfd	-0.13170238
95	0xbb4d7e96	-0.0031355969
96	0x3c848f1a	0.016181517
97	0x3d8029fd	0.06258009
98	0xbd378efe	-0.044814102
99	0xbc74d144	-0.014942471
100	0x3cf37b44	0.029721864
101	0xbd80e27e	-0.062932
102	0xbc19a225	-0.009377037
103	0xbcc21f75	-0.02369664
104	0x3d5e81e2	0.054323085
105	0xbc977692	-0.018489156
106	0xbddef9be	-0.10887478
107	0x3d2d81f9	0.04236028
108	0xbd862d87	-0.065516524
109	0x3ca731dd	0.020409519
110	0x3c5893e2	0.013218852
111	0x3d9b5a52	0.075855866
112	0x3d04ada3	0.032392155
113	0x3d0d39e6	0.034479044
114	0x3d0942b1	0.033510868
115	0x3d33a12a	0.04385487
116	0x3c77a151	0.015114144
117	0x3cafb538	0.021448717
118	0x3c206dc0	0.009791791
119	0x3d2bbb8b	0.0419269
120	0xbc167295	-0.009182592
121	0x3c7d74bf	0.015469729
122	0xbd62f8d6	-0.05541309
123	0x3d676b35	0.056498725
124	0x3c16427c	0.009171125
125	0x3d8c828e	0.06860839
126	0xbd3f1466	-0.046650313
127	0xbd3f2146	-0.04666259
128	0x3ca5cbb9	0.020238744
129	0xbca63fb1	-0.020294042
130	0x3d49206f	0.049103197
131	0x3d1230e4	0.035691157
132	0x3d12921a	0.035783865
133	0xbcdf2b14	-0.027242221
134	0x3ba993d7	0.0051750946
135	0x3c1aa043	0.009437623
136	0x3c07943e	0.00827509
137	0xbd0c9bb1	-0.034328166
138	0xbbbbab26	-0.0057271896
139	0xbb8b6aa4	-0.004254656
140	0x3d9eeca0	0.077599764
141	0x3ca23aab	0.019803366
142	0x3d53ce7e	0.0517106
143	0x3d5bcbb3	0.05366106
144	0x3cea5f28	0.028609827
145	0xbb9adc48	-0.0047259666
146	0xbd9adfb1	-0.07562197
147	0x3bc785ca	0.006088947
148	0x3d23717f	0.03990316
149	0xbc851843	-0.01624692
150	0xbced23ab	-0.028947672
151	0xbd5452ce	-0.05183678
152	0x3d79968e	0.060934596
153	0x3d21ce4f	0.03950339
154	0xbd24e3c7	-0.040256288
155	0x3d496500	0.049168587
156	0xbc8360c1	-0.016037347
157	0xbbf1e1ed	-0.007381669
158	0x3ccd1591	0.025034698
159	0xbd310898	-0.043221086
160	0x3d14bd9b	0.036313634
161	0xbc28044e	-0.010254933
162	0xbcf0937a	-0.029367197
163	0xbcedaac3	-0.02901209
164	0x3c3344bc	0.0109416805
165	0xbcc4c912	-0.024021659
166	0x3bd535f9	0.006506678
167	0xbd220e91	-0.039564673
168	0x3cf1c155	0.029511133
169	0xbbecf832	-0.0072317356
170	0x39e39eb7	0.00043415066
171	0x3d60c18a	0.054872073
172	0x3cd980df	0.026550708
173	0x3d33c7f1	0.04389185
174	0x3d16a2d6	0.036776386
175	0x3db5d028	0.08877593
176	0xbd3b7141	-0.045762304
177	0xbd351647	-0.0442107
178	0x3c842ded	0.01613518
179	0x3d3f2934	0.046670154
180	0xbc6ddb44	-0.014517609
181	0xbd764435	-0.06012364
182	0x3dad6aeb	0.084676586
183	0x3dc27ed1	0.094968446
184	0x3dba691f	0.091020815
185	0xbcd285a5	-0.025698492
186	0x3d163991	0.036675993
187	0x3cd3a700	0.025836468
188	0xbd190dfe	-0.03736686
189	0xbd4d2e84	-0.05009319
190	0xbcfeddff	-0.031111715
191	0xbd380c50	-0.044933617
192	0xbd92e26f	-0.07172095
193	0x3db5812c	0.08862528
194	0x3d36ae94	0.044600084
195	0x3d8326b3	0.06403866
196	0x3d3e5935	0.046471793
197	0x3c8d7e7c	0.017272227
198	0x3cca359f	0.024683772
199	0xbcc57b1d	-0.024106557
200	0xbd4d3697	-0.05010089
201	0x3b5def2a	0.0033864477
202	0xbae1e63b	-0.0017234752
203	0xbd84177c	-0.06449792
204	0xbce9cdfc	-0.028540604
205	0xba9a8951	-0.0011790191
206	0xbdcf9d6b	-0.10137447
207	0x3d6c72bb	0.057726603
208	0x3d178d1a	0.0369998
209	0xb84c9a1a	-4.878091e-05
210	0xbca43de7	-0.020049049
211	0x399ce99e	0.00029928697
212	0xbc0990e9	-0.008396366
213	0x3d84415d	0.064577796
214	0x3d93cea9	0.07217152
215	0xbc790a61	-0.015200228
216	0x3d5185a2	0.051152833
217	0xbccedbf7	-0.025251372
218	0x3db387fb	0.087661706
219	0xbcae40ab	-0.02127107
220	0x3b96a3aa	0.004597147
221	0xbcee5636	-0.029093843
222	0x3d2d52fc	0.04231547
223	0x3db9d67d	0.090741135
224	0xbc4bc569	-0.012437203
225	0x3c8a609d	0.016891772
226	0x3d80e465	0.06293563
227	0x3da11e2c	0.07867083
228	0xbbc3bc41	-0.0059733693
229	0x3e076f87	0.13226138
230	0xbd436c18	-0.047710508
231	0x3d5e479c	0.05426751
232	0x3d40e16d	0.047089983
233	0xbd6528a9	-0.05594698
234	0xbc152dc5	-0.009105151
235	0xbcfd1255	-0.03089253
236	0x3d261437	0.040546622
237	0x3cb1977c	0.021678679
238	0xbd089d24	-0.033352986
239	0x3d256663	0.040380847
240	0xbd6901fe	-0.056886666
241	0xbd83ad1d	-0.06429503
242	0xbd548feb	-0.051895063
243	0x3afdeea4	0.0019373489
244	0x3d5336fb	0.051566105
245	0xbd098e48	-0.033582956
246	0x3c86a1f5	0.016434649
247	0x3c31e388	0.01085747
248	0x3d6d38bb	0.05791543
249	0xbaf9cade	-0.0019057652
250	0xbc3b84dc	-0.01144525
251	0x3ca6bce5	0.020353744
252	0x3ccbe438	0.024889097
253	0xbceeb10f	-0.029137162
254	0x3d3c93f9	0.046039555
255	0xbd3bb09c	-0.045822725

fc2.bias f4 [300]
0	0xbe06e274	-0.13172323
1	0x3bd5a9e0	0.006520495
2	0x3c389c7c	0.0112677775
3	0xbdd20425	-0.10254697
4	0xbd56611e	-0.052338712
5	0xbdfb8084	-0.12280372
6	0xbde646dd	-0.11243985
7	0xbd911389	-0.07083804
8	0xbd650a81	-0.05591822
9	0xbdc78c11	-0.097435124
10	0xbcc99c35	-0.024610618
11	0xbdc6eba0	-0.09712911
12	0xbdfb5aad	-0.122731544
13	0xbd0f9c81	-0.035061363
14	0xbdcb9c10	-0.09941876
15	0xbcb6b447	-0.02230276
16	0xbe0a69b0	-0.13516879
17	0xbe18cf3c	-0.14922804
18	0xbd82d411	-0.06388105
19	0xbd392e80	-0.04521036
20	0xbdb2ff6c	-0.08740124
21	0xbd2480d1	-0.04016191
22	0xbd581f4a	-0.052764215
23	0xbd9667f0	-0.07344043
24	0xbd5b9f35	-0.05361863
25	0xbd923c82	-0.07140447
26	0xbe17a0cf	-0.14807437
27	0xbd3349dc	-0.04377161
28	0xbe04fa47	-0.12986098
29	0x3ca57f25	0.020202229
30	0xbe0fa36e	-0.14027187
31	0xbdb3b174	-0.08774081
32	0xbe000fa0	-0.1250596
33	0xbe086bc7	-0.13322364
34	0xbd933a78	-0.071888864
35	0xbd99b4a3	-0.07505157
36	0xbdb9b4b0	-0.090676665
37	0xbdedb1a6	-0.116061494
38	0xbdc1d0da	-0.094636634
39	0xbdabf534	-0.08396378
40	0xbde3465f	-0.110974066
41	0xbe2e0394	-0.16993552
42	0xbd9d6da4	-0.07686928
43	0xbdbbc3e0	-0.091682196
44	0xbe04c1a9	-0.129645
45	0xbe15e1c6	-0.14636907
46	0xbde0dd73	-0.10979738
47	0xbd00e8e5	-0.031472106
48	0xbd624758	-0.05524382
49	0xbd64527f	-0.055742737
50	0xbccdee64	-0.025138088
51	0xbde5868e	-0.11207305
52	0xbd6292f7	-0.055315938
53	0xbd7d5082	-0.061844356
54	0x3bcef28b	0.0063155345
55	0xbdf6065e	-0.12012933
56	0xbd6ddc21	-0.05807126
57	0xbdadc4f3	-0.08484831
58	0xbdc54e44	-0.096340686
59	0xbe0a3e77	-0.13500391
60	0xbe1d22f4	-0.15345365
61	0xbd823484	-0.06357673
62	0xbda68fa9	-0.0813287
63	0xbda333ba	-0.079688504
64	0xbda7fbc1	-0.08202315
65	0xbdfbf3da	-0.1230237
66	0xbe0ac502	-0.13551715
67	0xbd992e63	-0.07479551
68	0x3ca6e221	0.020371499
69	0xbddee4ef	-0.10883509
70	0xbdacf2b7	-0.08444732
71	0xbd82fe19	-0.063961215
72	0xbe0a1673	-0.13485126
73	0xbe1d373f	-0.15353106
74	0xbdcdf516	-0.10056512
75	0xbdea9964	-0.11455038
76	0xbdbc2066	-0.09185867
77	0xbdd9ab08	-0.10628325
78	0xbd8db117	-0.06918543
79	0xbd9ea728	-0.07746726
80	0xbe1d85ab	-0.15383022
81	0xbdb87ba2	-0.09007956
82	0xbe0e2e40	-0.1388483
83	0xbdfc3fd9	-0.123168655
84	0xbdd68683	-0.10474875
85	0xbda61493	-0.08109393
86	0xbd789f7c	-0.06069897
87	0xbe35c257	-0.17749916
88	0x3cf60a92	0.030034337
89	0xbd4b0e0d	-0.049573947
90	0xbe169ff0	-0.14709449
91	0xbdb0b87f	-0.0862894
92	0xbe16f1f5	-0.14740737
93	0xbe043bca	-0.12913433
94	0xbe1d7d50	-0.15379834
95	0xbde42784	-0.111403495
96	0xbdac68ea	-0.08418448
97	0xbe02a96f	-0.12759946
98	0xbe0f8999	-0.14017333
99	0xbdda06af	-0.10645806
100	0xbd84dffe	-0.064880356
101	0xbd9f4fd6	-0.07778899
102	0xbdfeac6c	-0.124352306
103	0xbde46983	-0.11152937
104	0xbdaf2125	-0.08551244
105	0xbdd02545	-0.101633586
106	0xbdbf0edf	-0.09329008
107	0xbd6085af	-0.05481499
108	0xbdc168ef	-0.094438426
109	0xbdabaa4d	-0.08382092
110	0xbdeec592	-0.11658777
111	0xbdd0af62	-0.101897016
112	0xbd93c300	-0.07214928
113	0xbd8da52f	-0.06916272
114	0xbda5366c	-0.08067021
115	0xbd8aacd9	-0.06771249
116	0xbd4eb54f	-0.050465878
117	0xbd90b651	-0.07066024
118	0xbd834415	-0.0640947
119	0xbcd6219b	-0.026139071
120	0xbdb45d7e	-0.08806895
121	0xbd6c15a4	-0.057637826
122	0xbdbc712c	-0.09201273
123	0xbdf9b0ee	-0.1219195
124	0xbe14e32b	-0.14539783
125	0xbd000d06	-0.03126242
126	0xbcefc909	-0.029270666
127	0xbda6facf	-0.08153307
128	0xbdd5af29	-0.104338
129	0xbd7aa40e	-0.06119161
130	0xbe042ddb	-0.12908117
131	0xbda744b1	-0.08167399
132	0xbdadd0fc	-0.08487126
133	0xbdcc7c36	-0.09984629
134	0xbd3154fe	-0.043293945
135	0xbdfd3396	-0.12363355
136	0xbd997e21	-0.0749476
137	0xbdbf6a37	-0.09346431
138	0xbe20c89e	-0.1570153
139	0xbe0538d9	-0.13009967
140	0xbdc3f41b	-0.09568044
141	0xbd3b5113	-0.045731615
142	0xbde14112	-0.10998739
143	0xbdc0a80a	-0.09407051
144	0xbdf47436	-0.11936228
145	0xbdbb5ef0	-0.09148967
146	0xbd527c32	-0.051387973
147	0xbd9ad26d	-0.07559667
148	0xbd4043f1	-0.046939794
149	0xbdb38406	-0.08765416
150	0xbde05d9f	-0.10955357
151	0xbdc9f080	-0.09860325
152	0xbdf63271	-0.1202134
153	0xbdc7636a	-0.097357586
154	0xbd613c59	-0.054989193
155	0xbde3a584	-0.11115554
156	0xbc78e97f	-0.015192389
157	0xbdd3bcc5	-0.10338739
158	0xbdae9bd6	-0.08525817
159	0xbd96381c	-0.07334921
160	0xbcd4d820	-0.025981963
161	0xbde359c0	-0.11101103
162	0xbdc6bb69	-0.097037144
163	0xbcb004cc	-0.021486662
164	0xbe058c6e	-0.13041851
165	0xbd06bf14	-0.03289707
166	0xbd421bcd	-0.047389794
167	0xbd172f4a	-0.036910333
168	0xbdaf7257	-0.085667305
169	0xbd8d64e3	-0.06904008
170	0xbdcacac9	-0.099019594
171	0xbe07c009	-0.1325685
172	0xbe121708	-0.14266598
173	0xbd86258f	-0.065501325
174	0xbddcbef8	-0.10778612
175	0xbd4b083e	-0.049568407
176	0xbde41375	-0.11136524
177	0xbdf54875	-0.11976711
178	0x3c5f1834	0.01361661
179	0xbdc2423e	-0.09485291
180	0xbcfe237e	-0.031022783
181	0xbd68fceb	-0.056881826
182	0xbde62480	-0.112374306
183	0xbe0766bd	-0.13222785
184	0xbd8c9582	-0.06864454
185	0xbcf10570	-0.029421538
186	0xbce8f6a6	-0.028437924
187	0xbddf79bd	-0.109118916
188	0xbe0078dd	-0.12546106
189	0xbdcc7112	-0.09982504
190	0xbd6e2b22	-0.058146603
191	0xbd8a82c4	-0.06763223
192	0xbd1592af	-0.03651684
193	0xbd82b19c	-0.063815325
194	0xbd9b5c8f	-0.075860135
195	0xbde96442	-0.11396076
196	0xbe0e1408	-0.13874829
197	0xbcfc4ee9	-0.030799346
198	0xbdc641df	-0.09680533
199	0xbdee3a0c	-0.11632165
200	0xbd361b3b	-0.044459563
201	0xbdbf3279	-0.09335799
202	0xbe2f3ba1	-0.1711259
203	0xbded8de2	-0.115993276
204	0x3b510bec	0.0031897975
205	0xbc44a8c5	-0.012003128
206	0xbde8d80f	-0.11369335
207	0xbd31da20	-0.04342091
208	0x3cdee50c	0.027208827
209	0xbcf11f2c	-0.02943381
210	0xbdbafc97	-0.09130209
211	0xbdbb02f6	-0.09131424
212	0xbd8ad202	-0.06778337
213	0xbe11b7de	-0.14230296
214	0xbdc7b0b4	-0.097505
215	0xbe03826f	-0.12842725
216	0x3be4cab0	0.00698217
217	0xbde1c71d	-0.11024306
218	0xbe0447c3	-0.12918
219	0xbcb7be6d	-0.02242967
220	0xbdac3de4	-0.08410242
221	0xbdc8fb91	-0.098136075
222	0x3d118c04	0.03553392
223	0xbd93e443	-0.07221272
224	0xbdb979bf	-0.09056424
225	0xbe224e57	-0.15850197
226	0xbe2558ae	-0.1614711
227	0xbde9a2cc	-0.11408004
228	0xbca1ef51	-0.019767435
229	0xbda61da3	-0.081111215
230	0xbd94be5c	-0.07262871
231	0x3bed3447	0.007238898
232	0xbdbe24ec	-0.09284386
233	0xbd899c9a	-0.067193225
234	0xbd70dcf1	-0.058804456
235	0xbdf66b79	-0.120322175
236	0xbe0c3d66	-0.13695297
237	0xbdf68c79	-0.12038512
238	0x3a47003c	0.00075912825
239	0xbe08f6ee	-0.13375446
240	0xbdfadcf4	-0.12249175
241	0xbd143b9e	-0.036189668
242	0xbe02f585	-0.12788971
243	0xbde56261	-0.11200405
244	0xbe21276e	-0.15737697
245	0xbdf0ea4b	-0.11763438
246	0xbcf66049	-0.03007521
247	0xbd7820a4	-0.060578004
248	0xbd714e82	-0.05891276
249	0xbcc56726	-0.024097037
250	0xbdad5e15	-0.0846521
251	0xbd72154c	-0.05910234
252	0xbd9c7ba9	-0.07640774
253	0xbdcbaca1	-0.09945036
254	0xbdc73e98	-0.09728736
255	0xbdd6112a	-0.104524925

fc3.weight f4 [1, 300]
0	0x3c926d16	0.017874282
1	0xbba1a572	-0.0049330527
2	0xbc996055	-0.018722693
3	0x3c49d94c	0.012319874
4	0x3d20d359	0.039264057
5	0x3da39e85	0.079892196
6	0xbd0a82f0	-0.033816278
7	0x3da1a8a4	0.07893494
8	0x3c396fe7	0.0113181835
9	0x3c7b485b	0.015337075
10	0xbd53e4cd	-0.051731873
11	0x3ce36248	0.027756825
12	0x3ce126df	0.027484355
13	0xbca12018	-0.019668624
14	0x3c22bcdf	0.009932726
15	0x3d32bbeb	0.043636244
16	0x3d2b297b	0.041787606
17	0x3c9a9e4c	0.01887431
18	0x3cdf1cd9	0.027235435
19	0xbd584bf5	-0.052806813
20	0xbd155f7f	-0.036468025
21	0xbc79d18a	-0.015247712
22	0xbce670b9	-0.028129922
23	0xbd4c4be1	-0.04987705
24	0x3cf00a2e	0.029301729
25	0x3d175cae	0.03695362
26	0xbcc7fb0d	-0.024411703
27	0xbc98ae15	-0.018637696
28	0xbb513c3a	-0.0031926767
29	0xbc4affcc	-0.012390088
30	0x3c917670	0.01775667
31	0x3d413c1c	0.047176465
32	0xbcd450ec	-0.025917493
33	0xbb424de8	-0.0029648487
34	0x3ce6edf2	0.028189633
35	0x3dabfee3	0.08398225
36	0xbd07a988	-0.033120662
37	0xbc86c697	-0.016452117
38	0xbd753206	-0.05986216
39	0xbc86dd5e	-0.016462978
40	0x3caf1630	0.021372885
41	0x3b6b247d	0.0035879903
42	0x3cb9cae4	0.022679754
43	0x3ce5d223	0.028054303
44	0x3b834095	0.0040055015
45	0xbcabcb61	-0.020971002
46	0x3db53100	0.08847237
47	0xbc6aec67	-0.014338589
48	0xbd1f1918	-0.03884229
49	0xbd547bf2	-0.051876016
50	0xbcc0e386	-0.023545992
51	0xbcf2e237	-0.029648883
52	0x3cac1764	0.021007247
53	0x3b37bc32	0.0028035757
54	0x3d02a3e2	0.031894572
55	0x3a54fbac	0.000812466
56	0xbcaf7f02	-0.021422867
57	0x3d20bdb0	0.0392434
58	0x3c8cd277	0.017190201
59	0x3d14a06f	0.036285814
60	0xbd39fe04	-0.045408264
61	0x3c96d799	0.018413352
62	0x3d5787fb	0.052619915
63	0xbd94e155	-0.07269541
64	0x3d6089f6	0.05481907
65	0x3ceb8cb4	0.028753616
66	0x3e0b072b	0.13576953
67	0x3bc6e0e0	0.0060692877
68	0xbc0fb104	-0.008770231
69	0xbd146473	-0.03622861
70	0x399e41d0	0.00030185143
71	0x3d0421a3	0.03225864
72	0x3d96ab39	0.07356877
73	0x3d6d475c	0.05792938
74	0x3d61bea5	0.055113453
75	0xbca137e6	-0.019679975
76	0xbc546614	-0.01296379
77	0xbcc59e72	-0.024123404
78	0xbd5ddcba	-0.05416558
79	0xb9320235	-0.00016976225
80	0x3a630eb6	0.0008661555
81	0x3caf70cf	0.021416096
82	0x3d87c44b	0.06629237
83	0x3dbc71e8	0.092014134
84	0x3cc757fe	0.02433395
85	0xbd35fbbe	-0.044429533
86	0xbb3612aa	-0.002778212
87	0xb506661e	-5.006749e-07
88	0xbca303ff	-0.019899366
89	0x3d0d2368	0.034457594
90	0x3bdc49d5	0.0067226687
91	0x3d1c16ac	0.03810756
92	0x3ae69825	0.001759295
93	0x3c380ecd	0.0112339975
94	0x3cc16f4f	0.023612646
95	0x3bd374eb	0.0064531467
96	0xbc5d6f07	-0.0135152405
97	0x3c2ce87d	0.010553476
98	0x3ccca6af	0.024981825
99	0x3c5a2942	0.013315501
100	0x3cd5130d	0.02601006
101	0xbda278af	-0.07933175
102	0xbc8bc883	-0.017063385
103	0xbb43d78a	-0.002988311
104	0xbc4e59c1	-0.012594641
105	0xbb3f61f6	-0.0029202676
106	0xbd12f5a6	-0.0358788
107	0x3d0b519d	0.03401338
108	0xbcb6c639	-0.022311317
109	0x3a88dcde	0.00104418
110	0xbcc240a2	-0.02371246
111	0xbc38ade1	-0.011271925
112	0x3d430fe4	0.047622576
113	0xbc1b54bc	-0.0094806515
114	0x3d0774a3	0.033070218
115	0x3d28c249	0.04120091
116	0xbc6c7f8d	-0.014434707
117	0xbd3e006f	-0.046387132
118	0xbb14ca4d	-0.0022703588
119	0xbd11e80e	-0.035621695
120	0xbceb9737	-0.028758628
121	0x3a4b6720	0.0007759202
122	0xb9d0e83a	-0.00039845874
123	0xbd3391b6	-0.043840133
124	0x3da11b56	0.07866542
125	0xbc86fd42	-0.016478185
126	0x3b13f1da	0.0022574575
127	0x3d7d04c2	0.061772116
128	0xbd062ae8	-0.032755762
129	0x3d259576	0.04042574
130	0x3d83bcaf	0.06432473
131	0xbb1253e6	-0.002232784
132	0x3c5c1098	0.013431691
133	0x3d08f32c	0.03343503
134	0x3d500d6f	0.05079406
135	0x3d1137e9	0.03545371
136	0xbd851acc	-0.06499252
137	0xbdd6f5ec	-0.104961246
138	0xbce74e85	-0.028235683
139	0x3d652f2d	0.055953193
140	0xbd3097ae	-0.043113403
141	0x3cb069a6	0.021534752
142	0xbcead679	-0.028666722
143	0x3d4551e0	0.048173785
144	0x3dbcbcfa	0.09215732
145	0xbd6769ed	-0.056497503
146	0xbd31a66e	-0.04337161
147	0x3a833ca4	0.0010012579
148	0xbcb7718c	-0.02239301
149	0x3cf8ba68	0.030362323
150	0xbcb02fe8	-0.021507218
151	0xbd7d927d	-0.06190728
152	0x3b1fe0d9	0.0024395494
153	0x3d0a6cf7	0.033795323
154	0x3d00bbbb	0.031429034
155	0xbc919e0a	-0.017775554
156	0x3d0597d5	0.0326155
157	0x3ce9e82b	0.02855309
158	0x3d860cbb	0.06545397
159	0xbca32f96	-0.019920152
160	0x39580b3f	0.00020603555
161	0xbc91add7	-0.017783089
162	0x3ae6fb41	0.0017622487
163	0xbd1eafe9	-0.03874198
164	0xbccd369f	-0.02505046
165	0x3d41a5c9	0.047277246
166	0xbc599bff	-0.013281821
167	0xbc03564a	-0.008016178
168	0x3d2cf22d	0.042223144
169	0xbc7cc090	-0.01542677
170	0xbc384650	-0.011247233
171	0x3d8d0dec	0.06887421
172	0xbc8a6f68	-0.016898826
173	0xbcb2dcde	-0.021833833
174	0xbc3fb99b	-0.011701967
175	0x3cddfa74	0.027096964
176	0x3c970dbb	0.018439164
177	0xbc8dcdf3	-0.017310118
178	0xbc072a67	-0.008249856
179	0x3d4dbfca	0.050231732
180	0xbcbe8ff5	-0.023262003
181	0x3d490c9e	0.0490843
182	0xbd40fc80	-0.047115803
183	0x3d47380c	0.048637435
184	0x3dd4318c	0.10361013
185	0xbced82db	-0.02899306
186	0xbc22c85f	-0.0099354675
187	0x3ad0deb7	0.0015935515
188	0x3d1bd31d	0.03804313
189	0xbb18230d	-0.0023214251
190	0xbd884871	-0.06654442
191	0xbd204f6b	-0.03913824
192	0x3ca1cca5	0.019750902
193	0xbd1c0324	-0.038088933
194	0xbcc76718	-0.024341151
195	0x3d41f7ff	0.047355648
196	0xbcb3bd0e	-0.021940734
197	0xbd572e3f	-0.052534338
198	0x3af68660	0.0018808357
199	0x3d8031ed	0.062595226
200	0xbc26644f	-0.010155751
201	0x3c9ebf99	0.01937847
202	0xba52552a	-0.00080235547
203	0xbcf40d02	-0.029791359
204	0xbc6bf78c	-0.0144022815
205	0xbc003b3f	-0.007826625
206	0xbc5e6c2e	-0.013575597
207	0xbd2016b7	-0.039084163
208	0xbc0c31cf	-0.008556797
209	0x3cc7decf	0.024398236
210	0x3d07990e	0.03310495
211	0xbc93b1b6	-0.018029075
212	0xbd0b605d	-0.034027446
213	0xbce570a9	-0.028007822
214	0xbcb99c50	-0.022657543
215	0x3dcc3b23	0.09972217
216	0xbbeaa413	-0.0071606725
217	0xba280ae1	-0.00064103125
218	0x3c14b92e	0.009077353
219	0xbd285665	-0.041098017
220	0x3c683b4f	0.0141742965
221	0xbd163ae8	-0.03667727
222	0xbbefca2a	-0.007317801
223	0xbb8f9151	-0.0043813367
224	0x3d330666	0.043707274
225	0x3d28b940	0.041192293
226	0x3c836530	0.01603946
227	0xbd6ce7ea	-0.057838358
228	0xbd02b2b0	-0.03190869
229	0xbb5ab686	-0.0033372953
230	0xbd113630	-0.035452068
231	0xbc2b70ee	-0.010463936
232	0xbc8b7583	-0.017023807
233	0xbcc1f0cc	-0.023674391
234	0xbcffcdde	-0.031226095
235	0xbd9d4552	-0.076792374
236	0x3db435ec	0.08799347
237	0x3c91a8e6	0.017780732
238	0xbc3d7c47	-0.011565275
239	0xb9ff68d7	-0.00048715502
240	0x3b6df587	0.0036309676
241	0xbbff115f	-0.007784053
242	0x3d548c00	0.051891327
243	0x3c9ea98a	0.019367952
244	0xb82e0b57	-4.1495394e-05
245	0x3d154ac7	0.036448266
246	0xbce8def4	-0.028426625
247	0xba069259	-0.0005133502
248	0x3c9fa10f	0.019485978
249	0x3adbd2b1	0.0016771165
250	0x3d6631ec	0.056199953
251	0xbacbe2e6	-0.0015555292
252	0x3d62b57d	0.055348862
253	0x3d32ff81	0.0437007
254	0xbd367627	-0.044546273
255	0xbda20a6c	-0.07912144

bn1.weight f4 [400]
0	0x3f66f4dc	0.90217376
1	0x3f147119	0.57985073
2	0x3ecc725b	0.39930996
3	0x3cf16e9a	0.029471684
4	0x3eddea0d	0.4334263
5	0x3f419c6e	0.7562932
6	0x3e1de007	0.15417491
7	0x3e86a64d	0.26298752
8	0x3f5fab62	0.87370884
9	0x3f64ad1d	0.8932665
10	0x3f73e538	0.95271635
11	0x3e534e0d	0.20635243
12	0x3f285e5f	0.65769
13	0x3dd48bee	0.10378252
14	0x3bcb48f5	0.0062037655
15	0x3f589bef	0.84612936
16	0x3e184bed	0.14872713
17	0x3f4641c5	0.77444106
18	0x3e85ecaa	0.26157123
19	0x3ed0b496	0.40762776
20	0x3f21bdc6	0.63180196
21	0x3f0ceb14	0.550462
22	0x3f0b2379	0.54351
23	0x3f1302b4	0.57426
24	0x3f0a0130	0.5390806
25	0x3e8bf939	0.2733858
26	0x3eaa7593	0.33292827
27	0x3eeb19f1	0.4591823
28	0x3f4ab4f0	0.7918234
29	0x3e268a86	0.1626378
30	0x3d9a2608	0.07526785
31	0x3f3d5977	0.7396464
32	0x3eec3903	0.46137246
33	0x3eff3f77	0.49853107
34	0x3e24e337	0.161023
35	0x3ad96cbf	0.0016588195
36	0x3f5b14f2	0.85578835
37	0x3e48167a	0.19539824
38	0x3e87f0d6	0.2655093
39	0x3f1631ed	0.5866993
40	0x3e98a0a8	0.2981007
41	0x3f5d492a	0.86439764
42	0x3f59db93	0.8510067
43	0x3e15ffe0	0.1464839
44	0x3f5b1163	0.85573405
45	0x3d96bc07	0.07360082
46	0x3f30bdf5	0.6903985
47	0xbd595d47	-0.05306747
48	0x3e5e2f82	0.2169781
49	0x3e95b3d6	0.29238766
50	0x3ecc7033	0.3992935
51	0x3eaaf87c	0.33392704
52	0x3e503aae	0.20334885
53	0x3f1c3fc3	0.6103479
54	0x3ec95837	0.39325115
55	0x3f119b88	0.56877947
56	0x3dc42bb9	0.09578652
57	0x3f560c22	0.83612263
58	0x3e9f6d5d	0.31138125
59	0x3dac5989	0.08415515
60	0x3f1372ae	0.5759686
61	0x3f54fcb9	0.83198124
62	0x3f3d6828	0.73987055
63	0x3d601637	0.054708686
64	0x3e9569d9	0.29182318
65	0xba981c5c	-0.0011605131
66	0x3e94295f	0.28937814
67	0x3f5a2f95	0.85228854
68	0x3ee33084	0.44372952
69	0x3eb44884	0.35211575
70	0x3e6d8f70	0.23199248
71	0x3ee79db0	0.45237494
72	0x3f485b57	0.78264374
73	0x3f2b7715	0.6697858
74	0x3e42b970	0.19016051
75	0x3e3c3419	0.18379249
76	0x3f315710	0.6927347
77	0x3ebc4853	0.3677393
78	0x3f189ead	0.5961712
79	0x3e744c65	0.23857267
80	0x3c968e50	0.018378407
81	0x3f08e5fe	0.5347594
82	0x3f47b50a	0.7801062
83	0x3e849619	0.25895765
84	0x3f0491ad	0.51784784
85	0x3e0dd7d7	0.13851868
86	0x3f5a4767	0.852652
87	0x3f45716b	0.7712619
88	0x3e9ced4b	0.3064979
89	0x3edc6a6d	0.43049946
90	0x3f5c7bb0	0.8612623
91	0x3eca5e2c	0.39524972
92	0x3e8cd963	0.27509603
93	0x3f5c33b8	0.86016417
94	0x3ea43e9c	0.32079017
95	0x3f574cf7	0.84101814
96	0x3ee74077	0.4516637
97	0x3e87cc4e	0.2652306
98	0x3f4cb52e	0.7996396
99	0x3e02c74f	0.12771343
100	0x3e8f050e	0.27933544
101	0x3ec4d21b	0.38441548
102	0x3f0f9eb2	0.56101525
103	0x3d75b872	0.059990354
104	0x3f302fa4	0.68822694
105	0x3efa602f	0.48901507
106	0x399a2e42	0.00029407634
107	0x3f0f5197	0.5598387
108	0x3f0f4ead	0.55979425
109	0x3f6eec4d	0.93329316
110	0x3cb4f0e3	0.02208752
111	0x3f3cb8c1	0.7371941
112	0x3e4b726a	0.19867864
113	0x3f0f30b3	0.55933684
114	0x3e9ef25b	0.31044278
115	0x3f457861	0.7713681
116	0x3e3507a7	0.176787
117	0x3ed51a70	0.41621733
118	0x3eb0d809	0.34539822
119	0x3e9aee05	0.3025972
120	0x3f40b0b4	0.7526963
121	0x3f24656d	0.64217263
122	0x3f2766c9	0.6539121
123	0x3efebcf9	0.4975355
124	0x3f224190	0.6338129
125	0x3e42dc19	0.19029273
126	0x3f10a6fc	0.565048
127	0x3ecc7b98	0.39938045
128	0x3eed4233	0.46339568
129	0x3ed976aa	0.42473346
130	0x3eed17ab	0.4630712
131	0x3e588259	0.21143474
132	0x3f4cc1ad	0.79983026
133	0x3e9a0ba9	0.3008702
134	0x3eefd275	0.46840253
135	0x3ea720c4	0.32642186
136	0x3f047012	0.51733506
137	0x3f2acd7d	0.667198
138	0x3f1cdaf0	0.6127157
139	0x3e7efae7	0.24900399
140	0x3d067101	0.032822613
141	0x3f1243b5	0.5713456
142	0x3e35d6e8	0.17757761
143	0x3e28cb29	0.1648375
144	0x3f169ec1	0.5883599
145	0x3f270de5	0.65255576
146	0x3d4a97af	0.049461063
147	0x3e29215d	0.16516633
148	0x3f3029c4	0.6881373
149	0x3e92a0b5	0.28638235
150	0x3f4c5eca	0.79832137
151	0x3ef628ee	0.48078102
152	0x3ee383bf	0.44436452
153	0x3e7af0d2	0.24505928
154	0x3e1d2dd8	0.15349519
155	0x3dee0889	0.11622722
156	0x3f0bf67f	0.54673
157	0x3f48e41a	0.78473055
158	0x3e9e75b4	0.30949175
159	0x3f326068	0.69678354
160	0x3f021760	0.5081692
161	0x3e49c814	0.1970523
162	0x3edfdce7	0.43723223
163	0x3f2cde4c	0.675267
164	0x3eded9e7	0.4352562
165	0x3f710c26	0.9415916
166	0x3f3d348a	0.73908293
167	0x3e97a667	0.29619142
168	0x3eb696d6	0.35661954
169	0x3ea79d3b	0.32737145
170	0x3ea3889a	0.31940156
171	0x3f46375b	0.77428216
172	0x3eca7a41	0.39546397
173	0x3ed08d99	0.4073303
174	0x3c88410f	0.016632585
175	0x3df235d3	0.118266724
176	0x3e8642b4	0.26222765
177	0x3f58a068	0.8461976
178	0x3f26c35a	0.6514183
179	0x3f020481	0.5078812
180	0x3e4a20e3	0.19739108
181	0x3ef45b6b	0.47725996
182	0x3f5939dc	0.8485391
183	0x3e886c95	0.26645342
184	0x3e301c32	0.17198256
185	0x3e9a616c	0.30152452
186	0x3f2e472d	0.68077356
187	0x3ec485be	0.38383287
188	0x3d5efb0e	0.054438643
189	0x3e74859d	0.23879094
190	0x3dd2d7d3	0.102950715
191	0x3f0729d3	0.52798194
192	0x3e9132f3	0.28359184
193	0x3e3595bb	0.17732899
194	0x3edcbeed	0.43114415
195	0x3e3ba043	0.18322854
196	0x3eee48be	0.46539873
197	0x3f063540	0.52425003
198	0x3f212fd9	0.62963635
199	0x3d44f57a	0.048085667
200	0x3f262efb	0.64915437
201	0x3f31a19f	0.6938724
202	0x3f405bbc	0.75139976
203	0x3e59f411	0.2128451
204	0x3f238fc0	0.6389122
205	0x3ea205ba	0.31644994
206	0x3c6aeb43	0.014338317
207	0x3e688265	0.22705992
208	0x3e8afebe	0.27147478
209	0x3f30346b	0.68829983
210	0x3e9bd71d	0.30437556
211	0x3e9b0107	0.3027422
212	0x3eb3b205	0.35096756
213	0x3f0495c3	0.5179102
214	0x3eb26dbb	0.34849343
215	0x3f22f810	0.63659763
216	0x3d87b7d4	0.06626859
217	0x3ee0401c	0.43798912
218	0x3f4d002f	0.80078405
219	0x3f054178	0.5205302
220	0x3db0f36f	0.08640181
221	0x3f200df5	0.62521297
222	0x3dba0805	0.09083561
223	0x3ec5864e	0.3857903
224	0x3ea13265	0.3148376
225	0x3f318fbf	0.69359964
226	0x3f4d654d	0.802327
227	0x3f2df34c	0.67949367
228	0x3e706f7a	0.23480025
229	0xbb604983	-0.0034223504
230	0x3f1e6b0e	0.618821
231	0x3e8cbdf5	0.27488676
232	0x3eaf44c7	0.3423216
233	0x3f590a2d	0.8478115
234	0x3f0ccb44	0.5499766
235	0x3d1f0f67	0.03883305
236	0x3f83442f	1.0255183
237	0x3f22e46a	0.6362978
238	0x3ef71b77	0.48263142
239	0x3f597f3f	0.8495979
240	0x3ea237b6	0.3168313
241	0x3e6d44d6	0.2317079
242	0x3f2aef6b	0.6677157
243	0x3f2b493e	0.66908634
244	0x3ee581ac	0.44825494
245	0x3f0624c2	0.5239984
246	0x3f220ca1	0.6330052
247	0x3f2379f4	0.6385796
248	0x3e30c887	0.17263995
249	0x3f46a768	0.7759919
250	0x3f3c813e	0.7363471
251	0x3e3c5d4b	0.18394963
252	0x3d8af1f1	0.06784428
253	0x3f05e24c	0.52298427
254	0x3d8488ee	0.0647143
255	0x3e9f4da5	0.31113926

bn1.bias f4 [400]
0	0x3d9acad0	0.07558215
1	0x3e6cd192	0.2312682
2	0xbce69ba5	-0.028150389
3	0x3e5e52af	0.21711229
4	0xbcd48557	-0.025942488
5	0x3c27dd72	0.010245668
6	0x3da78d45	0.08181242
7	0x3cb16174	0.021652915
8	0x3dcbeb87	0.09957033
9	0x3d0a6a96	0.033793055
10	0x3d4fdeec	0.050749704
11	0x3e0f5057	0.13995491
12	0x3df6b477	0.1204614
13	0x3e261deb	0.1622235
14	0xbd7ff97f	-0.062493797
15	0xbd8d485a	-0.068985656
16	0x3df6939f	0.12039875
17	0x3df5976c	0.11991772
18	0xbbc57ec1	-0.006027073
19	0xbb528a7b	-0.0032125998
20	0x3c8c6d40	0.017141938
21	0x3cd25ced	0.025679076
22	0x3da1c8dd	0.0789964
23	0x3d8d4a59	0.06898946
24	0xbc99e7f5	-0.018787364
25	0x3ca3acf2	0.019979928
26	0x3de9d520	0.114176035
27	0x3dc46151	0.09588874
28	0x3e54c1e4	0.20777088
29	0xbd339c61	-0.043850306
30	0x3daf5fff	0.08563232
31	0x3bd89e2e	0.0066106534
32	0x3e18621a	0.14881173
33	0xbcc311e9	-0.023812251
34	0x3e1cac95	0.1530021
35	0xbdbe6c9b	-0.092980586
36	0xbd0a0a3b	-0.033701163
37	0x3da5ce8e	0.08096038
38	0x3d4421e0	0.04788387
39	0xbc22a663	-0.009927365
40	0xbc665ab1	-0.014059708
41	0x3dbcde89	0.09222133
42	0x3e3449d6	0.17606291
43	0x3d6ad01b	0.05732737
44	0x3a15c88e	0.0005713784
45	0x3d9545f9	0.07288737
46	0xbcb36018	-0.021896407
47	0xbda23f4a	-0.07922228
48	0xbaea655b	-0.001788299
49	0x3c89c6fe	0.01681852
50	0x3d043986	0.03228142
51	0x3e0eefcf	0.13958667
52	0xbd3cf5fe	-0.046133034
53	0x3d3a83a3	0.045535695
54	0xbd73a5fb	-0.059484463
55	0x3cd49936	0.025951963
56	0x3e412bed	0.18864413
57	0x3d7782ed	0.060427595
58	0x3d9505a4	0.072764665
59	0x3dd342e5	0.103154935
60	0xbe13c369	-0.14430012
61	0x3cdb83af	0.02679619
62	0x3d9eb7f3	0.07749929
63	0xbd50364e	-0.05083304
64	0x3e3084d0	0.17238164
65	0xbe0b3376	-0.1359385
66	0xbc40ff06	-0.011779552
67	0x3c19f54d	0.009396863
68	0x3dc7e91c	0.09761259
69	0x3e175aa9	0.14780678
70	0x3d605aa4	0.05477394
71	0x3e0e631f	0.13904999
72	0x3d9c27bf	0.076247685
73	0x3ca13d27	0.01968248
74	0x3e1d3068	0.15350497
75	0xbd9c4a4d	-0.07631359
76	0x3bf7ba09	0.007560019
77	0x3cfcbf67	0.030852986
78	0x3c9bd512	0.019022498
79	0xbcf40c79	-0.029791104
80	0x3e7b08f0	0.24515128
81	0x3e0dcaab	0.13846843
82	0xbd94ecf3	-0.07271757
83	0x3dfe9f40	0.12432718
84	0x3daa7c14	0.08324447
85	0x3dc81b07	0.0977078
86	0x3e069294	0.13141853
87	0x3cdc6bf7	0.02690695
88	0x3d6a5bf9	0.05721662
89	0x3e6e1be8	0.23252833
90	0xbcbfc2c2	-0.023408297
91	0xbdcc23b1	-0.09967745
92	0x3d3233d9	0.043506477
93	0x3d32b9f0	0.043634355
94	0x3de34963	0.11097982
95	0x3d8e5c81	0.069512375
96	0x3d1838cf	0.037163552
97	0x3c1feccf	0.009761049
98	0x3d92cc94	0.071679264
99	0x3b30c062	0.0026970138
100	0x3d0dcac9	0.03461722
101	0x3e6fa04a	0.23400989
102	0xbde019dc	-0.10942432
103	0x3e3064b3	0.17225914
104	0xbd7ee2ab	-0.062227886
105	0x3d9f56eb	0.0778025
106	0x3e33a5e1	0.17543747
107	0x3ca10b35	0.019658664
108	0x3e0c174b	0.1368076
109	0x3e6324ee	0.22182056
110	0xbdd108ce	-0.102067575
111	0x3ddd0710	0.10792363
112	0xbc296bc5	-0.010340636
113	0xbd6a6a76	-0.057230435
114	0x3de66a40	0.11250734
115	0x3e20bf23	0.15697913
116	0xbd7bedb3	-0.061505985
117	0xbe053d4d	-0.13011666
118	0x3da1707e	0.07882784
119	0xbd9a06d8	-0.075208366
120	0x3e08c4cf	0.13356327
121	0x3dc20552	0.09473671
122	0x3ddf1202	0.108921066
123	0x3c93f839	0.018062698
124	0x3dc2d467	0.09513169
125	0xbde7fd45	-0.11327604
126	0x3d86c68b	0.06580838
127	0x3de2412d	0.110475875
128	0xbdf12b2d	-0.11775813
129	0xbd9bb57f	-0.07602977
130	0xbd0bb16f	-0.03410476
131	0xbdcc5fa7	-0.09979182
132	0x3d3b62f2	0.04574866
133	0xbc673610	-0.014112011
134	0x3ddbad56	0.107264206
135	0x3d9e65c4	0.07734254
136	0x3d611228	0.054948956
137	0xbceb9104	-0.028755672
138	0x3d6f3fb4	0.05841036
139	0x3c9c4f73	0.019080853
140	0xbe66fa96	-0.22556528
141	0xbdbcea36	-0.0922436
142	0xbd410aa3	-0.047129285
143	0xbcc996e0	-0.024608076
144	0x3d6dff5d	0.05810486
145	0x3e30186e	0.17196819
146	0x3d425302	0.047442444
147	0x3dce7858	0.100815475
148	0x3d684a3c	0.05671142
149	0xbd801f5d	-0.06255982
150	0x3d99ed7d	0.075160004
151	0xbd8b7325	-0.068090715
152	0x3d83dab0	0.06438196
153	0xbd9f7126	-0.07785253
154	0x3e474bf8	0.19462574
155	0x3cfb8397	0.030702395
156	0xbbf21842	-0.0073881457
157	0x3d790260	0.06079328
158	0x3d976a3d	0.0739331
159	0x3c070762	0.008241506
160	0x3e042cde	0.1290774
161	0x3dee4b1c	0.1163542
162	0xbcfd5aa7	-0.030927015
163	0x3d5c7a30	0.053827465
164	0x3d9becb1	0.07613505
165	0x3d605f54	0.054778412
166	0x3d90bf5d	0.0706775
167	0x3e01110a	0.12604156
168	0x3ddf5e67	0.10906678
169	0x3cdc7767	0.026912404
170	0xbd5352f7	-0.051592793
171	0x3d0f4df0	0.034986436
172	0xbdfc6ec0	-0.123258114
173	0x3d8423c7	0.064521365
174	0xbd4e2a8f	-0.050333556
175	0x3cbd4669	0.023104863
176	0x3e0447f0	0.12918067
177	0x3e09e5ba	0.1346654
178	0x3dd17667	0.102276616
179	0xbd69fa01	-0.057123188
180	0x3d71e60c	0.05905728
181	0x3dba3833	0.090927504
182	0x3cad892b	0.02118357
183	0xbd8dd584	-0.069254905
184	0xbc3c7144	-0.011501614
185	0xbdf3bf98	-0.11901778
186	0x3dc1336f	0.09433638
187	0x3d71f2c6	0.059069417
188	0xbd53032f	-0.051516708
189	0x3e552d94	0.20818168
190	0x3d84ac17	0.06478136
191	0xbc2fba06	-0.010725504
192	0x3d9c1c23	0.07622554
193	0x3d4c9c7a	0.049953915
194	0x3d4d88f7	0.050179448
195	0xbd04c167	-0.032411005
196	0x3d4a66b8	0.049414366
197	0x3d4745bd	0.048650492
198	0x3cd6ba6c	0.02621194
199	0x3e043e46	0.1291438
200	0x3e1e8636	0.15480885
201	0x3db75e5c	0.089535445
202	0x3cd4d913	0.025982415
203	0xbc635f30	-0.013877675
204	0x3e23e900	0.16006851
205	0x3d22618d	0.039643813
206	0x3e0fb7be	0.14034936
207	0x3d5699ec	0.052392885
208	0x3dacc26e	0.08435522
209	0x3dc03dbd	0.09386776
210	0x3dcb18d8	0.09916848
211	0x3c1c5f31	0.00954418
212	0x3b8a30bb	0.004217235
213	0x3d0a2d71	0.033734743
214	0xbd05df55	-0.03268369
215	0x3dd656f8	0.10465807
216	0xbe046513	-0.12929182
217	0x3d704ae2	0.058665164
218	0xbe2c499b	-0.16824953
219	0x3d4b1d8a	0.049588718
220	0xb9d39842	-0.00040358497
221	0xbd05ab3e	-0.032634012
222	0xbba44c8a	-0.005014007
223	0xbdb0e6ed	-0.086377956
224	0x3e24cdaf	0.16094087
225	0xbd928662	-0.07154538
226	0x3d10117c	0.035172924
227	0x3d6a0a17	0.05713853
228	0xbd2784e6	-0.040898226
229	0xbe307cf7	-0.1723517
230	0x3d859338	0.065222204
231	0xbd9ddfce	-0.07708703
232	0x3b959c86	0.004565778
233	0x3e23d9fb	0.16001122
234	0x3dc70b04	0.09718898
235	0x3e7b4922	0.24539617
236	0x3d0bee8f	0.034163054
237	0x3d90ed74	0.070765406
238	0x3e0ebbe4	0.13938862
239	0x3e0f2935	0.13980563
240	0x3e41419b	0.18872683
241	0x3d72a085	0.059235115
242	0x3db9e35a	0.09076567
243	0xbcd160a2	-0.025558773
244	0xbd903272	-0.07040872
245	0xbc28d4ef	-0.010304674
246	0xbd5eafe8	-0.054366976
247	0xba6da5ac	-0.00090655196
248	0xbd80ad4d	-0.062830545
249	0x3d64add2	0.05582983
250	0x3b0d7aaf	0.0021588018
251	0x3e194782	0.14968684
252	0xbe2408b3	-0.16018943
253	0xbd9421f5	-0.07233039
254	0xbd2bc0a4	-0.041931763
255	0x3d884c64	0.06655195
